ecg_backend/modelFinal.pth (torch, 342792 bytes, 19 tensors)

weight f4 [32, 1, 3]
0.26163366 -0.583271 -0.70665085 0.20065796 -0.6369097 -1.3683552 0.05632026 -0.14040412
-0.18511772 -0.45463392 -0.1376382 -0.49682254 0.30563805 0.43237674 0.29073504 -0.027094945
0.32410792 0.03807556 -0.07565046 -0.5410792 -0.10623493 -0.44439015 -0.04068881 0.55013686
-0.29023445 -0.3037478 -0.5957154 -1.6502242 0.49287435 0.5570077 -0.08579617 0.09471213
0.0738114 -0.46346495 -0.22328484 0.010707874 0.56612396 -0.7835805 0.09329142 -0.33027244
-0.27912897 -0.68027776 -0.3269673 -0.2454394 -0.17203264 0.65062225 -0.7929426 -0.43220547
-0.16220823 0.4448452 -0.23068662 0.35291475 -1.0762423 -1.081204 0.44155353 -0.5188092
-0.28679082 -4.380428 0.84858215 -0.13189323 0.21236917 -0.22378212 -0.18195355 -0.10471716
-0.7121362 -0.41266274 -2.2673192 -0.48757538 0.8446069 -0.12563443 -0.17033838 -0.14323059
-0.40509805 0.33280087 -0.64703023 -0.5373293 -0.46290207 -0.5585416 -4.7470202 1.2781645
0.05235696 -0.5055144 -0.15348186 1.0078816 -0.16323948 -0.28538775 -0.15942603 -0.15680587
-1.5786176 0.1218437 -0.6340935 0.20293812 -0.38963646 -0.1115866 0.31223673 0.067199096
00000000: d9f4 853e 4051 15bf 12e7 34bf 4879 4d3e
00000010: 840c 23bf 4326 afbf 13b0 663d 19c6 0fbe
00000020: 808f 3dbe c7c5 e8be 07f1 0cbe 865f febe
00000030: 977c 9c3e 7c60 dd3e 39db 943e 38f6 ddbc
00000040: 79f1 a53e 1ef5 1b3d a1ee 9abd 2b84 0abf
00000050: b391 d9bd 1b87 e3be 4fa9 26bd c5d5 0c3f
00000060: 9c99 94be d584 9bbe ce80 18bf 8c3a d3bf
00000070: 075a fc3e 0e98 0e3f e7b5 afbd 6ff8 c13d
00000080: 6e2a 973d 474b edbe c8a4 64be 1470 2f3c
00000090: 80ed 103f bb98 48bf 920f bf3d 7819 a9be
000000a0: fee9 8ebe af26 2ebf 4268 a7be 7754 7bbe
000000b0: 5329 30be 2e8f 263f 49fe 4abf 094a ddbe
000000c0: ea19 26be c0c2 e33e 1d39 6cbe 3eb1 b43e
000000d0: 4fc2 89bf e564 8abf 4e13 e23e aed0 04bf
000000e0: 3fd6 92be 772c 8cc0 ae3c 593f 050f 07be
000000f0: 4e77 593e 2427 65be 0852 3abe f375 d6bd
00000100: 8f4e 36bf 8848 d3be c21b 11c0 7ba3 f9be
00000110: 2838 583f 50a6 00be 2f6d 2ebe 0aab 12be
00000120: 0369 cfbe e064 aa3e c6a3 25bf 6a8e 09bf
00000130: 8001 edbe 95fc 0ebf 97e7 97c0 e59a a33f
00000140: 4074 563d 6469 01bf 592a 1dbe 4402 813f
00000150: 4028 27be 581e 92be 9440 23be b891 20be
00000160: 2410 cabf 3189 f93d f453 22bf 03cf 4f3e
00000170: 6e7e c7be 8487 e4bd 7edd 9f3e ae9f 893d

bias f4 [32]
0.28782883 -0.15420917 -0.40641066 0.33326527 -0.22829656 -0.41684827 -0.0524129 -0.006082418
0.2294823 -0.2795373 -0.17181082 -0.13993597 -0.18618089 -0.019815395 -0.0016091162 -0.012647504
-0.34196544 -0.13844362 -0.5069621 0.23593463 -0.22660966 -0.014288961 -0.31128386 0.40485358
-0.1561938 -0.0004959222 0.008560396 -0.5537676 0.5679585 0.23265004 -0.06381978 -0.531865
00000000: 4d5e 933e 02e9 1dbe 0f15 d0be bfa1 aa3e
00000010: 93c6 69be 236d d5be e9ae 56bd 054f c7bb
00000020: 68fd 6a3e 831f 8fbe 2def 2fbe 604b 0fbe
00000030: 34a6 3ebe e553 a2bc fbe8 d2ba 7a37 4fbc
00000040: 1816 afbe 2ac4 0dbe 45c8 01bf d998 713e
00000050: 5d0c 68be 3f1c 6abc 9960 9fbe f848 cf3e
00000060: 44f1 1fbe c700 02ba e740 0c3c b7c3 0dbf
00000070: ba65 113f d03b 6e3e f2b3 82bd 4e28 08bf

weight f4 [64, 32, 3]
0.03652588 -0.10840965 -0.12391889 -0.10414451 0.004054487 0.030103011 0.0060136095 -0.09665566
0.033298563 -0.08188171 -0.052360367 -0.12577273 -0.07763458 0.06480879 -0.023555951 -0.060917176
-0.013962875 0.060231727 -0.079756424 0.08151245 -0.098401725 -0.0039026104 -0.007443038 0.018076977
-0.022510817 0.06322741 -0.040526778 -0.12330827 0.033685185 0.030072983 -0.0639126 -0.06378046
-0.0027813097 0.005021168 -0.05659607 0.024516556 -0.046629485 0.042301215 -0.12436161 -0.119073234
-0.004843274 -0.05268901 -0.122081555 0.008261937 -0.08279655 0.053041108 0.032402247 0.0019621481
-0.050440915 -0.036965225 0.071947135 0.07970064 -0.05967811 0.04563352 0.05390745 0.08313232
-0.04001343 0.08005537 -0.021120865 -0.09247313 -0.08739941 -0.0150127085 -0.08853072 -0.07601477
-0.08147857 0.08571605 -0.050399806 -0.011908557 0.012005696 0.029981595 0.038721673 -0.09132797
-0.020493524 0.020685745 -0.01670212 -0.06114584 -0.11801824 -0.024533596 -0.06520694 -0.021956742
0.032304745 -0.08264191 0.009226638 0.08123838 -0.06719586 -0.10476428 -0.0762177 0.022048889
-0.04316357 -0.028520605 -0.091725476 -0.057969138 -0.013347798 -0.055813275 0.007846007 -0.06842589
-0.04447426 0.022831958 -0.027083095 -0.0120090665 -0.049729574 -0.054219883 0.09034754 0.09747134
-0.08286722 0.010587422 -0.10500138 -0.021486696 -0.10761097 -0.083355814 0.05779289 -0.097255476
-0.06534005 0.00025973574 0.031402886 0.051232714 -0.07117293 0.054092903 -0.037472382 0.055483125
-0.10571646 -0.047354974 -0.096152544 -0.057288196 -0.10357834 -0.02867813 -0.08778693 -0.009080435
-0.039482605 -0.079771206 0.07651788 -0.100448124 0.06790512 -0.044555485 -0.016804688 -0.045057327
0.061144255 0.026037728 0.005134698 -0.028585872 -0.12248252 0.044889677 0.04468473 -0.07516152
0.036625955 -0.06975082 -0.08606997 0.042953853 0.026286175 0.021644497 -0.08724082 -0.087678276
-0.091033004 -0.004281104 0.028578036 -0.07570805 -0.007787739 -0.10898916 -0.08477723 -0.072894484
0.007357497 -0.06291682 0.08490095 -0.12548171 -0.0868795 -0.06548497 0.050933756 0.025361719
-0.038363423 -0.094921544 0.031709816 -0.004542586 -0.10887131 -0.013993791 -0.09292797 -0.08281149
-0.097303 -0.039521392 0.025069645 -0.06488525 -0.08473538 -0.043326188 -0.12049612 -0.07801183
0.0704781 0.026979849 -0.020403793 0.0558416 -0.092678316 0.08851736 -0.078923136 -0.01991862
-0.10654045 0.072803915 0.06860928 -0.03965689 0.021804681 -0.0038824258 -0.046979547 -0.0032731958
0.0141258985 -0.24679504 -0.23595166 -0.109219246 -0.06217269 0.022525322 -0.023758767 -0.03845638
8.475468e-05 -0.053384207 0.042873222 0.070863165 -0.07625551 0.081642345 0.11621578 0.13962954
0.0075862235 -0.07216107 -0.16056038 0.05988322 0.026632715 -0.020739567 0.05814185 0.031421058
0.020656688 -0.01893477 -0.053458218 0.084382795 0.054021068 -0.08071628 -0.11934533 0.013090498
-0.027839754 -0.093663566 -0.21956839 -0.18538505 -0.042469133 -0.063727304 0.06838985 -0.07073774
-0.05633853 -0.047864236 0.06104258 -0.17984766 -0.04636751 -0.06937596 -0.08213164 0.02177832
-0.01447147 -0.016543474 -0.020939134 -0.04660954 0.027365284 -0.02398777 -0.09408044 0.06214407
00000000: 299c 153d e105 debd 30c9 fdbd b849 d5bd
00000010: 81db 843b 979a f63c d00d c53b 67f3 c5bd
00000020: 1364 083d 99b1 a7bd d377 56bd 91ca 00be
00000030: e1fe 9ebd 79ba 843d 69f8 c0bc 4a84 79bd
00000040: 8bc4 64bc 8bb5 763d 5657 a3bd 00f0 a63d
00000050: d886 c9bd f0c2 7fbb bae4 f3bb 2b16 943c
00000060: 9b68 b8bc 5f7d 813d 68ff 25bd 0c89 fcbd
00000070: 7af9 093d 9e5b f63c 9ce4 82bd 549f 82bd
00000080: a246 36bb 9c88 a43b 48d1 67bd f2d6 c83c
00000090: 8ffe 3ebd 0a44 2d3d 4db1 febd abdc f3bd
000000a0: 54b4 9ebb 6ed0 57bd e505 fabd 135d 073c
000000b0: 3d91 a9bd a241 593d 38b8 043d 6297 003b
000000c0: 229b 4ebd d968 17bd 0559 933d 173a a33d
000000d0: 0971 74bd 37ea 3a3d 0fce 5c3d 4741 aa3d
000000e0: 1fe5 23bd 12f4 a33d aa05 adbc 8d62 bdbd
000000f0: 76fe b2bd ddf7 75bc 984f b5bd a2ad 9bbd
00000100: 3dde a6bd e58b af3d 0770 4ebd 1c1c 43bc
00000110: 8ab3 443c f69b f53c 9e9a 1e3d 290a bbbd
00000120: 09e2 a7bc 2775 a93c e2d2 88bc 0f74 7abd
00000130: 8cb3 f1bd aefa c8bc 378b 85bd a0de b3bc
00000140: fb51 043d 2940 a9bd 532b 173c 4f60 a63d
00000150: fc9d 89bd a88e d6bd 0718 9cbd df9f b43c
00000160: 49cc 30bd 0ba4 e9bc 91da bbbd 0c71 6dbd
00000170: b9b0 5abc 769c 64bd 8a8c 003c df22 8cbd
00000180: a42a 36bd 160a bb3c 5edd ddbc adc1 44bc
00000190: 3db1 4bbd ab15 5ebd 2208 b93d 0e9f c73d
000001a0: 4ab6 a9bd de76 2d3c f70a d7bd de04 b0bc
000001b0: 2463 dcbd 74b6 aabd 3db8 6c3d e12d c7bd
000001c0: 01d1 85bd 242d 8839 50a0 003d 65d9 513d
000001d0: 1dc3 91bd 8590 5d3d a47c 19bd 4642 633d
000001e0: df81 d8bd 4af7 41bd a0eb c4bd 07a7 6abd
000001f0: e120 d4bd 66ee eabc a2c9 b3bd 1bc6 14bc
00000200: 83b8 21bd 165f a3bd 68b5 9c3d bfb7 cdbd
00000210: d711 8b3d d07f 36bd fca9 89bc 088e 38bd
00000220: 6672 7a3d 134d d53c f840 a83b eb2c eabc
00000230: 1ed8 fabd 3dde 373d 5607 373d 48ee 99bd
00000240: 1905 163d 85d9 8ebd 7445 b0bd 61f0 2f3d
00000250: 1b56 d73c cd4f b13c 51ab b2bd ab90 b3bd
00000260: 836f babd 8148 8cbb 7c1c ea3c d20c 9bbd
00000270: 4a30 ffbb b535 dfbd af9f adbd b449 95bd
00000280: 2817 f13b 89da 80bd 8de0 ad3d 477e 00be
00000290: e1ed b1bd fc1c 86bd ea9f 503d 61c3 cf3c
000002a0: f722 1dbd 3a66 c2bd 27e2 013d f9d9 94bb
000002b0: ecf7 debd 3746 65bc 0551 bebd 1299 a9bd
000002c0: cc46 c7bd 2fe1 21bd db5e cd3c 8fe2 84bd
000002d0: be89 adbd cd76 31bd abc6 f6bd abc4 9fbd
000002e0: d256 903d d804 dd3c db25 a7bc 29ba 643d
000002f0: 21ce bdbd 9748 b53d 74a2 a1bd 602c a3bc
00000300: e131 dabd 381a 953d 0683 8c3d 436f 22bd
00000310: bb9f b23c 4c70 7ebb a06d 40bd 1d83 56bb
00000320: 5070 673c d7b7 7cbe 509d 71be 57ae dfbd
00000330: caa8 7ebd 0687 b83c bfa1 c2bc 7084 1dbd
00000340: 53be b138 66a9 5abd d59b 2f3d b520 913d
00000350: d92b 9cbd 1a34 a73d 8a02 ee3d 0cfb 0e3e
00000360: db95 f83b 2fc9 93bd f169 24be 1b48 753d
00000370: da2c da3c 06e6 a9bc 2626 6e3d 5eb3 003d
00000380: 3738 a93c 171d 9bbc 01f7 5abd e3d0 ac3d
00000390: 3245 5d3d 944e a5bd 536b f4bd 8779 563c
000003a0: 3210 e4bc afd2 bfbd 89d6 60be 94d5 3dbe
000003b0: 1df4 2dbd 7683 82bd fa0f 8c3d f3de 90bd
000003c0: 3bc3 66bd 4a0d 44bd c907 7a3d fc29 38be
000003d0: dceb 3dbd fc14 8ebd a234 a8bd 7368 b23c
000003e0: bf19 6dbc 2e86 87bc 8c88 abbc a5e9 3ebd
000003f0: 292d e03c 0082 c4bc 3fad c0bd c88a 7e3d

bias f4 [64]
-0.04232193 -0.078689314 -0.11565487 -0.1858278 -0.11052224 -0.068070866 -0.08045224 -0.12945381
-0.009858245 -0.12367792 -0.079879604 -0.028099015 -0.085293226 0.024535812 -0.12633526 -0.075206384
-0.24779388 -0.033382278 -0.1067223 -0.059789874 -0.09231278 -0.04292639 -0.0563318 0.1445941
0.013323376 -0.05321709 -0.094910465 -0.089593664 -0.38695621 -0.118615516 -0.07459974 -0.14199306
0.030205134 -0.09269007 -0.029898893 -0.16013777 -0.0991352 -0.07653308 -0.2812299 -0.12520687
-0.100394025 -0.03752294 -0.2233588 -0.06918981 -0.095988214 -0.06571122 -0.14767379 -0.14202204
-0.04375645 -0.1001525 -0.21145594 -0.11198812 -0.080307715 -0.05955768 -0.08529992 -0.09320103
0.011481579 -0.14323698 -0.1326166 -0.043702055 -0.10191887 0.016553462 -0.21870847 -0.12373934
00000000: c359 2dbd dd27 a1bd 76dc ecbd a549 3ebe
00000010: 7c59 e2bd bd68 8bbd 25c4 a4bd 8a8f 04be
00000020: 7a84 21bc d94a fdbd eb97 a3bd e82f e6bc
00000030: 37ae aebd 54ff c83c 085e 01be ce05 9abd
00000040: aebd 7dbe dbbb 08bd 3991 dabd 3ae6 74bd
00000050: 7c0e bdbd 95d3 2fbd 2cbc 66bd 7a10 143e
00000060: 4a4a 5a3c 2afa 59bd 6b60 c2bd e27c b7bd
00000070: 201f c6be b1ec f2bd c0c7 98bd a166 11be
00000080: c270 f73c 4bd4 bdbd 86ee f4bc 28fb 23be
00000090: 6507 cbbd 60bd 9cbd 5efd 8fbe 3b36 00be
000000a0: 629b cdbd a8b1 19bd 2bb8 64be 63b3 8dbd
000000b0: 7895 c4bd 9b93 86bd cc37 17be 3a6e 11be
000000c0: f739 33bd c11c cdbd e887 58be 075a e5bd
000000d0: 5f78 a4bd c1f2 73bd b9b1 aebd 2ee0 bebd
000000e0: 3c1d 3c3c b7ac 12be a5cc 07be ed00 33bd
000000f0: d7ba d0bd 209b 873c 1df5 5fbe 0d6b fdbd

weight_ih_l0 f4 [256, 64]
-0.030590704 0.13788249 -0.18403275 0.11100149 -0.042478167 0.036055066 0.05579176 0.028604183
0.019606534 -0.10907601 0.062193397 -0.082724534 0.10680682 -0.05080049 -0.10553117 -0.09086216
-2.1204169 0.07173277 -1.1070273 -0.108239494 0.04395288 -0.24854942 -0.009170638 -0.6659184
-0.31212226 0.08541507 -0.0068606334 -0.026842115 -0.5556413 -0.13295428 -0.018384445 0.02326999
-0.9012739 -0.49572408 -0.1501881 0.160826 -0.086047694 -0.13884717 -0.00045270997 0.11516355
0.020233631 -0.11336544 -0.015119068 0.121095 0.095120125 0.024153767 -0.09092911 -0.019062253
-0.056286477 -0.037039906 -0.5198494 -0.10284464 -0.03892844 -0.032777935 -0.03695398 0.019134767
0.014879092 -0.015809271 0.029957024 0.06999989 -0.04868148 -0.11206827 1.9536991 0.009103404
-0.064850695 -0.12091381 -0.02976883 -0.08211081 -0.20686318 0.051070932 -0.044977315 0.028853962
-0.026567305 -0.004125939 -0.11913826 0.01787855 -0.21930918 0.052473083 -0.05395719 -0.05130016
-0.0294055 0.053027388 -0.47864908 0.06700982 0.16168258 -0.12611876 -0.040717088 -0.21816926
-0.9176668 0.0016705209 0.019554121 0.1456214 -1.1425301 -0.09828494 -0.09638913 0.06089537
0.17211632 0.13376129 0.07736345 -0.091944434 0.09098755 0.0756652 -0.021932691 -0.3707723
-0.055110596 -0.12494881 -0.018124605 -0.05219159 -0.04343005 -0.0015656425 -0.059231292 -0.10735974
-0.014583939 0.017840534 0.18719704 -0.05970754 -0.05945057 -0.022838375 -0.200265 -0.038725372
-0.14061421 -0.19149622 0.27233845 -0.12373798 -0.058160648 -0.07573645 1.3284718 0.06278119
-0.12246567 -0.035996437 -0.0013088662 -0.18638948 -0.031071002 0.13298288 -0.11608032 0.12292886
-0.031747717 -0.072036624 0.11374958 -0.08347135 0.05666812 -0.12011927 -0.13990721 -0.054327168
0.05967985 -0.03993388 -0.8690196 0.075713076 -0.040614933 -0.35603645 -0.024824295 -0.29476598
-0.36426634 -0.09714655 -0.042990517 -0.1178927 -0.81130266 -0.026675168 0.06520066 0.01240894
0.21305194 0.20886554 0.035395723 0.10254219 0.010264493 -0.08000818 -0.47849968 0.25552967
0.0103269145 -0.086211026 -0.17295526 0.1176465 -0.09294516 -0.119375415 0.10286811 -0.17192547
-0.12409516 0.01042613 -0.5377191 -0.046922818 -0.032829776 -0.11465489 -0.13761093 -0.061331347
-0.0017067875 -0.035422035 -0.00898614 -0.0646407 0.040254217 -0.0989854 0.12430296 0.052238934
-0.1327851 -0.05150714 -0.21128033 0.09071231 -0.41255173 -0.080415115 -0.2433049 -0.1343532
-0.011358176 -0.040441737 0.023981873 -0.019851536 0.07379973 0.06803491 0.103980236 -0.08916961
-1.001001 -0.08766405 -0.023683121 -0.16249888 0.019168515 -0.32931152 0.13590632 -1.6713263
-2.351623 -0.06215676 0.093981676 0.027411219 1.0358838 -0.07798503 -0.009398575 -0.24116753
-0.009859717 -0.7988172 -0.11503009 -0.05593669 -0.010474426 -0.14509611 -0.1992368 -0.4625997
-0.13944754 -0.03905957 -0.26362187 -0.10186547 0.07383108 0.036598403 -0.10387614 -0.12436314
0.00018202497 -0.036912974 0.5091973 0.13555263 0.037779946 -0.0066806385 -0.004189462 0.107905485
0.017578948 -0.18045399 -0.18515293 0.10773156 0.055121005 0.03701079 1.5220511 -0.040108208
00000000: 5b99 fabc 1131 0d3e 1573 3cbe c054 e33d
00000010: 96fd 2dbd 7aae 133d e785 643d 5253 ea3c
00000020: e29d a03c 3e63 dfbd 81be 7e3d 7b6b a9bd
00000030: 89bd da3d 2d14 50bd ba20 d8bd f115 babd
00000040: e9b4 07c0 a1e8 923d 12b3 8dbf abac ddbd
00000050: ef07 343d bd83 7ebe 7240 16bc a179 2abf
00000060: 7dce 9fbe 19ee ae3d 2acf e0bb ffe3 dbbc
00000070: 823e 0ebf 2b25 08be fa9a 96bc b5a0 be3c
00000080: e3b9 66bf 8ccf fdbe e9ca 19be 92af 243e
00000090: c639 b0bd f42d 0ebe b459 edb9 deda eb3d
000000a0: 00c1 a53c 242c e8bd f8b5 77bc a800 f83d
000000b0: 57ce c23d 1fde c53c 0b39 babd 7128 9cbc
000000c0: a68c 66bd 28b7 17bd da14 05bf 36a0 d2bd
000000d0: 6e73 1fbd 2842 06bd 0e5d 17bd 84c0 9c3c
000000e0: 6fc7 733c 7282 81bc 6f68 f53c 1a5c 8f3d
000000f0: 3b66 47bd 0d84 e5bd d012 fa3f 7226 153c
00000100: 71d0 84bd a9a1 f7bd c3dd f3bc b629 a8bd
00000110: f1d3 53be c12f 513d 223a 38bd 255f ec3c
00000120: ada3 d9bc e332 87bb c3fe f3bd 0976 923c
00000130: 9692 60be 04ee 563d 3702 5dbd 1e20 52bd
00000140: cee3 f0bc 3f33 593d 7e11 f5be 723c 893d
00000150: 1e90 253e 4725 01be f6c6 26bd c367 5fbe
00000160: 36ec 6abf 61f5 da3a f72f a03c c71d 153e
00000170: 6d3e 92bf 9d49 c9bd aa67 c5bd 6c6d 793d
00000180: 433f 303e b8f8 083e ba70 9e3d 5d4d bcbd
00000190: ae57 ba3d 5bf6 9a3d 30ac b3bc ded5 bdbe
000001a0: a6bb 61bd 29e5 ffbd 0d7a 94bc d9c6 55bd
000001b0: b5e3 31bd 3f36 cdba 839c 72bd 6cdf dbbd
000001c0: 79f1 6ebc 5026 923c 95b0 3f3e e58f 74bd
000001d0: 7182 73bd 8b17 bbbc 4512 4dbe 7f9e 1ebd
000001e0: 2cfd 0fbe 9617 44be f26f 8b3e 576a fdbd
000001f0: dc39 6ebd b61b 9bbd 5d0b aa3f 6d93 803d
00000200: 48cf fabd 0071 13bd 438e abba e2dc 3ebe
00000210: 9d88 febc aa2c 083e 85bb edbd 20c2 fb3d
00000220: e509 02bd f087 93bd 8af5 e83d 07f3 aabd
00000230: d51c 683d 1801 f6bd d643 0fbe 2a86 5ebd
00000240: dc72 743d b591 23bd 1278 5ebf 750f 9b3d
00000250: d85b 26bd 694a b6be 525c cbbc 91eb 96be
00000260: 1e81 babe c5f4 c6bd d316 30bd ba71 f1bd
00000270: 88b1 4fbf e285 dabc ec87 853d de4e 4b3c
00000280: 4a2a 5a3e d9e0 553e 1bfb 103d a401 d23d
00000290: 672c 283c 54db a3bd e9fd f4be c9d4 823e
000002a0: 3832 293c 688f b0bd 2f1b 31be a6f0 f03d
000002b0: 085a bebd 197b f4bd 84ac d23d 3b0d 30be
000002c0: 9a25 febd 5cd2 2a3c f5a7 09bf 2432 40bd
000002d0: 8478 06bd 2fd0 eabd e1e9 0cbe 9436 7bbd
000002e0: 49b6 dfba b216 11bd 9a3a 13bc 5862 84bd
000002f0: 9be1 243d dbb8 cabd 8d92 fe3d 7ef8 553d
00000300: d1f8 07be 27f9 52bd df59 58be 60c7 b93d
00000310: fb39 d3be aeb0 a4bd eb24 79be e393 09be
00000320: a517 3abc 3ca6 25bd a275 c43c b09f a2bc
00000330: 5024 973d e355 8b3d 97f3 d43d 8e9e b6bd
00000340: cd20 80bf 3689 b3bd 1b03 c2bc 1b66 26be
00000350: 4a07 9d3c 859b a8be 072b 0b3e 05ee d5bf
00000360: fe80 16c0 1698 7ebd 7779 c03d 7e8d e03c
00000370: d797 843f 9eb6 9fbd 7bfc 19bc 9ff4 76be
00000380: a78a 21bc 497f 4cbf e594 ebbd df1d 65bd
00000390: ed9c 2bbc 1394 14be bb04 4cbe ded9 ecbe
000003a0: 56cb 0ebe edfc 1fbd 72f9 86be d89e d0bd
000003b0: c034 973d 35e8 153d 04bd d4bd 1ab2 febd
000003c0: f5dd 3e39 0f32 17bd c15a 023f 4fce 0a3e
000003d0: 25bf 1a3d 42e9 dabb c147 89bb 8dfd dc3d
000003e0: ba01 903c eec8 38be bb98 3dbe 5da2 dc3d
000003f0: 90c6 613d a098 173d 92d2 c23f 8148 24bd

weight_hh_l0 f4 [256, 64]
0.07499992 2.0971396 -1.3441571 -0.8787764 0.23180921 -0.9031915 0.42957237 1.3708789
0.21320744 0.097912945 0.6969298 0.2051757 0.18992978 0.760552 -1.7770224 -0.65204155
0.8465786 -0.9344312 -0.14026333 0.95915616 -0.18259676 0.21429001 0.8097604 -2.1785004
-1.163203 -1.9882911 0.13350369 0.8496206 -1.6129303 -1.2279059 -1.602793 -0.7359825
1.0926565 2.1671185 -0.32315418 -2.0341694 1.3569573 1.782073 -1.0833269 0.33307356
-0.031737637 -2.3361068 1.3976319 0.13719188 1.3846918 0.6366608 0.8099745 -1.1935092
1.3713247 -1.7542236 0.414809 0.90419215 0.3042868 -0.095845304 -1.6468669 0.27713123
-1.7356014 -0.46249154 -0.28828508 0.6882409 0.11454755 -1.489843 -0.67953014 -0.35603917
-0.37503543 0.22022907 0.17400089 -0.37607634 -0.23771514 -0.32077748 -0.14594233 0.39603832
0.29033574 0.1908212 -0.09723803 0.37414083 0.22494021 0.16720803 -0.2177013 0.4270862
-0.011717372 0.04862705 -0.6918345 0.077906 -0.13899046 1.4594688 -0.108848296 -0.36304745
-0.32158014 -0.020881867 -0.09381962 0.063959844 0.45998323 -0.31144682 0.015334368 -0.8800339
-0.34472024 -0.73823655 -0.18974169 -0.95120275 0.16266435 -0.074644454 -0.10689452 1.4224854
0.37543678 -0.53344715 0.8021962 0.7597474 1.351838 0.41079634 -0.1608017 0.019482601
-0.360703 -0.045203984 -0.3060859 -0.61266315 0.6334801 -0.22730929 -0.24463111 -0.8326016
-0.07167074 -0.73242956 0.10764843 0.29186845 0.1274388 -0.37563363 0.3394207 0.055802036
0.48625565 0.32450086 -0.47327173 -0.96578836 0.061136447 -0.11452507 0.1699909 0.17287979
0.39500633 0.97138137 0.27772686 0.031419132 -0.23601107 -0.21649767 0.22262175 -0.4247579
-1.0821846 0.5979666 -0.64502996 -0.2743873 -0.35065243 0.36964718 0.1597013 -0.28405502
-0.10392296 -0.6248718 0.5400472 -0.33269933 -0.3150385 -0.36926624 0.3995537 0.25052044
-0.0094970325 1.0203993 0.39549568 0.3211049 -1.4397537 -0.13945445 1.3388361 -0.39772576
-0.13026653 0.075550966 -0.24731137 -1.92745 -0.21196605 0.38737112 0.9423386 -0.7271575
0.7990477 0.6996727 1.3104509 0.552902 0.6747839 -0.1754672 -0.6751589 0.27199328
0.7979121 0.2385647 -0.028572252 0.37400952 -0.43324828 -0.30049524 0.68144065 0.7279756
0.09381076 -0.22944325 1.5909045 -0.9191249 -0.3442483 -1.1298075 0.07704449 0.39381403
0.55954623 0.5054448 0.1601869 -0.0058273966 0.41796193 0.31903595 -0.3589273 -1.2175703
-0.54627544 -0.01809336 -1.1264256 -0.14842424 -0.7535308 0.533277 -1.1203083 -1.1391089
-1.127097 0.6259635 1.201106 0.8113408 0.9943075 -0.76752365 -0.028905533 -0.34314215
-0.39278078 -1.6150887 -0.20811057 -0.9403954 0.6638794 0.3824515 0.21806228 1.5893755
0.9522253 -0.7352421 0.39038476 1.481499 1.752929 0.55941886 -0.72134435 1.378197
-0.5204106 -0.3404931 1.0895027 -0.7301823 0.82528317 0.509324 0.55478776 -0.034167547
0.7989888 0.12388802 -0.5609179 0.8522309 0.94883573 0.25504994 1.5084487 0.82306
00000000: 8f99 993d 8937 0640 570d acbf 7df7 60bf
00000010: 655f 6d3e 8f37 67bf e9f0 db3e f678 af3f
00000020: 0d53 5a3e 9586 c83d fe69 323f 9419 523e
00000030: f47c 423e 89b3 423f 7875 e3bf 32ec 26bf
00000040: 60b9 583f e236 6fbf 31a1 0fbe 428b 753f
00000050: a5fa 3abe d76e 5b3e 754c 4f3f 8d6c 0bc0
00000060: d6e3 94bf 5380 febf 31b5 083e bc80 593f
00000070: 8074 cebf 052c 9dbf 5228 cdbf 5969 3cbf
00000080: 2bdc 8b3f 12b2 0a40 7774 a5be d52f 02c0
00000090: c7b0 ad3f f81a e43f 75aa 8abf 9e88 aa3e
000000a0: 53ff 01bd c682 15c0 9ae5 b23f 077c 0c3e
000000b0: 953d b13f 34fc 223f 7d5a 4f3f e9c4 98bf
000000c0: 9187 af3f 668a e0bf d861 d43e 2379 673f
000000d0: 7bcb 9b3e 8b4a c4bd 89cc d2bf 25e4 8d3e
000000e0: 3028 debf b1cb ecbe 1a9a 93be 8e30 303f
000000f0: e897 ea3d 2db3 bebf b0f5 2dbf c44a b6be
00000100: a504 c0be bb83 613e 4a2d 323e 148d c0be
00000110: 996b 73be f23c a4be e871 15be 89c5 ca3e
00000120: e3a6 943e a266 433e bb24 c7bd 638f bf3e
00000130: ba56 663e 9538 2b3e 17ed 5ebe 0bab da3e
00000140: 38fa 3fbc 282d 473d 111c 31bf 2e8d 9f3d
00000150: 8453 0ebe e0cf ba3f dbeb debd 5be1 b9be
00000160: 27a6 a4be 7310 abbc 8024 c0bd 61fd 823d
00000170: ec82 eb3e f575 9fbe 003d 7b3c e749 61bf
00000180: 2c7f b0be 12fd 3cbf a54b 42be 0682 73bf
00000190: 7c91 263e 31df 98bd 84eb dabd 0014 b63f
000001a0: 4039 c03e fe8f 08bf bb5c 4d3f ce7e 423f
000001b0: 0709 ad3f e653 d23e 33a9 24be fa99 9f3c
000001c0: 10ae b8be d027 39bd 4bb7 9cbe 7ed7 1cbf
000001d0: c02b 223f c4c3 68be 9480 7abe 6125 55bf
000001e0: 1cc8 92bd 8180 3bbf c876 dc3d c86f 953e
000001f0: 517f 023e 0d53 c0be 8dc8 ad3e ad90 643d
00000200: 80f6 f83e fa24 a63e ac50 f2be e83d 77bf
00000210: 366a 7a3d 1f8c eabd 1812 2e3e 6607 313e
00000220: 453e ca3e 73ac 783f 3732 8e3e 59b1 003d
00000230: e3ac 71be 91b1 5dbe f5f6 633e de79 d9be
00000240: 0685 8abf 5714 193f af20 25bf 7e7c 8cbe
00000250: b788 b3be 6542 bd3e bd88 233e a96f 91be
00000260: 90d5 d4bd 99f7 1fbf 8940 0a3f 9157 aabe
00000270: ba4c a1be 7710 bdbe 4d92 cc3e 3744 803e
00000280: 7199 1bbc 729c 823f 697e ca3e dd67 a43e
00000290: d949 b8bf 26cd 0ebe fb5e ab3f b6a2 cbbe
000002a0: 9764 05be 77ba 9a3d 313f 7dbe aeb6 f6bf
000002b0: a10d 59be 8255 c63e 1a3d 713f fe26 3abf
000002c0: 648e 4c3f c01d 333f dbbc a73f fc8a 0d3f
000002d0: a3be 2c3f acad 33be 37d7 2cbf b442 8b3e
000002e0: f843 4c3f 4e4a 743e 5b10 eabc 2d7e bf3e
000002f0: b8d2 ddbe 83da 99be e572 2e3f 9c5c 3a3f
00000300: db1f c03d 2cf3 6abe c2a2 cb3f c54b 6bbf
00000310: 5041 b0be 889d 90bf 80c9 9d3d fea1 c93e
00000320: 6c3e 0f3f d564 013f 0908 243e bff3 bebb
00000330: 1bff d53e ae58 a33e 52c5 b7be 58d9 9bbf
00000340: b5d8 0bbf 8738 94bc b72e 90bf 86fc 17be
00000350: 65e7 40bf d784 083f 4366 8fbf 52ce 91bf
00000360: b744 90bf 253f 203f d7bd 993f 08b4 4f3f
00000370: f08a 7e3f 6e7c 44bf 4ccb ecbc 54b0 afbe
00000380: 901a c9be 3abb cebf f01a 55be c1bd 70bf
00000390: 00f4 293f afd0 c33e b84b 5f3e a870 cb3f
000003a0: 0ac5 733f d438 3cbf 83e0 c73e c2a1 bd3f
000003b0: fa5f e03f 1336 0f3f 06aa 38bf c268 b03f
000003c0: a139 05bf 1d55 aebe d374 8b3f 3aed 3abf
000003d0: c245 533f 0f63 023f 9206 0e3f 45f3 0bbd
000003e0: 888a 4c3f 01b9 fd3d 5198 0fbf ce2b 5a3f
000003f0: e6e6 723f e895 823e d914 c13f 0fb4 523f

bias_ih_l0 f4 [256]
-1.0853971 -0.39225766 -0.5398029 -1.3307999 -1.5016787 -1.3393323 -0.7405321 -0.96672153
-0.9644555 -0.38320532 -0.808939 -0.93498373 -1.2120906 -0.6896822 -1.201159 -0.7065086
-1.9513085 -0.5928535 -0.105353124 -1.818129 -1.1221317 -1.0612766 -0.20707943 -0.3506667
-0.6708799 -0.7037277 -0.8932465 -0.7052691 -0.5490567 -1.0340647 -0.48598623 -0.6420736
-0.24760772 -0.64292336 -0.55549914 -0.87001204 -0.9270668 -0.6144548 -0.9605665 -0.7739302
-0.7789713 -0.61164516 -0.9716634 -1.1039195 -0.78095174 -0.3788788 -0.94121504 -0.7650106
-0.37523377 -0.98176366 -1.1943101 -1.0215075 -0.41226688 -0.8764461 -0.93520784 -1.0895898
-1.253535 -1.1731273 -1.2231348 -0.84145844 -0.7479358 -0.9800417 -0.62468565 -0.13664825
-0.3708225 0.7936867 0.16541862 0.2777416 -0.43295062 -0.12911524 0.2570822 0.76732826
0.36350238 0.46107382 0.96643156 0.044929624 0.18638851 1.020763 0.38237548 0.14292628
-0.9667224 0.95056444 -0.2879499 -0.5970129 -0.0958537 0.121569216 0.3367996 0.11708468
0.7192298 -0.25599712 -0.11920458 1.0843467 -0.2142261 -0.40377685 1.0587174 -0.32402027
-0.24350141 -0.24710163 0.69018877 -1.2499775 0.42037168 -0.12140399 1.1294144 0.9194102
0.44316795 0.12909353 0.49563706 -1.2178144 -0.6667432 0.5612644 -0.000510854 0.3468731
-0.16301028 0.27001846 0.16053689 0.41397005 0.16607311 0.40351042 -2.9267828 -0.2936442
-0.3126249 -0.45971295 -0.7247939 -0.50708246 1.0872281 0.39980808 0.4358235 0.19700934
0.10813675 0.04419299 -0.29763126 0.086817056 -0.25486603 0.22788793 -0.03072964 0.0097868685
0.04901698 -0.03749417 -0.12994649 0.30619374 0.20892087 -0.03809449 0.14141183 0.048091713
0.13926633 -0.0069122068 0.0032738307 0.08145478 0.09206065 0.066429794 0.081775345 0.060169082
-0.11816601 0.0038009076 -0.03814592 -0.09829914 -0.13013077 -0.08768653 0.15275955 -0.22790259
0.06563679 -0.06686099 0.003596596 0.14617293 -0.24393637 -0.05429249 0.07149496 -0.14471124
-0.18155801 0.012451869 -0.0154178925 0.013031083 0.10620029 -0.07202931 0.1399963 -0.06382056
-0.030384779 0.13436183 -0.12177798 0.13742898 0.024932079 -0.27586162 0.05993738 -0.06399245
0.02732619 -0.034968622 0.17474808 -0.14045684 -0.06551192 0.011270319 -0.048193637 0.09359573
-1.0197068 -0.08619083 -0.69899786 -1.1960237 -1.4677796 -1.3712133 -0.80538684 -0.73617214
-1.0980774 -0.3191158 -0.620809 -0.7826879 -1.0718192 -0.011873649 -1.2375716 -0.76258147
-1.8804014 -0.2640318 0.014920139 -1.7020818 -0.8813391 -0.9933741 -0.2803051 -0.32964545
-0.5897319 -0.706641 -0.7339549 -0.47538912 -0.57629 -1.068172 -0.18996501 -0.48050547
-0.18304914 -0.67509156 -0.35437208 -0.8140517 -0.7398432 -0.5039351 -0.3568326 -0.6497988
-0.5618207 -0.66980296 -0.8494737 -1.0873 -0.75467515 -0.40320078 -0.8873312 -0.83433735
-0.34809834 -0.9186883 -1.0494814 -0.9427114 -0.36857262 -0.8428848 -1.0145878 -1.191477
-1.2557142 -1.058112 -1.2330596 -1.0363955 -0.53634506 -0.8835547 -0.47886562 0.24132729
00000000: 4bee 8abf ffd5 c8be 8630 0abf a757 aabf
00000010: 0237 c0bf 3e6f abbf 8393 3dbf 107b 77bf
00000020: 8ee6 76bf 7d33 c4be a016 4fbf 185b 6fbf
00000030: c925 9bbf 038f 30bf 94bf 99bf bfdd 34bf
00000040: 7ac4 f9bf 3fc5 17bf 61c3 d7bd 73b8 e8bf
00000050: 03a2 8fbf e9d7 87bf a10c 54be 968a b3be
00000060: c9be 2bbf 8027 34bf cdab 64bf 848c 34bf
00000070: fb8e 0cbf 3b5c 84bf 30d3 f8be ef5e 24bf
00000080: e18c 7dbe a096 24bf 3135 0ebf 1cb9 5ebf
00000090: 4054 6dbf e94c 1dbf b0e7 75bf 4a20 46bf
000000a0: aa6a 47bf c794 1cbf efbe 78bf 3c4d 8dbf
000000b0: 74ec 47bf 67fc c1be 78f3 70bf bcd7 43bf
000000c0: a41e c0be dd54 7bbf 27df 98bf c2c0 82bf
000000d0: a514 d3be c65e 60bf c869 6fbf ae77 8bbf
000000e0: d673 a0bf 0929 96bf ae8f 9cbf d269 57bf
000000f0: b878 3fbf 03e4 7abf 66eb 1fbf 85ed 0bbe
00000100: 72dc bdbe 0d2f 4b3f 8063 293e 2634 8e3e
00000110: b4ab ddbe c936 04be 47a0 833e a06f 443f
00000120: fc1c ba3e de11 ec3e 0f68 773f 2008 383d
00000130: a1dc 3e3e 5da8 823f b8c6 c33e 445b 123e
00000140: 1f7b 77bf 3158 733f 2b6e 93be d6d5 18bf
00000150: f24e c4bd 48f9 f83d ff70 ac3e 18ca ef3d
00000160: 721f 383f 0e12 83be 8821 f4bd dfcb 8a3f
00000170: 165e 5bbe d7bb cebe 0d84 873f fce5 a5be
00000180: 6f58 79be 3608 7dbe 36b0 303f 43ff 9fbf
00000190: f53a d73e a8a2 f8bd a790 903f 785e 6b3f
000001a0: e9e6 e23e 1831 043e 24c4 fd3e 58e1 9bbf
000001b0: afaf 2abf 06af 0f3f d5ea 05ba 5a99 b13e
000001c0: 2bec 26be dc3f 8a3e c863 243e e2f3 d33e
000001d0: 120f 2a3e eb98 ce3e 6950 3bc0 8858 96be
000001e0: 5f10 a0be 7f5f ebbe 188c 39bf 28d0 01bf
000001f0: 4a2a 8b3f a5b3 cc3e 4224 df3e d1bc 493e
00000200: cd76 dd3d b503 353d 2063 98be 24cd b13d
00000210: cd7d 82be 745b 693e babc fbbc 1a59 203c
00000220: 07c6 483d 7d93 19bd b110 05be 6dc5 9c3e
00000230: 5aef 553e f808 1cbd 43ce 103e d1fb 443d
00000240: d59b 0e3e cb7f e2bb c48d 563b c4d1 a63d
00000250: 4b8a bc3d 580c 883d d579 a73d db73 763d
00000260: 0501 f2bd a618 793b e53e 1cbd 0f51 c9bd
00000270: 0041 05be ff94 b3bd 006d 1c3e 4c5f 69be
00000280: 956c 863d 6aee 88bd deb4 6b3b 5bae 153e
00000290: 75ca 79be cd61 5ebd f36b 923d 2f2f 14be
000002a0: 58ea 39be ed02 4c3c 549b 7cbc 5380 553c
000002b0: 8a7f d93d 1a84 93bd 315b 0f3e 5bb4 82bd
000002c0: 80e9 f8bc 2696 093e bc66 f9bd 2fba 0c3e
000002d0: 5c3e cc3c bc3d 8dbe e680 753d 790e 83bd
000002e0: 2ddb df3c 423b 0fbd 29f1 323e ebd3 0fbe
000002f0: 1d2b 86bd 25a7 383c b166 45bd 1eaf bf3d
00000300: c185 82bf d184 b0bd 86f1 32bf 4e17 99bf
00000310: 34e0 bbbf eb83 afbf d52d 4ebf c775 3cbf
00000320: cd8d 8cbf 2563 a3be 57ed 1ebf 3c5e 48bf
00000330: 5f31 89bf b289 42bc bf68 9ebf 8a38 43bf
00000340: feb0 f0bf 2d2f 87be 9973 743c d1dd d9bf
00000350: 709f 61bf c44d 7ebf 2684 8fbe 4ac7 a8be
00000360: abf8 16bf 6de6 34bf 78e4 3bbf 3466 f3be
00000370: be87 13bf dcb9 88bf 3086 42be d004 f6be
00000380: 3c71 3bbe cdd2 2cbf 4270 b5be b165 50bf
00000390: 5d66 3dbf e401 01bf c3b2 b6be 3759 26bf
000003a0: 7bd3 0fbf 3578 2bbf 1c77 59bf a52c 8bbf
000003b0: 6432 41bf 5570 cebe 2328 63bf 2297 55bf
000003c0: f239 b2be 282f 6bbf 6855 86bf 8955 71bf
000003d0: 8db5 bcbe 4cc7 57bf 03de 81bf 5182 98bf
000003e0: 3ebb a0bf 3770 87bf e6d4 9dbf 9ca8 84bf
000003f0: e94d 09bf a430 62bf e02d f5be 801e 773e

bias_hh_l0 f4 [256]
-0.89066494 -0.35299388 -0.52460307 -1.2551279 -1.5602369 -1.4030012 -0.6579612 -1.0519325
-1.1232121 -0.34436926 -0.84033316 -0.9806931 -1.1110712 -0.6360023 -1.278015 -0.70934194
-1.8765866 -0.68597925 -0.22172625 -1.6930262 -1.1429656 -1.2042366 -0.27705562 -0.4683366
-0.8079188 -0.52924633 -0.7084114 -0.7711871 -0.3854732 -1.0526595 -0.6234725 -0.5445654
-0.100662 -0.58683187 -0.49705192 -0.89486706 -0.75371015 -0.38835308 -0.7377811 -0.7361717
-0.6749118 -0.5350729 -0.77517426 -1.1373284 -0.82415605 -0.41624528 -0.84568954 -0.9654671
-0.47313613 -0.9363778 -1.174656 -0.87625736 -0.24651149 -0.94898796 -1.0392494 -1.0655408
-1.1762862 -1.168858 -1.1581463 -0.82289743 -0.7948782 -0.9790398 -0.6272859 -0.119911194
-0.5421778 0.77322227 0.10092519 0.13101591 -0.46524456 -0.16755265 0.2823445 0.6949875
0.36242378 0.4900862 1.05289 0.14867692 0.14229122 1.101335 0.37261254 0.18792333
-0.787211 1.0779939 -0.3030982 -0.69443244 -0.13732235 0.1917165 0.16096787 -0.031049017
0.5603921 -0.19663489 -0.15493013 1.11278 -0.046131015 -0.2817295 0.9638495 -0.2755401
-0.09407848 -0.19453424 0.75166553 -1.0274534 0.33597755 -0.115012474 1.15479 0.91252923
0.5263908 0.023512295 0.50414085 -1.1326857 -0.8339368 0.55148166 0.16765912 0.50781536
-0.079995155 0.30844486 0.31381798 0.4235741 0.22283915 0.31712517 -3.108102 -0.5138658
-0.32282448 -0.36378333 -0.9229833 -0.4413339 0.9323686 0.40355235 0.51407915 0.1675535
-0.06936018 0.03096264 -0.24490306 0.02647857 -0.21382989 0.25624642 0.026528126 -0.013208748
0.000568948 0.04682597 -0.002642594 0.15312971 0.1526548 -0.06297916 0.00877808 0.021654926
0.005297788 0.006409779 -0.07489494 0.20868759 0.23352797 -0.0459158 0.057731643 0.09360008
-0.049271226 -0.14771809 0.16236077 -0.0028544352 -0.07155263 -0.1638081 0.046556897 -0.1073389
-0.107859984 -0.010380206 -0.0025997285 0.19516204 -0.24143198 -0.09867386 0.05584409 -0.24154493
-0.13816231 0.1314876 -0.08731079 0.09542224 0.12023532 -0.012712017 0.015100928 -0.021174274
-0.02988954 0.23213835 0.018180093 0.11183454 -0.14640376 -0.07870114 -0.035928223 0.10144712
-0.046114497 -0.1299097 0.111357 0.028381491 -0.08966842 0.056606397 -0.026045011 -0.013445588
-0.8623786 -0.09282557 -0.64985055 -1.1391169 -1.5085025 -1.2967263 -0.7129756 -0.90518063
-1.0002319 -0.43008736 -0.58216286 -0.9403077 -1.0689371 -0.18959928 -1.1697288 -0.74128026
-1.915044 -0.38696072 0.024607489 -1.6995192 -1.0918113 -1.0023608 -0.15733871 -0.34145093
-0.53349024 -0.73807746 -0.77839303 -0.54404473 -0.49112225 -1.0624236 -0.18699911 -0.61646974
-0.032745272 -0.43760258 -0.28036702 -0.9118603 -0.626295 -0.34249938 -0.4593605 -0.53168035
-0.5984983 -0.5533739 -0.70086706 -1.116036 -0.6692911 -0.450799 -0.74909294 -0.6251089
-0.5288912 -0.9378998 -1.0179408 -0.9060211 -0.3710597 -0.6990014 -0.916264 -1.0637467
-1.3194126 -1.1200528 -1.2280487 -0.9566247 -0.41713816 -0.9198201 -0.5037878 0.12785907
00000000: 9e02 64bf 9dbb b4be 634c 06bf 08a8 a0bf
00000010: d8b5 c7bf 8b95 b3bf 2570 28bf b9a5 86bf
00000020: 6ac5 8fbf 2b51 b0be 1320 57bf b40e 7bbf
00000030: 9537 8ebf 0cd1 22bf ff95 a3bf 6f97 35bf
00000040: fd33 f0bf 569c 2fbf 350c 63be 15b5 d8bf
00000050: b24c 92bf 6d24 9abf 3cda 8dbe d1c9 efbe
00000060: c4d3 4ebf b07c 07bf 735a 35bf 856c 45bf
00000070: be5c c5be 8cbd 86bf e59b 1fbf a368 0bbf
00000080: e127 cebd 9d3a 16bf 977d febe 0216 65bf
00000090: 26f3 40bf 37d6 c6be 39df 3cbf c075 3cbf
000000a0: 05c7 2cbf 8afa 08bf d271 46bf fa93 91bf
000000b0: e4fb 52bf 1a1e d5be 1c7f 58bf da28 77bf
000000c0: e63e f2be 75b6 6fbf 215b 96bf 6752 60bf
000000d0: 826d 7cbe e0f0 72bf 2006 85bf a463 88bf
000000e0: 8c90 96bf 249d 95bf 233e 94bf 68a9 52bf
000000f0: 237d 4bbf 5aa2 7abf cf95 20bf 0094 f5bd
00000100: 2acc 0abf e5f1 453f deb1 ce3d 0929 063e
00000110: 8934 eebe ec92 2bbe 758f 903e b3ea 313f
00000120: 9c8f b93e 94ec fa3e 19c5 863f c33e 183e
00000130: cab4 113e 8cf8 8c3f 12c7 be3e f96e 403e
00000140: a986 49bf b4fb 893f b02f 9bbe 53c6 31bf
00000150: 3b9e 0cbe 5551 443e c3d4 243e 825a febc
00000160: db75 0f3f a85a 49be 01a6 1ebe 936f 8e3f
00000170: e0f3 3cbd d93e 90be d7be 763f 9813 8dbe
00000180: 38ac c0bd fc33 47be 276d 403f 9883 83bf
00000190: 4005 ac3e a98b ebbd 29d0 933f 849b 693f
000001a0: 8cc1 063f db9c c03c 600f 013f d8fb 90bf
000001b0: e27c 55bf e72d 0d3f d5ae 2b3e 3000 023f
000001c0: 80d4 a3bd 7cec 9d3e c0ac a03e b4de d83e
000001d0: f22f 643e 3b5e a23e 25eb 46c0 b68c 03bf
000001e0: 4049 a5be cf41 babe a248 6cbf 84f6 e1be
000001f0: b5af 6e3f 6a9e ce3e b19a 033f 2593 2b3e
00000200: b60c 8ebd 5da5 fd3c dec7 7abe 96e9 d83c
00000210: 39f6 5abe bb32 833e 8351 d93c 8169 58bc
00000220: 7425 153a 97cc 3f3d 5f2f 2dbb 09ce 1c3e
00000230: 8a51 1c3e 38fb 80bd f0d1 0f3c ac65 b13c
00000240: 1199 ad3b 2009 d23b 8562 99bd 33b2 553e
00000250: f521 6f3e 3512 3cbd 0478 6c3d 66b1 bf3d
00000260: a0d0 49bd 6943 17be e741 263e 7a11 3bbb
00000270: 2f8a 92bd 50bd 27be 72b2 3e3d 7fd4 dbbd
00000280: b2e5 dcbd bd11 2abc 3560 2abb 8fd8 473e
00000290: f239 77be 8515 cabd c6bc 643d 8e57 77be
000002a0: 6c7a 0dbe afa4 063e 00d0 b2bd bc6c c33d
000002b0: ef3d f63d 1046 50bc e269 773c ac75 adbc
000002c0: e9da f4bc adb5 6d3e 6bee 943c 8209 e53d
000002d0: deea 15be 102e a1bd 7929 13bd 82c3 cf3d
000002e0: 8ee2 3cbd 0c07 05be 240f e43d 4d80 e83c
000002f0: 14a4 b7bd 1cdc 673d 595c d5bc e24a 5cbc
00000300: d8c4 5cbf 551b bebd 9b5c 26bf 95ce 91bf
00000310: 9c16 c1bf 21fb a5bf 9285 36bf ebb9 67bf
00000320: 9907 80bf 6934 dcbe a008 15bf 01b8 70bf
00000330: eed2 88bf 5026 42be acb9 95bf 8bc4 3dbf
00000340: 2920 f5bf b71f c6be a595 c93c d889 d9bf
00000350: 79c0 8bbf 5c4d 80bf 661d 21be a8d2 aebe
00000360: d192 08bf a5f2 3cbf c444 47bf 8446 0bbf
00000370: 6074 fbbe 7ffd 87bf b27c 3fbe f6d0 1dbf
00000380: e81f 06bd 720d e0be 448c 8fbe ad6f 69bf
00000390: de54 20bf 145c afbe 4d31 ebbe 341c 08bf
000003a0: 2f37 19bf e9a9 0dbf 066c 33bf 45da 8ebf
000003b0: a956 2bbf 20cf e6be 8ec4 3fbf 2307 20bf
000003c0: 6a65 07bf 341a 70bf e24b 82bf 00f1 67bf
000003d0: 89fb bdbe c1f1 32bf 4790 6abf da28 88bf
000003e0: 83e2 a8bf e45d 8fbf b330 9dbf 5be5 74bf
000003f0: 2293 d5be 5479 6bbf 3df8 00bf 7ded 023e

weight f4 [32, 64]
-0.14612699 0.27564642 0.71491086 -0.45599326 -0.01811674 -0.6129633 -0.23413374 0.1447164
0.74044967 0.38447627 0.09009076 -0.33343476 0.17215909 -0.07354608 0.2310381 -0.028251061
-0.17910498 0.4415277 0.5232914 0.48322657 0.53754413 0.41109854 -0.13050096 -0.07758085
0.11484642 0.6517147 0.15383318 0.029150877 -0.38797796 0.13891912 0.021332603 -0.33073196
0.45339718 -1.3020931 0.01848078 0.41670224 -0.1387066 -0.10957448 0.061318174 0.1302047
0.47805256 0.26264685 0.15498942 0.085070334 0.23498063 0.04452192 0.37322935 -0.48034704
0.090477146 0.28532013 0.13070014 -0.011434623 0.13840784 0.03055704 0.82314426 0.0067519383
0.5254227 0.03933571 -0.09348091 -0.4510874 0.16989657 -0.15695983 -0.48840252 -0.0063791196
0.41485748 -0.33766004 -0.35660556 0.33986935 0.49590144 -0.018602936 0.086664096 -0.43055972
0.35077807 0.14727099 -1.145951 -0.22250763 0.96529853 0.92024755 -0.36607748 -0.39546445
0.66960746 -0.16492523 0.029591704 0.73290235 0.04127323 0.25500238 -0.040649295 -0.09050833
-0.6656169 -0.07131721 -0.13791062 1.0259143 -0.43904263 -0.37774438 0.73832667 0.08786362
0.42076683 0.0742237 -0.215828 -0.04689848 -0.16275272 0.2801329 0.58732986 0.035763495
-0.3663374 -0.13449712 0.1390119 -0.69827825 -0.012430014 -0.19774085 0.42760387 -0.10080049
0.26297772 0.11553146 0.9360303 0.6271869 0.2945127 -0.28620556 0.39232346 0.14596224
-0.3503571 0.10630498 0.95206773 -0.32504705 0.88619775 0.39349157 -0.13510449 -0.14806822
0.16892223 0.06902116 -0.5482157 -0.2937135 1.1612352 -0.002997278 -0.3874862 -0.19632228
0.7848902 0.10690101 -0.3575866 -0.5510656 -0.050385077 0.015053343 -0.07428904 -0.9378896
0.028547905 0.37879592 0.4459821 0.7166277 -0.33301654 0.035234645 0.6869481 -0.36606768
-0.15712373 0.09748302 -0.41744864 0.17155409 -0.5308139 0.17120282 -0.0060550408 0.6192266
0.57581145 0.45541742 0.29302245 0.6444867 -0.28311002 -0.21665129 0.02536211 0.22187346
0.48296413 0.21281943 0.00082403707 -1.9155039 -1.208484 0.36204165 0.35976964 -0.90350026
0.038720563 0.40410608 0.66966015 0.6968524 0.34843153 -0.805495 0.47239405 0.73167497
0.27716812 0.4993947 1.9079083 -1.0121678 -0.16332187 -0.09033526 0.0027668923 0.5030441
0.17403169 -0.122410946 0.05989966 0.2723386 -0.8237953 0.43308204 -0.17195904 -0.35013282
0.07385664 -0.5765043 -0.06593281 0.46488392 0.89783007 0.10185654 0.3431175 0.73184496
0.47441727 0.5241702 -1.1469536 0.7193822 0.7650994 -0.33242676 -0.46940216 0.7095327
0.31327337 -0.2802138 0.3028012 -0.2741353 0.33800548 -0.12893923 0.7282172 -0.46532062
-0.12633638 -0.16752294 -0.20413622 0.25828227 -0.58862406 0.03502717 0.48606372 -0.03687361
-1.1069674 0.12784791 -0.26854515 1.5863193 0.6914837 -0.4067141 0.011477264 0.14166002
-0.31621218 0.4505728 -0.30069113 -0.21237352 -0.12947187 -0.48185423 0.26067358 -0.27230775
0.027714504 -0.16597112 0.46491098 -0.073900476 0.102909714 0.05798334 0.5545102 -0.5301426
00000000: 50a2 15be 8721 8d3e 6604 373f f377 e9be
00000010: 8f69 94bc 2aeb 1cbf c1c0 6fbe 8930 143e
00000020: 1c8e 3d3f 13da c43e 8181 b83d f6b7 aabe
00000030: 794a 303e 549f 96bd 4095 6c3e c56e e7bc
00000040: 4c67 37be eb0f e23e 6df6 053f 7969 f73e
00000050: 7e9c 093f 827b d23e 0ba2 05be b5e2 9ebd
00000060: 9a34 eb3d c6d6 263f 7286 1d3e d2cd ee3c
00000070: 0ca5 c6be d040 0e3e b6c1 ae3c b355 a9be
00000080: ad23 e83e fdaa a6bf 0165 973c ff59 d53e
00000090: 1a09 0ebe 9668 e0bd c428 7b3d 6254 053e
000000a0: 4ec3 f43e a679 863e 8cb5 1e3e 5b39 ae3d
000000b0: c39e 703e 9e5c 363d eb17 bf3e 0cf0 f5be
000000c0: 154c b93d 7b15 923e 42d6 053e 4958 3bbc
000000d0: c9ba 0d3e c252 fa3c 95b9 523f 5d3f dd3b
000000e0: 1a82 063f 7b1e 213d eb72 bfbd edf4 e6be
000000f0: 5ef9 2d3e 14ba 20be e50f fabe ef07 d1bb
00000100: 3368 d43e c7e1 acbe 0195 b6be 5b03 ae3e
00000110: cbe6 fd3e 2f65 98bc f27c b13d 5372 dcbe
00000120: 2f99 b33e 35ce 163e 86ae 92bf 0ad9 63be
00000130: ce1d 773f 5895 6b3f 826e bbbe 517a cabe
00000140: 656b 2b3f 29e2 28be 4d6a f23c 7d9f 3b3f
00000150: 1e0e 293d ac8f 823e e07f 26bd 6e5c b9bd
00000160: df65 2abf c20e 92bd 7138 0dbe 2951 833f
00000170: 32ca e0be b667 c1be fa02 3d3f d7f1 b33d
00000180: c06e d73e 9802 983d 0402 5dbe 9f18 40bd
00000190: a6a8 26be 946d 8f3e 405b 163f be7c 123d
000001a0: 9390 bbbe 9db9 09be 2359 0e3e 5dc2 32bf
000001b0: 42a7 4bbc 947c 4abe e5ee da3e 7d70 cebd
000001c0: 04a5 863e c29b ec3d af9f 6f3f 528f 203f
000001d0: 5eca 963e 8989 92be 9fde c83e 2077 153e
000001e0: 0162 b3be 6db6 d93d b6ba 733f 916c a6be
000001f0: dbdd 623f ba77 c93e d558 0abe 329f 17be
00000200: f3f9 2c3e f75a 8d3d dd57 0cbf 9e61 96be
00000210: 5ba3 943f fb6d 44bb 9764 c6be b508 49be
00000220: 90ee 483f ebee da3d 9715 b7be a312 0dbf
00000230: 9560 4ebd 4ca2 763c da24 98bd 8819 70bf
00000240: 4cdd e93c 8af1 c13e c457 e43e ea74 373f
00000250: 2581 aabe 3452 103d d5db 2f3f 396d bbbe
00000260: 0be5 20be 2da5 c73d d4bb d5be e0ab 2f3e
00000270: 6be3 07bf cb4f 2f3e 5d69 c6bb a285 1e3f
00000280: 6168 133f 792c e93e 0a07 963e 15fd 243f
00000290: ccf3 90be d6d9 5dbe 33c4 cf3c cc32 633e
000002a0: 1347 f73e 56ed 593e 3104 583a 3b2f f5bf
000002b0: 9baf 9abf 865d b93e ba33 b83e cb4b 67bf
000002c0: 7499 1e3d fee6 ce3e d96e 2b3f eb64 323f
000002d0: 9e65 b23e ec34 4ebf a2dd f13e 0d4f 3b3f
000002e0: fbe8 8d3e aab0 ff3e 5736 f43f b78e 81bf
000002f0: d93d 27be b101 b9bd c054 353b 80c7 003f
00000300: 5d35 323e 97b2 fabd 5959 753d f76f 8b3e
00000310: 40e4 52bf eebc dd3e 0816 30be 9c44 b3be
00000320: 2642 973d c995 13bf c807 87bd 4405 ee3e
00000330: 31d8 653f 299a d03d 19ad af3e 315a 3b3f
00000340: d2e6 f23e 0530 063f 60cf 92bf 6f29 383f
00000350: 8edd 433f d733 aabe 7b55 f0be efa3 353f
00000360: 5e65 a03e 2f78 8fbe c208 9b3e 765b 8cbe
00000370: 0e0f ad3e a508 04be 716c 3a3f 813e eebe
00000380: 535e 01be 228b 2bbe 1609 51be 933d 843e
00000390: 11b0 16bf a678 0f3d 58dd f83e c808 17bd
000003a0: 1cb1 8dbf 90ea 023e c07e 89be 830c cb3f
000003b0: 1305 313f d53c d0be 220b 3c3c 530f 113e
000003c0: 90e6 a1be 7ab1 e63e 30f4 99be 7278 59be
000003d0: 4694 04be 99b5 f6be 0277 853e ec6b 8bbe
000003e0: 8709 e33c 55f4 29be d008 ee3e 2259 97bd
000003f0: 54c2 d23d f07f 6d3d 61f4 0d3f 6db7 07bf

bias f4 [32]
-0.022492744 0.084498554 -0.0033863236 0.05194964 0.029298715 0.02783328 -0.006147611 -0.005763136
0.023737382 0.015100195 0.0072390838 0.002715981 0.023218658 0.05532163 0.021926984 -0.0073806928
0.015930325 0.043168083 -0.017530836 -0.022963032 -0.0021528737 0.006897505 0.0026233466 0.002246743
-0.028872758 -0.015933355 0.006057231 0.021137243 0.003782472 -0.010010439 -0.021109248 0.026804952
00000000: b442 b8bc 940d ad3d 15ed 5dbb 25c9 543d
00000010: dc03 f03c 9e02 e43c e671 c9bb b0d8 bcbb
00000020: e674 c23c cf66 773c d635 ed3b 9afe 313b
00000030: 0e35 be3c ef98 623d 38a0 b33c bdd9 f1bb
00000040: 5080 823c 04d1 303d d49c 8fbc f81c bcbc
00000050: 3a17 0dbb 7704 e23b 74ec 2b3b 183e 133b
00000060: 9086 ecbc ab86 82bc bd7b c63b 0328 ad3c
00000070: 5ae3 773b d302 24bc 4ded acbc 0f96 db3c

weight f4 [64, 32]
0.071861856 -0.05820683 -0.084257334 -0.016874466 -0.15406479 0.18366438 0.050916933 -0.19963934
0.10157357 -0.004177432 0.12978509 -0.05812673 -0.027993608 -0.19874859 -0.20037676 -0.16980788
-0.07071597 0.10668325 -0.19076099 -0.057610016 0.010825838 0.030757455 0.1121637 -0.03422931
0.09448618 -0.03134067 -0.043204296 -0.079982035 -0.14350025 -0.07586605 -0.028811863 0.11620597
-0.1246838 0.35890284 0.51282984 0.07296118 0.27561474 -0.020889258 -0.5891134 0.04087225
-0.051302884 0.040960595 -0.023109462 0.88546133 0.026697133 -0.46085224 -0.05215229 -0.018559754
0.18301876 -0.37193254 -0.433113 -0.3603028 0.19226915 0.4447362 -0.536545 0.1492919
-0.26084092 0.12512383 0.22929034 0.48206416 -0.006609803 0.3534312 -0.22662795 0.44116715
0.10246259 0.08707385 -0.16110466 -0.19096158 0.28782883 0.05312788 -0.47119883 -0.082508236
0.046596363 -0.08374954 0.16952401 0.17414284 0.18753257 0.14466123 0.15788692 0.06135355
0.08643533 0.35634488 -0.24743573 -0.35069248 -0.12559862 -1.0164256 -0.16399279 0.26705348
-0.28897157 0.49430364 -0.36609536 -0.08229053 0.034168568 0.12694712 0.20910475 -0.31893748
0.22442059 -0.4882489 0.21925038 -0.48209476 -0.6425258 -0.13999236 -0.43514058 0.114038944
-0.024723515 0.004484302 -0.22543538 0.89779 0.07579109 0.012122043 0.5209835 -0.5387758
-0.59295124 -0.36700517 -0.18622787 0.4836698 -0.18187527 -0.81516474 -0.45650002 0.70504487
-0.5499246 0.18704951 -0.6358373 -0.5637854 0.15915698 -0.25731477 0.1842104 -0.27960587
0.1379647 0.03707427 -0.04300723 0.22043748 -0.4356619 -0.20575511 0.06500415 -0.21602413
0.0189138 0.036728688 -0.08322638 -0.558596 -0.33401817 0.028738495 -0.42988017 0.14250956
-0.27403566 -0.069519445 0.12550186 0.19409806 0.055495795 0.36177963 -0.53224456 0.39082783
-0.19896638 0.30248067 0.13233483 -0.0691935 0.0925577 0.37294275 0.96328264 -0.40601957
0.11180163 0.55394375 -0.035351004 0.3948417 -0.90665454 -0.18101947 -1.0408025 0.046998896
0.5809641 0.08036414 -0.31139123 0.21273226 0.47521514 -0.10829837 -0.1292197 -0.14939068
-0.5206624 -0.2421415 0.7132907 0.5278026 0.46779475 -0.88446623 0.54350954 0.34144112
-0.83038104 0.42609575 -0.31837475 0.5854174 0.054798033 0.064399816 0.007292365 0.62459236
0.15875524 0.58483106 0.04497613 -0.1702897 0.02564804 -0.13893968 0.08287133 0.15851595
0.13319243 -0.073454306 -0.25088516 -0.6630203 -0.06900155 0.007070937 -0.047722384 -0.06924756
-0.107415855 0.49976775 0.62001824 -0.10281375 0.43710524 -0.23274826 0.0764742 -0.09231701
-0.07127013 0.014984922 -0.2541206 0.29144162 0.1687932 -0.040638823 0.3416483 0.3199468
-0.0078107975 0.85873675 0.36675933 -0.54506737 0.24806425 0.15927003 -0.25511995 -0.25343853
-0.11588355 -0.10535493 0.03727545 0.22878529 -0.4678318 0.1583218 0.03466051 0.17076351
0.31379166 0.781216 -0.16111426 -0.3496341 0.45638508 0.40784615 -0.11310499 0.047672514
-0.27510425 0.048784487 0.0049654515 -0.5568736 -0.0023292666 -0.06362237 0.20783572 -0.51070136
00000000: 4f2c 933d 496a 6ebd 1c8f acbd 523c 8abc
00000010: 29c3 1dbe 8412 3c3e 468e 503d 416e 4cbe
00000020: ce05 d03d d7e2 88bb 62e6 043e 4b16 6ebd
00000030: da52 e5bc c084 4bbe 912f 4dbe 1ee2 2dbe
00000040: 89d3 90bd bf7c da3d d956 43be 7bf8 6bbd
00000050: db5e 313c 0ff7 fb3c 15b6 e53d 0834 0cbd
00000060: f881 c13d 135f 00bd fdf6 30bd 9fcd a3bd
00000070: bbf1 12be a95f 9bbd db06 ecbc 65fd ed3d
00000080: 385a ffbd 1dc2 b73e d148 033f ac6c 953d
00000090: 601d 8d3e f31f abbc 23d0 16bf a969 273d
000000a0: f922 52bd 4cc6 273d 0e50 bdbc 98ad 623f
000000b0: f2b3 da3c d3f4 ebbe a49d 55bd a00a 98bc
000000c0: 4569 3b3e f16d bebe fdc0 ddbe 9c79 b8be
000000d0: 34e2 443e 77b4 e33e 035b 09bf fadf 183e
000000e0: f18c 85be 7620 003e 16cb 6a3e 1dd1 f63e
000000f0: 0c97 d8bb eff4 b43e 2811 68be a9e0 e13e
00000100: e8d7 d13d c653 b23d 9ff8 24be 6f8b 43be
00000110: 4d5e 933e 9f9c 593d f940 f1be 14fa a8bd
00000120: d4db 3e3d e184 abbd b497 2d3e 8052 323e
00000130: 8a08 403e 1322 143e 1cad 213e dc4d 7b3d
00000140: 0205 b13d d672 b63e cb5f 7dbe f78d b3be
00000150: ed9c 00be 3c1a 82bf baed 27be 3cbb 883e
00000160: 15f4 93be 5e15 fd3e da70 bbbe f087 a8bd
00000170: 57f4 0b3d 6dfe 013e 8e1f 563e c64b a3be
00000180: 83ce 653e c3fb f9be 2c83 603e 20d5 f6be
00000190: 927c 24bf 285a 0fbe bfca debe 408d e93d
000001a0: f888 cabc 0df1 923b 88d8 66be 91d5 653f
000001b0: 5c38 9b3d 899b 463c 2d5f 053f 36ed 09bf
000001c0: a7cb 17bf 1ae8 bbbe 85b2 3ebe 91a3 f73e
000001d0: 833d 3abe a3ae 50bf 5fba e9be d27d 343f
000001e0: dcc7 0cbf e889 3f3e 3cc6 22bf 3d54 10bf
000001f0: 0cfa 223e c3be 83be a7a1 3c3e 8028 8fbe
00000200: 9e46 0d3e 31db 173d 5928 30bd 5dba 613e
00000210: 140f dfbe 78b1 52be e520 853d 6e35 5dbe
00000220: 1df1 9a3c d270 163d 9872 aabd 2600 0fbf
00000230: 6e04 abbe fe6c eb3c 4119 dcbe 07ee 113e
00000240: 674e 8cbe 3660 8ebd 8f83 003e a4c1 463e
00000250: 8f4f 633d 2e3b b93e 2e41 08bf 961a c83e
00000260: d8bd 4bbe bfde 9a3e c882 073e 52b5 8dbd
00000270: e48e bd3d 5af2 be3e b199 763f cce1 cfbe
00000280: 41f8 e43d 42cf 0d3f 37cc 10bd b128 ca3e
00000290: 831a 68bf 2b5d 39be 0439 85bf ea81 403d
000002a0: 10ba 143f f495 a43d ac6e 9fbe 7cd6 593e
000002b0: 664f f33e 89cb ddbd 2b52 04be dff9 18be
000002c0: 224a 05bf f1f3 77be 389a 363f 121e 073f
000002d0: cb82 ef3e 616c 62bf 7123 0b3f 5fd1 ae3e
000002e0: da93 54bf 3929 da3e 0402 a3be eadd 153f
000002f0: e773 603d 0de4 833d cbf4 ee3b 49e5 1f3f
00000300: bc90 223e 7db7 153f e438 383d 6c60 2ebe
00000310: d71b d23c 3446 0ebe 72b8 a93d 0152 223e
00000320: 9963 083e 366f 96bd 0574 80be b3bb 29bf
00000330: af50 8dbd 52b3 e73b 8c78 43bd aad1 8dbd
00000340: d8fc dbbd 8fe1 ff3e 84b9 1e3f 0490 d2bd
00000350: 42cc df3e 8f55 6ebe 819e 9c3d b310 bdbd
00000360: 13f6 91bd 5183 753c 181c 82be d637 953e
00000370: 20d8 2c3e e574 26bd 87ec ae3e 11d0 a33e
00000380: b8f1 ffbb 2cd6 5b3f e1c7 bb3e 8989 0bbf
00000390: 8e04 7e3e af17 233e 159f 82be b2c2 81be
000003a0: 5b54 edbd 53c4 d7bd 24ae 183d b146 6a3e
000003b0: a687 efbe 1c1f 223e 2ef8 0d3d a1dc 2e3e
000003c0: 4da9 a03e c6fd 473f 23fb 24be 3e03 b3be
000003d0: 4eab e93e 36d1 d03e 97a3 e7bd 4144 433d
000003e0: 77da 8cbe 3ed2 473d 3ab5 a23b 458f 0ebf
000003f0: 9ca6 18bb 724c 82bd e3d2 543e 53bd 02bf

bias f4 [64]
-0.25468343 0.17631593 0.18079649 -0.4230879 0.1845595 -0.47431412 -0.40005094 -0.13593777
-0.29668716 -0.18418647 -0.595527 -0.41649535 -0.17459925 -0.6841836 0.050805304 -0.29549298
0.3101152 -0.48676547 -0.63947266 -0.64775914 -0.3457504 -0.43603352 -0.210218 -0.19673118
-0.2791311 0.041356053 -0.3370283 -0.5438358 -0.20830685 0.12985547 0.22040376 -0.27423197
-0.24748965 -0.30147576 -0.24871512 0.077287726 -0.07649287 0.20724776 0.08468497 0.14066672
-0.19754384 -0.08479012 -0.0987398 -0.2461215 -0.3650135 0.18705074 -0.31414947 -0.21033537
-0.07706381 -0.60823023 -0.27132836 0.09736178 -0.45113143 -0.46088594 0.2542088 -0.057910245
-0.1479431 -0.1264988 -0.20452319 -0.17247404 0.08972588 -0.28475347 -0.23845825 0.10444842
00000000: de65 82be 2a8c 343e b722 393e fa9e d8be
00000010: 2afd 3c3e 4dd9 f2be 7ad3 ccbe 4533 0bbe
00000020: 61e7 97be 619b 3cbe 7574 18bf e13e d5be
00000030: 25ca 32be a826 2fbf 3919 503d db4a 97be
00000040: 6bc7 9e3e 5339 f9be 7bb4 23bf 8bd3 25bf
00000050: 3206 b1be c93f dfbe 6343 57be e673 49be
00000060: 46ea 8ebe f764 293d f98e acbe d338 0bbf
00000070: 644e 55be d5f8 043e 86b1 613e 2268 8cbe
00000080: ed6d 7dbe 085b 9abe 2daf 7ebe 0749 9e3d
00000090: 4ba8 9cbd c238 543e 506f ad3d f00a 103e
000000a0: ef48 4abe 71a6 adbd 1838 cabd 4607 7cbe
000000b0: 0de3 babe 3b8a 3f3e 33d8 a0be 2862 57be
000000c0: a1d3 9dbd fab4 1bbf 8deb 8abe 9d65 c73d
000000d0: b3fa e6be 3ef9 ebbe a827 823e 4b33 6dbd
000000e0: 657e 17be e788 01be 876e 51be 099d 30be
000000f0: 34c2 b73d 35cb 91be 662e 74be 0ee9 d53d
