ecg_backend/model2.pth (torch, 342810 bytes, 19 tensors)

weight f4 [32, 1, 3]
00000000: 347b 0f3e 1167 d8bd a4a1 cb3d cadf 8f3e
00000010: 3259 16bf cbea 88bf 804a dbbe 5055 19bf
00000020: 70e5 13be 4275 2cbf a478 bf3e 5043 713e
00000030: 7f4d 54be 08b4 823c 2fad 06bf 0bf3 1d3e
00000040: 5509 dbbe bb25 9abe 0efe 1cbf 9175 f1be
00000050: f948 873d ed7f f0be d911 1e3d 50e8 ba3e
00000060: efa5 37c0 d9f7 fb3e eae7 6a3e 7b05 dbbe
00000070: 1419 19be 79bf 22be d101 19bf c1fc a1bd
00000080: 0ca4 41bf 8a3e 7c3e c073 b4be b271 11be
00000090: d1c7 d8be dd93 6ebe 496c 293e 86b0 cb3e
000000a0: 6931 c33e 6cac 3ebf 1ccc d7bf 6a9c afbe
000000b0: 0b1f e739 6094 9ebf 5f10 de3d fa5a 80bf
000000c0: d133 073d da69 55bf 43dc fb3e 03cb 1abf
000000d0: 3123 313f ddac 41bf f162 b1bf 8f1b 9f3e
000000e0: 2303 eb3e fa4f de3e 4716 a0be 34d9 41bd
000000f0: 41bc 31be 054c a3be 4153 fdbd 12ea 0c3f
00000100: 250c b7be f404 4dbe d52d 11bf 1724 a03d
00000110: ef7d 973e 708d adbe 6c7f e0be e936 873e
00000120: a1bc 7b3d d4aa f6be c33e a83d 4a0b 09bf
00000130: 1457 57bf 8024 41bf f7b9 06bf 70b7 4cbe
00000140: ca61 af3c 1492 94be 5eb9 4a3e 090e 5ebe
00000150: f8e1 acbd d65d 913e 0940 16be 8e44 803e
00000160: aa1c ea3e 441e 433e 6349 af3e 1f7b ddbe
00000170: e3a4 30be 27fd bf3e f2c2 a1bf b598 a63e
0.14011842 -0.10566533 0.0994294 0.28100425 -0.5872985 -1.0696653 -0.42830276 -0.598958
-0.14442992 -0.6736642 0.3739673 0.23560834 -0.20732687 0.015954986 -0.5260801 0.15424745
-0.42780557 -0.3010691 -0.61325157 -0.4716001 0.06605715 -0.469726 0.03859124 0.36505365
-2.8695028 0.4921253 0.2294003 -0.4277762 -0.14950973 -0.15893354 -0.59768397 -0.07909537
-0.7564094 0.24633232 -0.3524456 -0.14203528 -0.42339948 -0.23298593 0.16545214 0.39783114
0.38123634 -0.74481845 -1.6859164 -0.34299022 0.00044082882 -1.238903 0.10842966 -1.0027764
0.0330084 -0.8336464 0.49191484 -0.6046602 0.6919432 -0.75654393 -1.385832 0.31075713
0.4590083 0.43420392 -0.31266996 -0.04732628 -0.1735697 -0.31893936 -0.12369395 0.5504466
-0.35751453 -0.2002142 -0.5671056 0.078193836 0.29588267 -0.3389697 -0.43847215 0.2640908
0.061459187 -0.48177207 0.08215096 -0.5353285 -0.84117246 -0.7544632 -0.5262751 -0.19991851
0.021408934 -0.290177 0.19797274 -0.21685041 -0.084415376 0.28391904 -0.14672865 0.25052303
0.45724994 0.19054514 0.34235677 -0.43257996 -0.172504 0.37497827 -1.2637618 0.3253838

bias f4 [32]
00000000: 0fec d0be d849 893e 9d9a b9bb 0285 12be
00000010: 52b3 85bc 4dcd 633e f861 923e 76b4 303d
00000020: 21e9 bcbc 2d59 febe c2d5 993e 3cca 86be
00000030: c492 a4be 06da eabe e71f 6fbc de89 413e
00000040: 8844 97be 494c 763c ef86 11be ada6 f1be
00000050: de97 0b3f 6066 10bf 7388 01bf 9b42 b6be
00000060: 82db f7be dee4 48bc 19e1 e8be e08b 98bd
00000070: 7904 79be 3190 3dbe 57ae a6be ca9c 05be
-0.40805098 0.2681415 -0.0056641833 -0.14308551 -0.016320858 0.22246285 0.2859037 0.04314085
-0.023060383 -0.4967741 0.30045897 -0.26326168 -0.32143223 -0.45869464 -0.014595008 0.18900248
-0.29544473 0.015032836 -0.1421163 -0.47197476 0.54528606 -0.5640621 -0.5059883 -0.3559769
-0.4840966 -0.012261597 -0.45484236 -0.07448554 -0.24318112 -0.18512036 -0.32554886 -0.13048092

weight f4 [64, 32, 3]
00000000: 0d68 2ebd 8475 93bd bc91 1f3b 1dc0 2bbe
00000010: 2283 38bc 6ba0 cfbd 1f4e 4bbd 8857 8dbe
00000020: 5ae8 1abe 684b 34bd 6b22 79bd a50f 553d
00000030: f9c3 98bd f664 7a3d d59b c0bd 0891 133d
00000040: 88c8 2fbd d563 24bd fb90 c43d 8a97 883d
00000050: 9b23 13be b115 6bbc 22fd 9a3c b0ba e3bd
00000060: 503d f6bd 8a64 4ebd 4b0e aabd 0363 bbbb
00000070: 6473 463d 57b5 3abd 07e0 18be 2ec5 203c
00000080: 4691 02be 7bf1 3bbe 9bf7 22be 19aa 91bd
00000090: 1c45 e9bc 97e3 a93d bfff b3bd 6f43 e5bd
000000a0: ae49 bbbd a4ca 013c 2534 75bd cf2c e7bd
000000b0: 20cc 30be 1367 b9bd 5a36 d8bd d794 be3d
000000c0: 1471 0ebd 27cc 143d e387 e93c 80c6 6dbe
000000d0: af3b 8a3d 0094 cebd e086 4abe 734d fbbc
000000e0: ed62 73be 4745 8a3d 0396 70bd 4469 763d
000000f0: 5d19 e0bd 5e90 d1bd 9c7b 98bd aaba 5e3d
00000100: fbe2 9d3d 6adb c7bc 4356 b93d 9ea1 bd3d
00000110: f4cf 9a3d 102f 443c a9ba d6bc 1463 983d
00000120: eb10 11bd 5f98 39bd b71c 18bc 1477 82bd
00000130: ca46 1bbe 8759 65bd c316 c33d d6b2 803d
00000140: abd5 093c e496 3abe f731 e43c a8e2 30be
00000150: 2875 18be 8280 393b 722a 3dbe a343 2dbe
00000160: 08bb 1fbe 78e3 afbd 4498 8abd d86b 6c3d
00000170: 2796 c2bc 4d16 49bc d02c c3bc 3749 213d
00000180: 6dc2 ae3c 78fe ec3c 20b8 9bbd 14d8 33be
00000190: 7409 3d3d d3af e9bd 4953 11bd 395a 043d
000001a0: 4731 71bb 9aad f8bb 5884 b0bd 19b6 86bd
000001b0: 19ba bdbc e64d cdbd c124 f0b9 41e2 643c
000001c0: fa94 b8bc 0bca 9fbc af0c febc ca0b 24be
000001d0: d825 27bb 8ff5 08be aced f0bd a866 913c
000001e0: efdb b03d 245c 25be f8f2 8b3d d3ec aabd
000001f0: a2de a1bd 04d6 22bd 7610 0c39 2619 aebd
00000200: 937f f8bd 5b61 07be 33c0 673d 8fab c5bd
00000210: 899a 94bd 9996 10bd e75c 403c e14c 09be
00000220: 10f0 4e3d 2609 9a3c 389c 5c3d 26e5 633d
00000230: 2819 dcbc dca4 8cbd e92b c0bc 492e 3e3d
00000240: 9410 b9bd c64e c3bd 5577 8a3d 9a43 16bd
00000250: bce8 5cbd aaa3 003c 3ea8 b93c ced9 f2bb
00000260: b576 393d 9c70 b73d 02e2 fabc d79a c43d
00000270: 5fb6 bfbc 489f 1dbe 1fbc 81be ee7e cabd
00000280: 6592 9dbd 1f11 e43c 6d69 0fbd 6792 c13d
00000290: 24c2 89bd 5bbd 23bd 5c49 ccbd 99b6 963d
000002a0: 6a7a c33d e6de c4bd 7261 cd3d c8b0 f9bd
000002b0: 821b 953b 97d1 9abe 33c8 6c3d 3136 38bd
000002c0: 9b2d bc3c 831b e2bd 7790 54bd 0920 073d
000002d0: 0560 41bd f3eb d6bd 4751 86bd ea72 a1bd
000002e0: 26c9 7c3d f424 5d3b 4a42 573d 037f 673d
000002f0: ea9e 683d aedf 40be 4d05 2cbe f45b cb3d
00000300: 392f b73d ee55 263b 6d36 ed3b ef34 c8bd
00000310: 8633 88bd 16e2 03be 3f48 a3bd 4a31 0bbe
00000320: 2b97 27be 4b8a f2bd 2cb8 cbbd 8864 6c3d
00000330: 4d5e 06be 4395 3cbe f516 6abb f717 12bc
00000340: dfb7 a3be 8833 92be 67bd 8dbe a5f5 91be
00000350: 80f7 29be 71d0 69be b8db 84be eb06 05bf
00000360: a542 54bd 4750 67bd 308c d73b f54b b7bb
00000370: b44e cd3a 9fef 8bbd 4cbe 9f3c f1e4 bb3c
00000380: 451f a4bd c5b8 e53c 8de1 5fbd 95b0 893c
00000390: 5fed 7b3d e204 4ebc 7bfd 963d 5585 3abd
000003a0: e560 6e3d 9a37 353e 48e5 e13b c2bb 693d
000003b0: 3c3e b93d 4167 70bd c712 24bc a193 df3d
000003c0: 8da8 673d 1f9c 3bbe 4f38 463d 469c 723d
000003d0: 3fb1 a83c 5b10 983d 4524 dabc 28e5 503d
000003e0: 9a37 8abd 64e2 8c3d b5bc ab3d 803e 1bbd
000003f0: e9d3 7bbe b472 e8be 58f1 e7be bb6a 813d
-0.0425797 -0.07200149 0.002434834 -0.16772504 -0.011261733 -0.10138019 -0.04963505 -0.27605844
-0.15127698 -0.044017226 -0.06082384 0.052016873 -0.07459254 0.06113144 -0.094047226 0.036026984
-0.04291585 -0.04013427 0.09597965 0.06669529 -0.14369051 -0.014348433 0.018919531 -0.11119592
-0.12023413 -0.05038885 -0.083035074 -0.00571859 0.04844989 -0.045583095 -0.1492921 0.009812636
-0.1275073 -0.18353836 -0.15914766 -0.07112522 -0.028475337 0.082953624 -0.08789014 -0.111945026
-0.09144913 0.007921848 -0.059864182 -0.112878434 -0.17265368 -0.09052863 -0.10557242 0.09305733
-0.03477581 0.036327507 0.028507179 -0.23220253 0.06749665 -0.100868225 -0.19778013 -0.03067658
-0.23768206 0.06751495 -0.058736812 0.060158983 -0.10942338 -0.10232614 -0.074454516 0.054377235
0.07709309 -0.024396617 0.09049656 0.09259342 0.07559195 0.011974111 -0.026212053 0.07440773
-0.035416525 -0.045311328 -0.00928419 -0.063703686 -0.15163723 -0.055993583 0.09525826 0.0628411
0.008412759 -0.18221623 0.027855856 -0.17273962 -0.14888442 0.0028305356 -0.18473223 -0.16920333
-0.1559869 -0.08588308 -0.067673236 0.057720035 -0.023753239 -0.012273383 -0.02382508 0.039376464
0.021332944 0.028929934 -0.076034784 -0.17562896 0.046151593 -0.11410489 -0.035479818 0.032312606
-0.0036803053 -0.0075890543 -0.086189926 -0.06577701 -0.023160027 -0.100246236 -0.0004580375 0.013969959
-0.022531975 -0.019505521 -0.031011907 -0.16020122 -0.0025504734 -0.13374923 -0.11764082 0.017749146
0.08635699 -0.1614843 0.06833452 -0.08345952 -0.07903792 -0.039754882 0.00013357573 -0.085008904
-0.12133708 -0.13220732 0.05657978 -0.09651863 -0.07256038 -0.03529987 0.0117409 -0.13408233
0.05052191 0.01880319 0.05385992 0.055638455 -0.026867464 -0.06867382 -0.023458438 0.04643086
-0.09036365 -0.09536509 0.06761042 -0.036685564 -0.05393289 0.007851521 0.022663232 -0.0074112182
0.045279223 0.089570254 -0.030625347 0.09599846 -0.023402391 -0.15392792 -0.25338838 -0.09887491
-0.07693938 0.027840195 -0.03501265 0.09451752 -0.067264825 -0.039975505 -0.0997493 0.073590465
0.09544833 -0.09612827 0.10028352 -0.121919215 0.0045503983 -0.3023803 0.057808112 -0.044973556
0.022970965 -0.11040404 -0.051895585 0.032989535 -0.047210712 -0.104942225 -0.06558471 -0.07883246
0.061715268 0.003374395 0.052553453 0.056517612 0.056792177 -0.18835327 -0.16798897 0.09929648
0.08944554 0.0025380808 0.007239154 -0.09775721 -0.06650452 -0.12879214 -0.07972764 -0.13593021
-0.1636626 -0.118427835 -0.09947237 0.05771306 -0.1312191 -0.18416314 -0.003571925 -0.0089168465
-0.3197622 -0.2855494 -0.27683565 -0.28507724 -0.1659832 -0.2283342 -0.25948882 -0.5196368
-0.05182137 -0.056473043 0.006577991 -0.0055937716 0.0015663714 -0.068328135 0.01949992 0.022936316
-0.08013777 0.028042207 -0.05465846 0.016807834 0.06150567 -0.012574406 0.07372566 -0.04553731
0.058197875 0.17696992 0.0068937875 0.057063825 0.090450734 -0.05869222 -0.0100142425 0.1091683
0.056557227 -0.18321274 0.048393544 0.059231065 0.02059233 0.074249946 -0.026628623 0.05099979
-0.067488864 0.06879118 0.083856024 -0.0379014 -0.24592556 -0.45400012 -0.45301318 0.06319185

bias f4 [64]
00000000: a4c1 c13b ab20 a9bd 59b4 92be 7a8a debd
00000010: 375f 18be 1058 d0bd edcf c5be 9759 033c
00000020: ad1f a4be 1353 bdbd 1220 2abf d9c9 9cbd
00000030: 4441 14be 9621 ecbd 4ea4 02bf 7e95 7fbc
00000040: 5483 b3bd 9ac1 87bd 2bf6 65bc 866f 693b
00000050: f0af 63bd ae26 b1bd 0f4e 0abe be04 18bb
00000060: d0ff 4cbe 93b7 e7bd dfa5 73be 6de4 e8bd
00000070: 2989 9dbd a061 9ebd 95bd 02be 7d9a 2abd
00000080: ab05 a5bd d1e3 23bd a5b4 01be 770f b8bd
00000090: a554 963e 0151 f8bd 25e9 a2bd 3629 843e
000000a0: d81e 4cbd 5cd8 22be d6cd 053d 85f4 88be
000000b0: 1029 c6bc 134e d6bd d6a7 c7bd 3744 1fbd
000000c0: eb59 54be 44ad 07be bc94 a1bd 1481 19be
000000d0: b555 14bd 92c0 e7bd c44c 0fbe 4e0d 38be
000000e0: a9c4 99be a328 dabe fb79 343b 0021 54bc
000000f0: d73a 8cbe d3bc 25be 87ed bbbd 6c20 8fbc
0.0059129763 -0.08258184 -0.2865322 -0.10866256 -0.14880072 -0.101730466 -0.38635197 0.008016965
-0.32055417 -0.09244361 -0.66455185 -0.07655687 -0.14478022 -0.115298435 -0.5103196 -0.015599607
-0.08765283 -0.066287234 -0.014035742 0.0035619452 -0.05558771 -0.08649956 -0.1350634 -0.0023196186
-0.2001946 -0.11314311 -0.23793744 -0.11371694 -0.07692177 -0.07733464 -0.12767632 -0.041651238
-0.08057722 -0.040012185 -0.12666567 -0.08987325 0.29361454 -0.12124825 -0.07954625 0.2581269
-0.049834102 -0.15902847 0.032667004 -0.26749054 -0.024189502 -0.1046411 -0.09748809 -0.038883414
-0.20737426 -0.1324969 -0.07889697 -0.14990646 -0.03621455 -0.11316027 -0.13994128 -0.17973825
-0.30032852 -0.42609128 0.0027538526 -0.012947321 -0.2738864 -0.16185312 -0.09176164 -0.017471515

weight_ih_l0 f4 [256, 64]
00000000: e879 0a3e 5fd0 f83c fa9f c43d 914b 2ebd
00000010: 25cb 893d d609 d33d 3e4b 083f e79a 9cbd
00000020: 096b 083f 4351 dabd cfa1 edbe 969e 1f3e
00000030: 4875 cb3d effe b2bd 9293 34be 12ba bf3d
00000040: be7d e6bc 0940 92bd ac0d 03be 43bd 9dbd
00000050: 4598 30bc c209 6d3e 5954 7abd 71ed c03c
00000060: 47fc 5fbd 162c 453c a0f1 943d fa42 0e3e
00000070: ee28 a43d ea36 d6bd e000 c3bd acdf 4c3d
00000080: 0af3 ee3d a625 013e 4679 0a3e 5c70 fe3c
00000090: b4e9 4b3e 7dd2 033d ff9b 6f3d e48e 54be
000000a0: e895 f93d c841 143e b37b bb3d e49e a1bd
000000b0: 06db 373d f554 5b3d a06c b73c a53a b43d
000000c0: 2fb8 e9bd 4d0b 9fbe 4cef c73d 33b4 bfbb
000000d0: ffd8 013d cb66 39bd df33 0bbe 6574 ec3d
000000e0: 6863 9f3d f3c3 4ebe 7682 cc3c 7171 b43d
000000f0: 9649 40be 2843 af3d 3a7c a03d d5d8 1ebe
00000100: 57a1 34bd 2bfd 18bd 5ffd 17be 44b8 c6bd
00000110: 6f33 993d 9a32 7dbf 9063 15bf c02f 0c3c
00000120: 11e4 9a3e 0e40 223d b489 bd3e 7f4a 0abe
00000130: f591 ee3c 248a 3dbd 09b5 443f b7b7 2a3d
00000140: 9456 f0bb 360b c73d 093e f63d 4a77 253d
00000150: b6ba d93c 5a31 d1bd 7ea9 313c 3082 9cbc
00000160: bfcd 113f ca4b 95bb a100 72be 4de1 043c
00000170: 600c 97bd 15a0 883d ff4f 16be f0b6 963d
00000180: dd9e 5b3d c490 62bc fcd4 01bd 09dc 013d
00000190: 3318 12c0 ace2 42bc 1ecf 653c f8b9 ce3e
000001a0: 8084 383d 128a 69bd 4b70 313f 6633 5c3f
000001b0: 50bf b0bf 54a0 26be e362 fd3c 0675 96bd
000001c0: d495 fbbd ec90 7dbf 3aaa 84bd 9ef8 7a3d
000001d0: f873 d2bd 831f cbbd 35f1 dc3d caad dbbd
000001e0: 84ad a9be e93b 093f 236a 14bc aa3e 6dbd
000001f0: 44b3 bdbf c90a b83d c464 c93d 43db 43bd
00000200: f9f4 c93d 7be2 463e 92c6 96bd dfcd d7bb
00000210: b996 833d b839 cebe 9e96 d1bc a859 843a
00000220: 6050 173f 124a 073e 2ef1 a13e bf90 8c3c
00000230: 9bd3 6fbd 687d c53c 14d7 1a3d 5d6e ed3d
00000240: 91b9 f7bd ba58 77ba 0ea9 cf3d 5887 87bb
00000250: 5229 e83d 5a1f b2bd 8a85 af3d 73f5 4bbd
00000260: 7b07 a4be 8ace 0bbe 95d9 fcbe af39 33be
00000270: 60c7 de3c 0023 863d 0220 933c 5821 c93d
00000280: daa1 9bbd 0d03 adbb f9cb 4dbd 9de7 cfbd
00000290: 4c23 80be 13b9 c6bd bcc4 c73d e4ae 35bf
000002a0: fad5 60bd 42f7 3f3d 1551 613e bf61 3ebd
000002b0: 043a 573e 14b5 703d a532 eabd e6c0 403d
000002c0: 09ea c73e 1725 ebbd ceac d7bd 5551 00be
000002d0: 9b98 4d3d 60e9 b33d 47c4 153e 0f2b 22bd
000002e0: 3d4e 88bc 3d16 c03e 88d3 47bc 1f96 9fbd
000002f0: c40d b6be da92 a03d 4e27 713d 20e9 fabc
00000300: 825e efbc c988 223d 3802 1dbf 9122 c8bc
00000310: b2c9 f1bd e5b9 b4ba ca5e e8be 5105 8d3d
00000320: 3b46 65be 7061 43bd dfbc c5bd 9432 82be
00000330: 9cfd c9be d123 613d effc 9b3e fefa 873d
00000340: 4af1 72be 5635 dc3d a22a b1bd 36ca b23d
00000350: 443a 813d d0d5 c5bd 1ec3 5fbd bfc8 04be
00000360: 5269 9fc0 e1bd 843d 5f54 2cbf 39c2 92be
00000370: 98d9 ec3d fb61 a3bc 1a25 41bd 1f2f 9e3d
00000380: 13e7 9b3d c4d3 c43d 730c 3ebe ba82 e5bd
00000390: 13f2 13bf 6532 133d 47aa 60bd efa7 753f
000003a0: 2b9b 52bd 6575 9cbc 2028 34c0 70d4 af3e
000003b0: c2eb 18c0 7a8d 70bd 261a 32bd bb16 16be
000003c0: fd56 d13e 4b9c ddbf 7a88 d33d 6d99 0c3c
000003d0: 31aa 523d d837 013c a5d5 e6bd 50fc 933b
000003e0: 76ca 61bf 5ce4 25bf a5ad f438 07e9 dc3d
000003f0: dd04 b8be 3a61 7dbe 9793 02be 0634 663c
0.13523066 0.030372797 0.096008256 -0.042552534 0.067282 0.103046104 0.5323981 -0.07646733
0.5328832 -0.10660031 -0.46412513 0.1558784 0.09934479 -0.08740031 -0.17634419 0.09361662
-0.02813613 -0.0714112 -0.12798184 -0.077021144 -0.010778491 0.23148254 -0.061115596 0.02355072
-0.05468395 0.012034437 0.07272649 0.13892737 0.08015619 -0.10459693 -0.09521651 0.050017998
0.1166745 0.12612018 0.13522825 0.031059437 0.1991337 0.03218316 0.05849838 -0.20757633
0.121867955 0.14478219 0.09154453 -0.07891634 0.04488661 0.05354782 0.022390664 0.08800248
-0.11412083 -0.3106331 0.09762439 -0.005850339 0.031701084 -0.045264047 -0.13594006 0.11545638
0.07782632 -0.20191936 0.024964552 0.088107 -0.18778071 0.08557731 0.07836194 -0.15512402
-0.04409918 -0.037350815 -0.14842747 -0.09703115 0.07480513 -0.98905337 -0.58355045 0.008556306
0.30252126 0.03961187 0.37019122 -0.1350498 0.029122332 -0.04627432 0.7683874 0.04167911
-0.0073345397 0.09718935 0.12023551 0.040396966 0.026578289 -0.10214491 0.010843633 -0.019105047
0.5695457 -0.004556154 -0.23633052 0.0081103565 -0.07375407 0.06671158 -0.14678954 0.07359111
0.0536183 -0.01382846 -0.03169726 0.031703983 -2.282727 -0.011894863 0.014026431 0.40376258
0.045048237 -0.05701644 0.6931197 0.8601593 -1.3808384 -0.16272098 0.030930942 -0.07346539
-0.12284437 -0.9904926 -0.06477781 0.061272256 -0.102760255 -0.0991812 0.10788194 -0.10726507
-0.33140194 0.5360704 -0.009058508 -0.05792109 -1.4820333 0.08986432 0.09833673 -0.047816526
0.09861178 0.19422333 -0.07362093 -0.006585821 0.064252324 -0.4027841 -0.025584515 0.001009752
0.5910702 0.1321185 0.31629318 0.017158864 -0.058551412 0.02410765 0.03780277 0.11593316
-0.12095941 -0.00094355235 0.101396665 -0.0041360073 0.11336006 -0.08697386 0.085703924 -0.049794625
-0.32036957 -0.13653007 -0.49384752 -0.17502473 0.027194679 0.065496445 0.017959598 0.09820813
-0.0759923 -0.0052799047 -0.05024335 -0.101515986 -0.2502693 -0.09703269 0.09754321 -0.70969987
-0.054891564 0.046866663 0.22003587 -0.046479937 0.21018225 0.05876644 -0.11435441 0.047058962
0.39045742 -0.11481684 -0.10531007 -0.12531026 0.050194364 0.08784747 0.14625655 -0.039591845
-0.01663887 0.37516966 -0.012196429 -0.07792305 -0.35557377 0.0784051 0.058875374 -0.03062874
-0.02921987 0.03968123 -0.6133151 -0.024430545 -0.118060485 -0.0013788311 -0.45384818 0.0688578
-0.22390072 -0.047700346 -0.09655165 -0.25429213 -0.394513 0.054965798 0.3046641 0.0663967
-0.23724857 0.107523605 -0.0865071 0.08729975 0.063099414 -0.09659922 -0.054629438 -0.12967204
-4.9816065 0.06481529 -0.6731624 -0.28663805 0.1156494 -0.019944182 -0.047154523 0.077238314
0.07612433 0.096107036 -0.18559437 -0.11206575 -0.5779125 0.03593673 -0.05484989 0.9595937
-0.05141751 -0.019098947 -2.814949 0.34341764 -2.3893895 -0.058728673 -0.04348197 -0.14657108
0.4088668 -1.7313322 0.10328765 0.008581501 0.05143184 0.007886849 -0.11271218 0.004516162
-0.88199556 -0.64801574 0.000116671705 0.10786634 -0.3594121 -0.2474412 -0.12751614 0.014050489

weight_hh_l0 f4 [256, 64]
00000000: a5d5 d73e dded 143c fdf6 2b3f d975 673e
00000010: 0f0b 73be 548e 9abd e9b1 28bf b525 3f3e
00000020: 1075 a83d 01a5 35be 03a8 753f 8c67 24bf
00000030: 92bc 15be 56bc 8bbe 9b4e c63e 8c75 2b3f
00000040: bd0c 873f 7c38 34be 9f52 7a3e b17c 45bf
00000050: a9c4 623f 40f1 37bd 6e1b 2abe 0ef7 e4bd
00000060: 5f0e 6d3e eb5f 613e 2cb2 f33e 4c49 543e
00000070: d9b1 0cbe 2b31 7e3c 1094 453e 6299 aabe
00000080: 202d f23e 30d7 11be 585f 7bbf 0038 2c3d
00000090: 8cc9 10bf 3e6e 9f3e 72a8 223e 27bd f33e
000000a0: 9c3c 60be 3242 16bf 05f0 833e e5a4 eb3e
000000b0: d1bf 1c3e 82fa 7ebf d22e ae3e 97b5 733e
000000c0: 91a6 2f3e c246 14bf e6db e33c 2ef1 4cbe
000000d0: 8ee2 863d e970 133e 5fa8 633d 06aa dfbe
000000e0: 0571 db3e 4c70 76be ce89 4c3f 1450 cd3c
000000f0: 06ea ae3d 742b 92bf 7600 a4be 261c a43e
00000100: 921d 893f 22ef 56bf 05fe e4be 09aa 8b3f
00000110: 2486 cdbe 2881 9d3f 7b2b e73e d68a cdbf
00000120: 86d2 0abf fb1a 91bf 61b3 63be cc7c 3cbf
00000130: 9615 3abf 8076 cb3e c94b 943e 4315 993f
00000140: ce59 a8bf f57d 7cbf 4e80 e9bf 9f4b 56bf
00000150: e6e0 33bf 19f8 733f 044c cabe b771 39bf
00000160: 20b5 a6bf 94e2 f7be 11f6 fabe 2926 e03e
00000170: d5df b9be d86f 7fbf 8582 15bf c1df 33bf
00000180: d75c b5bd 4883 9cbf ae51 a3bf 5e82 67bf
00000190: 0c94 4d3f cd7c dbbe a399 8a3d 4d67 b6bf
000001a0: 8d62 7a3e 5595 843f 415e 97bf b33b 8f3f
000001b0: 0817 c1be 6735 563f 76fb 053f 8844 acbe
000001c0: 0c4a 43be 7227 1fbf a25e 923f 3541 6ebe
000001d0: fda7 edbf 9d3f 36bf 0a93 0ac0 7326 c43f
000001e0: dbed cc3f 58f5 aebe f429 fe3e 0dc2 bf3d
000001f0: 4e82 f7be 2b73 a23e bb67 1ebf 5a66 cdbf
00000200: 5b78 8d3e ca11 65bf 079b bd3e 6d9a 8f3f
00000210: a08d a3bd ea5b 7cbf f8e7 0bbf a0ea dc3c
00000220: 304a 1e3f 3fef 3e3f c9d1 2a3e b9e1 5abf
00000230: 15ec 083f 6911 e0bd 286f 7cbf 7e42 3abe
00000240: 5e12 bc3e 1ea6 083f e95d 1abf f4b4 50bf
00000250: 9a42 0640 af0f 013e a893 02bf d555 a5bf
00000260: e84b 003d 7631 df3e a5d7 fd3d b2f9 8dbf
00000270: acc5 c73d de7f b3bf 8af1 82be a008 87be
00000280: c687 613e e3e7 9d3e 2bd7 563d 27c6 b4be
00000290: 4838 323f 40cd 74bf 8920 0fbf 64e6 5cbf
000002a0: cae3 9f3e 04a6 c23e a78d 26bf 78f1 d5bd
000002b0: 7909 70be f29a 98bf 66c5 9fbe b873 a5bd
000002c0: a42d 92bf b983 373f ee34 6ebd 8187 8cbe
000002d0: d35c 08be 657e 2ebe 9cd5 8cbf 98e9 af3e
000002e0: 4aea 903e 0340 743f 6aa6 523f ebf6 47bd
000002f0: 05e9 8d3f 8e7b fa3f 2118 433f d7a6 25be
00000300: 6714 40be 8301 28be 87ed 26bf 707b 913f
00000310: a7f7 ea3e df8f 3f3f 1544 babc 29bb 05bf
00000320: 3dc5 07bf a4b9 44bf ed20 05c0 660a a1bf
00000330: ad0d 9bbf 491e cfbe 9ba4 e0be 0f52 4b3f
00000340: 6d3b 14c0 8582 c23e 5d19 28bd 89a7 eebf
00000350: 9590 6fbe f11f 7ebe ac26 4bbf b618 a0bf
00000360: 971a 013e 04ae f23e 672d 66bf 0bbd 533f
00000370: 5460 6ebf 145b a9bf 4005 96bf defd 58bf
00000380: de1e a2be c86b 59bf 8ed0 09bf 7682 bd3e
00000390: 8a12 7d3e 5540 843e 4222 3b3d cc72 54bf
000003a0: b16e 1d3e 74e7 903e 363f 3ebf 228e 613f
000003b0: ace9 753f eaf5 2ebd b846 a73f f48b 753f
000003c0: 857f 863e 3b15 303e 4ae6 f23e bf6a 82be
000003d0: 1aea a1bf 3cac 9ebe 7a52 e5bf 4d3f f03e
000003e0: 0eda af3f e4ec 813f 6968 c6bf c1c8 b1bb
000003f0: 89cb 913e 2358 b73d d453 2f3e 57ae 53bf
0.42155185 0.009089914 0.6717375 0.22603549 -0.23734687 -0.07546678 -0.6589647 0.18666728
0.08225453 -0.17738725 0.9595949 -0.642205 -0.14622715 -0.27292126 0.38731846 0.6697624
1.0550762 -0.17599672 0.2444558 -0.7714339 0.8858133 -0.04490781 -0.16612026 -0.111799344
0.23150013 0.22009246 0.47596872 0.20731086 -0.13739718 0.015514652 0.19294763 -0.33320147
0.47300053 -0.14242244 -0.9819236 0.042045593 -0.56557536 0.31138796 0.1588457 0.4760525
-0.2189812 -0.58694756 0.25769058 0.46024242 0.15307547 -0.99600995 0.34020096 0.2379974
0.17153384 -0.5792047 0.027814817 -0.20013878 0.065861806 0.1439854 0.055580493 -0.43684405
0.42859665 -0.24066275 0.79897773 0.025062598 0.0854073 -1.1419511 -0.32031602 0.32052726
1.0712149 -0.8395864 -0.44725052 1.0911266 -0.40141404 1.230504 0.4515036 -1.6057994
-0.54227483 -1.1336359 -0.22236396 -0.73627925 -0.7268919 0.39738846 0.2896407 1.1959614
-1.3152406 -0.98629695 -1.824228 -0.8370914 -0.7026504 0.9530044 -0.3951112 -0.7243914
-1.3024025 -0.48415053 -0.4901586 0.43779114 -0.36303583 -0.99780035 -0.5840228 -0.70263296
-0.088555984 -1.2227564 -1.2759302 -0.904333 0.80304027 -0.42868653 0.06767585 -1.4250275
0.24451657 1.0358073 -1.1825639 1.1190094 -0.37712884 0.83675236 0.52336824 -0.33646035
-0.19071215 -0.62169564 1.143513 -0.23267062 -1.8566891 -0.71190816 -2.1652246 1.5324234
1.6010088 -0.34171557 0.49641383 0.09363184 -0.48341602 0.3172849 -0.6187703 -1.604686
0.27630886 -0.8948027 0.3703234 1.1219002 -0.07985997 -0.9857775 -0.5465083 0.026967347
0.6183195 0.7458381 0.16681589 -0.85500675 0.5348523 -0.10940821 -0.9860711 -0.18189427
0.36732763 0.53378475 -0.60299546 -0.8152611 2.097815 0.12603639 -0.51006556 -1.2916819
0.03132239 0.43592423 0.123946466 -1.1091826 0.097545 -1.4023397 -0.25574905 -0.26373768
0.2202445 0.30840978 0.052451294 -0.35307428 0.6961713 -0.95625687 -0.5590902 -0.8628905
0.31228477 0.38017285 -0.65059894 -0.10446447 -0.23441114 -1.1922286 -0.3120529 -0.08078712
-1.1420178 0.7168537 -0.058155946 -0.2744713 -0.1331666 -0.17040403 -1.1002688 0.34357905
0.28303748 0.95410174 0.8228518 -0.048819464 1.1086737 1.9568956 0.7620869 -0.16176926
-0.18757783 -0.16406827 -0.6520619 1.1365795 0.4589207 0.74828905 -0.022737542 -0.5223871
-0.53035337 -0.76845765 -2.0801346 -1.2581298 -1.2113549 -0.40452793 -0.43875584 0.79422086
-2.316127 0.37990203 -0.041039813 -1.8644878 -0.23394997 -0.24816872 -0.79355884 -1.2507541
0.126078 0.47398388 -0.8991303 0.8271033 -0.93115735 -1.323092 -1.1720352 -0.8476237
-0.31664175 -0.84930086 -0.53833854 0.37013596 0.24714103 0.2583033 0.045686968 -0.82987666
0.15374257 0.28301585 -0.743152 0.881075 0.9605968 -0.04271499 1.3068457 0.95916677
0.26269165 0.17195599 0.47441322 -0.25472066 -1.2649567 -0.3099078 -1.7915795 0.46923295
1.373842 1.0150418 -1.5500613 -0.005425543 0.28475598 0.089523576 0.17121822 -0.82687896

bias_ih_l0 f4 [256]
00000000: fac0 13be b3c9 71bf c71c 85be c34a 9cbf
00000010: 2b16 bbbf 578d bdbe b4a6 8d3c e86a c1bf
00000020: 557a 87bf 8006 09be e380 4bbf 9c9d 49bf
00000030: 7c4b 5abf 4457 5ebf ac9a 9dbf 556f a2bf
00000040: 3b6c 2dbf 7706 12bf d228 adbf c9c7 86bf
00000050: a3f1 5bbf c4f3 26bf 8c1f 66bf dabc 3ebf
00000060: 1343 42bf 14e1 52bf 3fec 57bf 01bf 8ebf
00000070: c1b6 b8bf f612 7cbf 3207 9bbf cd17 0fbf
00000080: 67c1 b1be a85a 1abf bd36 9fbe dfde d73c
00000090: b2fd 01bf 00a5 5bbf fd0d 3cbf a809 56bf
000000a0: ca51 a7be 907c 25bf 51e7 55bf 564e 84be
000000b0: b609 81bf facc 8ebf 8673 04bf 2743 4dbf
000000c0: fb46 59bf 991f 83bf 3cb3 f5be c2bc 2abf
000000d0: 2c52 23bf fb96 e6be 37ec 82bf 996d 72bf
000000e0: ada3 20bf 4f67 3dbf 8959 4cbf 197a d4bf
000000f0: 7879 90bf 55c5 28bf ae5f 1fbf a525 59bf
00000100: 96f0 ec3d e2f4 96be a674 303d 39cb 183d
00000110: 5571 01bf c254 fcbf 2596 63bd a2ce b1be
00000120: 9ab2 863f 5e65 21be 7a98 47bf 7001 2ebf
00000130: 79cb 34bf 01f0 a63e 04b6 94be 505d 3e3d
00000140: a629 093c 1c5e 993f cd95 203f 2181 e0bc
00000150: 352b 353f 48b5 1a3f f9fc 08bf e423 2bbe
00000160: 323d 853f 1be6 e83e bc33 16be 2d06 88bd
00000170: 4ad3 fcbe 5973 bdbe 5760 c83d 54bf 603f
00000180: dccf 85be 941c 13be 2456 573e 67cb 12bf
00000190: 87a8 edbf 1e03 bbbd e8e6 d93e a0d7 acbe
000001a0: b1b3 e63e 31c1 1c3f a0dc 07bf 66c4 4e3e
000001b0: e1e1 bc3e 8550 50bf d5f2 2abf b0c8 8e3f
000001c0: 06bb 62bd ba6c f9bd be9a 0f3f 482e fd3e
000001d0: c14d 213f a940 833f 5a98 63be 6a49 4d3f
000001e0: 0675 9f3e 8f0c cbbe 262c f0be 6fc7 263f
000001f0: c504 12be 973d d5be badf 1c3f a28e 6d3f
00000200: 30fa 3cbe 15fe b0bc fc41 45be 42ca 69bd
00000210: a07d 05be cbd7 013e 88b3 203e aded c73d
00000220: d08c 113d 0ccb 76be d717 c93d 0929 49bc
00000230: 711d 4cbe 19ae edbd 4542 093e da33 c03d
00000240: 91ab 653e 6857 79bc 3ae3 2fbd 2bd9 c83d
00000250: 0de8 2fbd ef89 813d 5336 b43c 9299 c0bc
00000260: b770 8c3d 6e33 08bd 86b8 d93d f832 b73d
00000270: 1bb4 bcbc 870a debd 9988 73bd 3244 153e
00000280: c2f1 69be 075f 20be dcb3 35bc 7b82 00be
00000290: 796d 163e 857e 273d dbf3 693e 7184 023f
000002a0: 1aa4 71bd db1d 05be 8655 523e a395 543d
000002b0: f1bf f93b d2cc 573e c559 543e 70af a5bd
000002c0: fc8a 80bc 8d7f 48be f799 cbbd 523a 5c3e
000002d0: aebc 313c ea2e 383d 865e 84bc 137e 02bd
000002e0: 32cb 0dbe 48e3 29be cb13 043d a57d ca3d
000002f0: 40de 46be fe10 06be b828 e43b 2cba b03d
00000300: ab8e 9bbe 958b 3bbf c5d5 a4be 362f 80bf
00000310: b230 adbf b50f a0be 82db b6bc ef63 c0bf
00000320: 8793 05bf ae44 17be 8646 35bf 7aa6 5bbf
00000330: e73e 35bf 28ad 6fbf 5584 a9bf 3c3a abbf
00000340: 4ff6 55bf a3c3 a1be 5d2f 9fbf bd12 89bf
00000350: 5a32 0fbf 9a8f c9be be4f 83bf 015e 5abf
00000360: d9dd 24be fde6 5ebf 7fa6 7bbf f759 8bbf
00000370: 6ab2 b0bf d854 6fbf f7b9 8fbf 7d75 e5bd
00000380: c668 e6be 37a1 bfbe 36ea 9cbe eab2 acbb
00000390: 4cfc 18bf 8ce7 5bbf 1943 f1be 440b 44bf
000003a0: 3429 a9be 2b82 8cbe 1475 61bf d072 8cbe
000003b0: 6ce6 88bf 0e34 8dbf 1749 ebbe 03d0 13be
000003c0: cf5f 63bf 77b6 75bf a481 bbbd 3ded 09bf
000003d0: 3677 2ebf 18d6 be3d da8c 67bf d1d1 50bf
000003e0: be0d b1be 89e5 4dbf 76ee 76bf 786e b3bf
000003f0: 8794 9cbf f828 4dbf dce2 07bf fcc6 0fbf
-0.14429083 -0.94448394 -0.25998518 -1.2210315 -1.461614 -0.37021896 0.017291404 -1.511075
-1.0584208 -0.13381386 -0.7949354 -0.7875612 -0.8527143 -0.86851907 -1.2312827 -1.2690226
-0.6774327 -0.57041115 -1.3528082 -1.052972 -0.85915583 -0.65215707 -0.89891887 -0.74506915
-0.758836 -0.8237469 -0.8434486 -1.115204 -1.4430772 -0.9846643 -1.2111571 -0.5589569
-0.34717867 -0.6029458 -0.3109645 0.02635139 -0.50777733 -0.85798645 -0.73458844 -0.83608484
-0.32679588 -0.6464319 -0.83556086 -0.25841016 -1.0081089 -1.1156304 -0.51738775 -0.8018059
-0.8487393 -1.0244018 -0.47988307 -0.6669427 -0.6379726 -0.45037064 -1.0228337 -0.9469848
-0.6274975 -0.7398576 -0.7982412 -1.6599761 -1.1287069 -0.65926105 -0.6225537 -0.84823066
0.115693256 -0.29483706 0.043079995 0.037303183 -0.50563556 -1.9713366 -0.05556311 -0.3472796
1.0523255 -0.15761325 -0.77967036 -0.67970943 -0.70622975 0.32604983 -0.29045117 0.04647571
0.008371746 1.1981845 0.6272858 -0.027405323 0.70769054 0.60432863 -0.53511006 -0.1671291
1.04093 0.45488057 -0.14668173 -0.06641803 -0.4937995 -0.37002066 0.09784 0.87791944
-0.26135147 -0.1436637 0.21028954 -0.5734162 -1.8567055 -0.09131454 0.4255898 -0.3375826
0.4505897 0.61232287 -0.5307102 0.20192108 0.36891082 -0.81372863 -0.6677678 1.1154995
-0.05535414 -0.12178941 0.5609549 0.49449372 0.6300927 1.0254108 -0.22226086 0.80190146
0.3114397 -0.3965802 -0.46908683 0.6514806 -0.14259632 -0.41648552 0.6127888 0.92795765
-0.18454814 -0.02160553 -0.19263452 -0.057077654 -0.13036203 0.12679975 0.15693486 0.0976213
0.03553468 -0.24100894 0.09819 -0.01227785 -0.19933106 -0.11605472 0.13404186 0.0938489
0.22428729 -0.015218593 -0.04294131 0.098070465 -0.04294591 0.06325137 0.02199856 -0.023510728
0.06857436 -0.033252172 0.10630898 0.089452684 -0.0230351 -0.10841852 -0.05945644 0.14576796
-0.2284613 -0.1566125 -0.011090245 -0.12549774 0.14690198 0.040892143 0.2284693 0.5098334
-0.05899439 -0.1299967 0.20540437 0.051900517 0.007621758 0.21074226 0.2073737 -0.08090103
-0.015691273 -0.19579907 -0.09941476 0.21506622 0.010848207 0.044966616 -0.016158354 -0.031858515
-0.13847044 -0.16590607 0.03224544 0.09887246 -0.19420719 -0.1309242 0.006962862 0.086292595
-0.30382285 -0.7325986 -0.32194343 -1.0014408 -1.3530486 -0.31261984 -0.022321466 -1.5030497
-0.52178234 -0.14772293 -0.70810735 -0.858009 -0.70799106 -0.9362359 -1.324351 -1.3377147
-0.8357896 -0.3159457 -1.2436329 -1.0708843 -0.55936205 -0.39367372 -1.025871 -0.8529969
-0.16100253 -0.8707121 -0.9830093 -1.088683 -1.3804448 -0.93488836 -1.1228627 -0.1120405
-0.4500181 -0.37427685 -0.3064744 -0.0052703517 -0.59759974 -0.8590019 -0.47121504 -0.7657969
-0.33039248 -0.2744306 -0.8806927 -0.27431345 -1.0695319 -1.1031511 -0.459542 -0.14434819
-0.8881807 -0.95981544 -0.09155586 -0.5387762 -0.6815065 0.09318179 -0.904493 -0.81570154
-0.34580797 -0.8042837 -0.9645761 -1.4018087 -1.2232827 -0.8014064 -0.53080535 -0.56163

bias_hh_l0 f4 [256]
00000000: d088 1fbe 5845 53bf 903b a3be 9345 9dbf
00000010: 2e4a a5bf fbd3 debe 6f40 e7bc 0af1 b2bf
00000020: dd95 55bf e9f8 cebd 4a11 4abf ffae 5dbf
00000030: d3a8 69bf 15d2 7bbf d89f 9cbf 9fd3 b3bf
00000040: 69a9 38bf 5b6b 32bf ca07 abbf db24 6abf
00000050: 6daa 5ebf c4c9 ebbe f5e1 46bf ee01 38bf
00000060: db9e 41bf 37a8 39bf 0a07 83bf aacd 9bbf
00000070: 48c5 bcbf 115a 64bf 0bcc 8ebf c3c7 1cbf
00000080: 45f0 a3be 7e7f 1dbf 1b31 48be 8c89 473d
00000090: 8421 2dbf 944b 21bf df66 4ebf a0a5 6cbf
000000a0: 4532 d7be 2dc1 03bf 31a2 7ebf 19a2 ddbe
000000b0: de61 8abf 6248 6dbf 6532 26bf 10bb 45bf
000000c0: 8414 42bf 2896 7ebf 7577 f9be a9ab 5ebf
000000d0: eef0 34bf 366c 20bf 5921 86bf c4d9 48bf
000000e0: 9941 11bf 839c 65bf 9913 7ebf b896 c9bf
000000f0: b752 88bf f46b 2bbf 5660 22bf ef20 60bf
00000100: 34b1 833d aa18 9abe a650 533d 2914 d93b
00000110: 26d4 19bf aa35 f9bf 5cd7 59bd 9f31 5ebe
00000120: ad84 883f e4ab ae3c ea7d 3abf 7c98 1fbf
00000130: 8b8f 27bf e2f7 163e ed86 dbbe b808 d8bd
00000140: 5cda 543c 18d7 913f 5b8c 273f 5670 3fbe
00000150: 7fbf 3c3f fb9d 173f 686d e8be 3a00 0cbe
00000160: 9ee1 553f e9a7 c53e 1f30 8bbc 3ee6 1dbe
00000170: 4d9b 0dbf 9624 8cbe 967b fcbc 5ac1 753f
00000180: 7972 5bbe 9095 ac3d 8c5c e43d eede f1be
00000190: d4c0 e6bf 6149 02be 6922 ee3e 6e13 8bbe
000001a0: fa0e cf3e 6af3 fa3e 6df2 2ebf c86a 593e
000001b0: a0ba 083f d85c 82bf a3f7 18bf c742 923f
000001c0: 3cb5 fcbd be67 8ebe 2aed fd3e 2c45 c13e
000001d0: 942e 173f ca8d 563f a5b9 a9be 6003 423f
000001e0: c3d1 973e 1a19 b6be 5045 14bf 38ac 353f
000001f0: ed55 44be 870b c8be 037a 003f 71a0 413f
00000200: c485 24be 96ce 1d3d 0262 5cbe 4d8c 95bd
00000210: 4d47 9bbd 01d4 94bc 0a26 483e 2365 acbc
00000220: 04fa 273d 2b5d f9bd 4c07 ed3d 0f2f d1bb
00000230: 40d1 f2bb 6296 f7bd 0283 103e dcf8 ad3c
00000240: 9de6 793e 13fe a63d fcef 1b3e f268 143e
00000250: bf56 06bd 038d 6c3e 9f6e f23d 2171 013d
00000260: 68ab 2a3d 5997 323d 3a8f 253e 06ae 213e
00000270: 3297 203d 51ed c9bc dc57 12bd 9746 2a3e
00000280: 3219 4ebe 049c 64bd e754 543e a5ed 2bbd
00000290: d74a a43d a119 643e 50c2 403e cedf b13e
000002a0: 4fc1 01be 04ef 303d 598e 523e 8b34 d7bc
000002b0: d57c ce3d 059c 873e 76f0 953d e5be b53c
000002c0: 45ed 273e f80e 29be 2d7b 2a3d 016f 493e
000002d0: 1c62 733e 7d2d 0fbd 38fb 953d 3b34 7d3d
000002e0: 0e45 a7bd 1d86 56be 23c6 cc3d 487f 05bd
000002f0: 6c56 bfbd aa69 94bd 6cfb 7abd d0db 2e3e
00000300: 40f9 8abe 67e3 3ebf 6bf3 8fbe c610 7fbf
00000310: 5e64 b5bf 4e9a c7be fca0 8b3d 48b1 b3bf
00000320: e98e c6be 3449 00be c67f 47bf 2c14 7fbf
00000330: 142d 2ebf d0bb 6bbf 9057 a9bf a898 91bf
00000340: 9295 49bf a958 1abe 93b2 90bf e254 82bf
00000350: b230 23bf ad8c 88be c798 7dbf c8cd 2bbf
00000360: e71c 01be c809 73bf 4c0e 5bbf 50af 8cbf
00000370: 34fa aebf a3e8 64bf 5521 8bbf 14c2 84bd
00000380: 8f5a a6be 5955 c5be 1efb 89be a168 c33c
00000390: b7c2 31bf b4a3 52bf e4ac e0be ec8b 52bf
000003a0: 65b7 dbbe e7a8 b1be 46d5 69bf d466 d8be
000003b0: 2420 6bbf a592 8cbf b9d0 26bf 99a9 2cbe
000003c0: 725e 69bf 1aae 8fbf 42f4 3bbd 0d07 0fbf
000003d0: bc6c 32bf 81b2 063e 4df0 6dbf f523 5abf
000003e0: 6ddd dfbe 368f 4bbf ad20 6ebf 59f7 b1bf
000003f0: 6ada 81bf 2eba 29bf 8bf5 cbbe 20e6 23bf
-0.15579534 -0.82527685 -0.3188138 -1.2286857 -1.2913263 -0.43521103 -0.028228967 -1.3979809
-0.834318 -0.101060696 -0.7893263 -0.8659515 -0.9127323 -0.98367435 -1.223628 -1.4048957
-0.721335 -0.6969506 -1.3361752 -0.91462487 -0.869788 -0.46052372 -0.77688533 -0.71877944
-0.7563302 -0.725223 -1.0236523 -1.2172139 -1.4747705 -0.8919993 -1.1156019 -0.6124231
-0.3201925 -0.6152266 -0.19549982 0.04871516 -0.67629266 -0.6300595 -0.8062572 -0.92440224
-0.4203054 -0.5146664 -0.99466234 -0.43287733 -1.0811117 -0.9268857 -0.64920646 -0.7723856
-0.75812554 -0.9944787 -0.4872395 -0.8698068 -0.7068013 -0.62665117 -1.0478927 -0.78457284
-0.5674072 -0.8969194 -0.99248654 -1.5749121 -1.0650243 -0.669616 -0.63428247 -0.8755025
0.06430283 -0.30096942 0.051590584 0.0066247177 -0.6008934 -1.9469502 -0.0531839 -0.21698616
1.066549 0.021322198 -0.7284838 -0.6234205 -0.65453404 0.14742997 -0.42876378 -0.10548538
0.012991514 1.1393766 0.6544854 -0.18695197 0.737297 0.59225434 -0.4539597 -0.13671961
0.8354739 0.38604668 -0.01699072 -0.15419862 -0.55315095 -0.27371663 -0.03082065 0.95998156
-0.21430387 0.08426964 0.111504644 -0.47240394 -1.8027596 -0.12723304 0.46510628 -0.2716326
0.40441114 0.49013835 -0.6833866 0.2123214 0.5340977 -1.0184584 -0.59752864 1.1426629
-0.12339255 -0.27813524 0.49595004 0.37748086 0.5905545 0.838101 -0.33149448 0.757864
0.29652223 -0.35566026 -0.5791826 0.7096591 -0.19173403 -0.39071295 0.50186175 0.7563544
-0.16066653 0.038527094 -0.21521762 -0.07302151 -0.07581959 -0.018167498 0.19545761 -0.02104432
0.041009918 -0.121759735 0.115736574 -0.0063837836 -0.0074101985 -0.1208923 0.14112476 0.02123683
0.24404378 0.081539296 0.15228266 0.14493158 -0.03279757 0.23100667 0.118375055 0.03160203
0.041667372 0.043601368 0.16167918 0.15789041 0.03920669 -0.024649294 -0.03572832 0.1662849
-0.20126799 -0.05581285 0.20735513 -0.041974682 0.08022087 0.22275402 0.18824124 0.34741062
-0.12671398 0.043196693 0.20562114 -0.026270172 0.100824036 0.2648622 0.07321255 0.022185752
0.16399105 -0.16509616 0.041621376 0.19671251 0.23767895 -0.03495549 0.07323307 0.06181739
-0.08167468 -0.20949598 0.09998729 -0.032592088 -0.093426555 -0.07246716 -0.06127493 0.1707604
-0.27143288 -0.7456574 -0.281154 -0.9963497 -1.4171255 -0.38984913 0.06817815 -1.4038477
-0.38780907 -0.12527925 -0.7792934 -0.99640155 -0.68037534 -0.92083454 -1.3229847 -1.1374712
-0.7874385 -0.15072884 -1.1304497 -1.0182154 -0.6374618 -0.26669827 -0.99061245 -0.6711087
-0.12608682 -0.949368 -0.8556869 -1.0991001 -1.3670106 -0.89417475 -1.0869547 -0.0648233
-0.32490966 -0.38541678 -0.269494 0.023853602 -0.69437736 -0.8228104 -0.43881905 -0.82244754
-0.42913356 -0.34699175 -0.91341054 -0.42265952 -0.9184592 -1.0982252 -0.65162235 -0.16861571
-0.9115974 -1.1225007 -0.04588724 -0.55870134 -0.69697165 0.13154031 -0.92944795 -0.85211116
-0.43723622 -0.795154 -0.9301861 -1.390361 -1.014478 -0.6629971 -0.39835772 -0.6402302

weight f4 [32, 64]
00000000: 5762 c1bd 8d62 783f 6ee8 57ba e174 61bf
00000010: d0ad 8ebe dabd b2be 0f89 f33d 94c8 5f3e
00000020: 302c 0e3f aa37 e93d d4c6 603f 9278 3e3e
00000030: 398e a0bf 60a1 913d b6f7 073f e5f9 523d
00000040: 2133 973e 2147 0fbf 76d1 d83e 648f 01bf
00000050: 26ea 433f fda6 96bd 50c7 803e 0ef5 863f
00000060: bb51 dc3e 6d1c 5fbf 96fe e1be f4b0 85be
00000070: 8c93 29bd 637e 4f3d 17f9 283e a00e c3bd
00000080: 2b0b 23bf b480 b5be 98a1 083d e6d4 fb3d
00000090: f91f 983e cb89 8b3e 7599 16bf 2fe4 af3e
000000a0: 3b64 fe3e 1d27 e73d bd8a 9e3f 38b4 f43d
000000b0: b8f8 8abf 827c e2bd 8335 77bf 8d76 3cbe
000000c0: a6d9 92be 7387 f4be 33bd 98bd d400 0dbd
000000d0: 3144 39bf 3501 4a3c fcff e1bf 5c6c 8bbe
000000e0: 9fbf cb3e dab0 f7be 8924 4ebd 493f 07bf
000000f0: f9ff 45bf f696 fa3d 059e 01be b940 6c3d
00000100: 3c97 64bf 851b 93bf 8cec 1d3f f59d 4c3f
00000110: 2db2 233d 7efd e5be 67d9 3dbf b717 723e
00000120: 0a4b dabe 8701 093e 2765 c4be 63d5 87be
00000130: e999 9d3e 3d8f b33e 67fe 76bf 4dd2 24bf
00000140: 264a 12be dcd0 c43d 0a1b 023f f9ce ac3e
00000150: ca35 43bd 56bf c83e b2d8 873e 077d 1c3d
00000160: 50b8 0e3f 6d65 6f3e 2adf 143f 2808 c9be
00000170: afcb 1a3f d642 b33d 6b81 063f 6af1 b23c
00000180: f64a a93e ab4b 9e3f 872a 913f fc9e 68be
00000190: 04fe 2d3e 6feb a3be 1e9e 88bd 348d 8abe
000001a0: 4987 583e ba52 593d 7288 c43e 9b57 3fbe
000001b0: 94c5 e7bd 5ee0 a6be c765 09be 729a e33e
000001c0: 66a2 633f 1bb6 653f fb2a 943d 2604 18bf
000001d0: fc7d 0e3f 7654 373e bead 7f3f bac4 01bf
000001e0: 8763 9fbf cef7 a23e 855e 23bd f6c2 e8be
000001f0: 54b9 453f f78b 1a3f fbd2 783d ce0d 733f
00000200: 2fe4 a63e 02fa 6b3e 613b 60be 76b7 ffbe
00000210: 9ee4 eb3d 4dc6 7d3e a43f 193e 8d67 f3be
00000220: b04e f7be e72e a2bd 31ee 60bc 3346 10be
00000230: ab1c 49bf 71d3 b83c ddfc a53e 9f1b b53e
00000240: 5c93 9c3e d7b0 55be 643e 9b3e d2bc ccbe
00000250: 9b4d e93e b45f da3d bc2a e0bc 2b76 453e
00000260: d41b 653f d4c8 49bf 8009 26bf db79 423d
00000270: 624e bbbe 55c2 a7be 1a5b 86be 5e60 ed3d
00000280: f16a 43be 6406 bebe 245f e0be f6b3 243e
00000290: fe9a dbbe 1d0a b33c 30f6 b83d 9a05 fe3d
000002a0: e103 6abe be5b 79be e4f8 34bf 191f 1e3e
000002b0: 6760 c63e 266b 50bc 6c36 5cbe f829 933e
000002c0: cee9 14bf fcba 4abf 416c c7be dc08 183f
000002d0: 4871 a2be 6602 273f 365c 82bf 4b21 d6be
000002e0: a420 283f d9a9 bc3e 05c1 03be 1e66 8cbd
000002f0: 8982 a33d b0e2 423e 7d48 52be e7a3 db3e
00000300: da2f 49bd 5abb 9a3e 1fab 6bbe 7aa5 8d3f
00000310: ce62 92be bb71 933e 7304 e2bd d7b2 853f
00000320: 5b92 f43e 73f4 8ebf 5404 963e 3f3e c4bf
00000330: bc63 21bd 6abf fdbe 88fe 2a3e d53d 803e
00000340: ccee 1ebd b84f 3e3f cff7 963d 9c79 11bf
00000350: 1bec 643d 3709 6ebf fdbe 3cbe 9425 3fbf
00000360: 0886 5cbe 576d 783f b144 43bf 0b49 4a3f
00000370: cec7 52be 0a86 343f dc08 5fbf fe0e f8bd
00000380: a0bc 9ebe 7579 d73e 7765 b13d 660f 98bf
00000390: 083c 213f dbbe 913f 7a91 1dbf 1d14 013f
000003a0: 70ee a2bd 5845 e1be d6e6 383e 546d 023f
000003b0: dd23 d5bd ea9d d7be 9ab5 4ebe 2e28 9fbd
000003c0: b6b9 67bf 75d9 4a3f 2904 fbbe 314c d03b
000003d0: 4425 d1bd fe3f 44bf 0029 413f adcb c23d
000003e0: de9a 89be 0bc3 053d 4064 40be 0f1b 7e3e
000003f0: af50 8dbe 9b76 bbbb e56d 7f3f d9ad 73bf
-0.09442585 0.97025377 -0.0008236234 -0.8806897 -0.27866983 -0.3491047 0.11891376 0.21853858
0.55536175 0.1138757 0.8780339 0.18600681 -1.2543403 0.07110858 0.5311235 0.05150785
0.29531196 -0.5596791 0.42347306 -0.5060942 0.7652916 -0.07356069 0.25152063 1.0543535
0.43031105 -0.8715275 -0.44139546 -0.26111567 -0.041400477 0.05065764 0.1650127 -0.09524274
-0.63688916 -0.35449755 0.033357233 0.122964665 0.29711893 0.27253565 -0.58827907 0.34353778
0.49685845 0.11286757 1.238609 0.119484365 -1.0857153 -0.11058904 -0.9656603 -0.18404599
-0.28681678 -0.4775959 -0.07457962 -0.034424618 -0.72369677 0.012329389 -1.7656245 -0.2723111
0.39794633 -0.48377115 -0.05032781 -0.5283094 -0.7734371 0.12235825 -0.12657936 0.05767891
-0.89293265 -1.1492773 0.61689067 0.79928523 0.039964844 -0.44919962 -0.74159855 0.23641859
-0.42635375 0.13379489 -0.38358423 -0.2652999 0.30781487 0.3507022 -0.9648194 -0.64383394
-0.14286098 0.09610149 0.5082251 0.33751658 -0.04765872 0.39208478 0.26532513 0.038205173
0.5574999 0.23378535 0.5815302 -0.39264035 0.60467046 0.08752982 0.52541226 0.02184363
0.33065003 1.2366842 1.1341103 -0.22716898 0.1699143 -0.3201556 -0.066707835 -0.27060854
0.21145357 0.05305741 0.3838535 -0.18685763 -0.11316982 -0.32593054 -0.13417731 0.4445377
0.88919675 0.89730996 0.072347604 -0.5938133 0.55660987 0.17903313 0.99874485 -0.50690806
-1.2452248 0.31829685 -0.039885063 -0.45461243 0.77235913 0.6036982 0.06074808 0.9494294
0.32595965 0.23044589 -0.21897651 -0.49944657 0.11518215 0.24782677 0.14965683 -0.4753994
-0.4830222 -0.07919102 -0.013728664 -0.14089279 -0.7855937 0.02256176 0.32419482 0.35372636
0.30581176 -0.2086824 0.30321038 -0.39987808 0.4556702 0.10662785 -0.027364127 0.19283359
0.8949559 -0.78822064 -0.64858246 0.04747949 -0.3658324 -0.3276545 -0.2624138 0.11590646
-0.19083764 -0.3711425 -0.43822587 0.16084275 -0.42891687 0.021855408 0.090313315 0.12403412
-0.22853042 -0.24351403 -0.70692277 0.1544155 0.38745424 -0.012720859 -0.21505135 0.28742957
-0.5816926 -0.79191566 -0.3894978 0.5938852 -0.31727052 0.65238035 -1.018439 -0.41822276
0.65674806 0.36848333 -0.128666 -0.06855415 0.07983882 0.19031787 -0.20535465 0.42898485
-0.0491179 0.30221063 -0.23014496 1.1066124 -0.28591007 0.28797707 -0.11036005 1.0445203
0.4776791 -1.116835 0.29300177 -1.5331496 -0.039401755 -0.495601 0.16698658 0.25047174
-0.038801953 0.7434039 0.073714845 -0.56826186 0.05588923 -0.9298281 -0.18432231 -0.74666715
-0.21535504 0.9704184 -0.7627669 0.79017705 -0.20584032 0.7051703 -0.87122893 -0.121122345
-0.31003284 0.42084852 0.08661931 -1.1879699 0.62982225 1.138637 -0.61550105 0.50421315
-0.079556346 -0.43998218 0.18056807 0.5094807 -0.10407231 -0.42112666 -0.20186463 -0.077713355
-0.9051775 0.79238063 -0.4902661 0.006356739 -0.10212186 -0.76660144 0.75453186 0.09511504
-0.26875967 0.03265671 -0.18788242 0.2481501 -0.2760062 -0.005720926 0.9977706 -0.95187145

bias f4 [32]
00000000: d826 b13c 5688 4cbd 4846 493c 04c9 4bbc
00000010: 3f4a ffbd a9d2 aeba cebc d73c cd67 2c3d
00000020: 23c6 a3bd 38ef 3dbc 7cd6 153d 8c64 6b3c
00000030: 054f 81bc fbe6 86bc 7d5b 96bd f1be a9bc
00000040: 5085 863c b59a e33c 35ed 4fbc 1e87 fe3c
00000050: 4c6d 1abd cca3 a6bc 14d2 b13c 57d7 063c
00000060: 57ce 883c 881d ebbb 8261 2ebc dbce bfbc
00000070: 61e1 1dbc 3d1e c33b 556c 5fbd 15a1 c93c
0.021624967 -0.049934708 0.012284823 -0.012438063 -0.12465333 -0.0013337928 0.026335146 0.04209118
-0.07996776 -0.011592679 0.0365815 0.014367234 -0.01578475 -0.016467562 -0.07341669 -0.02072093
0.01642099 0.027783731 -0.012690832 0.031070288 -0.03770189 -0.020341776 0.021706618 0.008230052
0.016699953 -0.0071751513 -0.010643365 -0.023414066 -0.009636254 0.0059545324 -0.054546673 0.024612943

weight f4 [64, 32]
00000000: cbae bf3d a1e1 dcbd f2da 8ebd c524 f1bd
00000010: a344 77bd cac6 983c aafc 64bd d5ad a63d
00000020: ba83 6b3d 65a0 063e b23c 623d 978b 44bd
00000030: 7bc7 8dbc 9a89 9f3d 63fd 533e 2857 28be
00000040: 12b7 28be 168c 663e eaad a03d 4686 a13d
00000050: 0f36 10be 5fea 9bbd f808 fb3c 00d5 a93d
00000060: d645 533d 7977 fb3d cceb 0c3d e92b 2dbe
00000070: c80d d3bd 4cf3 503d 517c 1d3e 0a61 81bd
00000080: 1da3 883e 24db 36bf 659f 7f3e 2d8f 2bbe
00000090: 40c0 6cbe 57f8 b8bd 4d4f cc3e 11e7 463f
000000a0: 1269 aebe df5f 813e ced5 c3be f916 0cbe
000000b0: f473 963c 2f56 c5bd 7b9c fb3d 1223 7b3e
000000c0: fbb5 b7bd f672 a1be ce0c fb3d 060a 833e
000000d0: cbce 50bd ab0f 5ebc 7eb5 8e3e 129d 773f
000000e0: 4cc1 6e3d 677b de3d cbd5 2c3e b76b 0fbe
000000f0: 55ea c1bc 9cfb 993c f63a 05be 71d4 f7bd
00000100: 6827 093e 2897 7b3e 0e68 a5bd 91e2 71be
00000110: d7ac 153e 6dbf e43d 534c eabe b717 0bbe
00000120: 959b 413e 59d2 d6be c962 f83d fa28 6e3e
00000130: eda6 2ebd 1ba4 68be de84 b63d 703c 2c3e
00000140: c9e8 d7be c49b a33d 30bd ca3e 64cc 973e
00000150: 3e75 f5be 43f0 0b3e eba5 953e 1830 3abd
00000160: 8e02 00bd 1368 3cbe d64f c73e 5f3a 6dbd
00000170: c582 bfbd 4ec5 8bbe 44f0 e8be 174c 5abe
00000180: e673 b73c c42a a5bd 2266 dcbd d485 803d
00000190: 4168 3a3d a868 543d ebdf 3e3d 0ad6 b03d
000001a0: 091e 2b3d e99b 0abe ba81 dc3d adcc 13be
000001b0: 0b4e 303e c8ae 4d3c e559 413e b9dd 7c3d
000001c0: 1c78 fa3d 0d45 86bd 3dc7 7fbd c1ed d83d
000001d0: 65bd be3c ed7b 2bbe 056f dabc 9d71 47bd
000001e0: 45f3 3fbc 3554 443e 010b 1e3d 72ee b3bb
000001f0: 070a 7d3d 56e4 5ebd 1875 823d c163 55be
00000200: 7389 363e 6b0a f03d 9d9c 97bc 7a88 303c
00000210: b3ee 3ebc 1b2f 21be bc2d 513a d6a2 ce3b
00000220: 517c 68be 0bc2 343d dd16 e13d e56e 023d
00000230: 62a9 9e3d db69 30bd 2b59 a53c 466a f1bd
00000240: 4bfa 36be 6f10 0d3d 223c f1bd ef45 19be
00000250: 7317 b83d 24bd b63d be3d 693d 6ca0 ca3b
00000260: 6c67 e13c 56dd 533d 0278 163e 2a88 5f3d
00000270: d576 853e 0152 58be 28a8 993d 09a8 1abd
00000280: a771 a73e 0bc1 493c 88dc 06bd 961b 16bf
00000290: 1525 1d3f 6cc8 14bd 8da8 003f 800e d93d
000002a0: 603c 983e 38fd 813e 3d8c e93e 1b89 f63e
000002b0: 4a05 ba3e 6a66 43bf 82c7 1e3f 3665 18bf
000002c0: 1ea8 a23d 80d1 1cbf 6cc4 323e ba23 bbbe
000002d0: 1519 d0be e46d 85be 7db0 0e3f 77dd f8bd
000002e0: 8f13 efbe 8fc6 36bd f7de 933d 2561 28bf
000002f0: 12c2 983e 00f5 89be 8f3a 86be 952b 1e3e
00000300: 66dc 393e 9e38 273d 465d c93b c64c 82bc
00000310: 160a 6fbd 6d9a 3b3d 8a7c a13d 70f0 a33d
00000320: fc34 0b3e f94f 3f3e f315 0ebe 8f1c 033c
00000330: 998f d23d f2fc 4a3d ab2a eb3d 64e5 00bd
00000340: 6921 38be 1c76 8ebd 4993 c7bd 2a2b d5bd
00000350: f4fe f3bd 73e2 b33d ee01 c2bd ce53 5f3d
00000360: 9e9e 1fbe b5fc 843c 496b c6bb 6568 203d
00000370: 1888 2c3d 9744 813e ffad d23d 57b6 dcbd
00000380: 89a3 0fbe a958 c73d 22e0 b33d 58b9 9f3b
00000390: b9bf 4e3d 7625 92bd f9a1 6d3d b75e 3fbe
000003a0: b41e 433d a624 0abd 469b c2bd daef 0cbe
000003b0: 2894 923d 4748 b1bd c878 943d 5eb7 25bd
000003c0: 59c9 ffbd 04f4 a53d 1bb7 1d3c ef0a 83bd
000003d0: 42d9 9cbc e36a 09be a54b 123e 46d3 efbc
000003e0: 3c37 0c3e c710 08be 177c f2bd 3020 8c3c
000003f0: c6f0 a93c d476 69bd 2042 d23c c48f 533c
0.09359511 -0.10785223 -0.06975354 -0.11774591 -0.06036819 0.018649478 -0.05590502 0.081386246
0.05749867 0.13147123 0.055233665 -0.047984686 -0.017307034 0.07789917 0.20702128 -0.16439497
-0.16476086 0.22514376 0.078456715 0.07886939 -0.14083122 -0.07613062 0.030643925 0.0829258
0.051580273 0.12278647 0.03440456 -0.16911282 -0.10305363 0.051013276 0.15379454 -0.06317337
0.26686946 -0.7142813 0.24963148 -0.16753836 -0.23120213 -0.09031742 0.39904252 0.7769633
-0.34064537 0.25268456 -0.38249058 -0.13680638 0.018365838 -0.09635579 0.12285706 0.24525097
-0.08970257 -0.3153302 0.12258302 0.25593585 -0.050978463 -0.01355354 0.27872843 0.96724045
0.05828981 0.10863381 0.1687843 -0.14005934 -0.023671309 0.018796735 -0.13010773 -0.12101067
0.13393939 0.2456938 -0.080764875 -0.23621584 0.14616714 0.11169324 -0.45761356 -0.13583265
0.18907006 -0.41957358 0.12128217 0.23257819 -0.04263966 -0.22718851 0.08912061 0.1681993
-0.42169788 0.07988694 0.39597464 0.29648125 -0.4794101 0.13665871 0.29228148 -0.045456022
-0.031252436 -0.18399076 0.38928097 -0.057916995 -0.09351114 -0.2729897 -0.45495808 -0.21318088
0.022394132 -0.080647975 -0.10761668 0.06275526 0.04550958 0.05185762 0.046600264 0.08634575
0.04177669 -0.13536038 0.10766931 -0.14433546 0.17217271 0.012553878 0.18881948 0.06173489
0.1222994 -0.06556139 -0.062445868 0.10592223 0.02328367 -0.16746493 -0.026664266 -0.048692334
-0.011715715 0.19172747 0.038584713 -0.0054910714 0.06177714 -0.054416977 0.0636999 -0.20838834
0.1782587 0.11720737 -0.018507296 0.010774726 -0.01165359 -0.15740626 0.0007979532 0.0063060327
-0.22703673 0.044130366 0.10990689 0.03184404 0.07747151 -0.0430697 0.02018412 -0.11787848
-0.17868917 0.0344395 -0.117790475 -0.14968084 0.089888476 0.089227945 0.056943648 0.0061836746
0.027515136 0.051724754 0.14694217 0.054573216 0.26067224 -0.21125032 0.075027764 -0.037757907
0.32703897 0.012314091 -0.03292516 -0.5863584 0.6138471 -0.03632395 0.5025719 0.10598469
0.29733562 0.25388503 0.45614806 0.48151478 0.3633216 -0.76328146 0.62023175 -0.59529436
0.07942222 -0.6125717 0.17457741 -0.36550695 -0.40644136 -0.26060402 0.5573805 -0.12151616
-0.4669461 -0.044622954 0.072202615 -0.6577323 0.29835564 -0.26944733 -0.26216552 0.15446313
0.18150482 0.04082548 0.0061451523 -0.015905749 -0.058359228 0.04580157 0.07885082 0.08004844
0.1359443 0.18682851 -0.1387556 0.008002414 0.10281295 0.049557634 0.11482748 -0.031468764
-0.17981495 -0.06956121 -0.09744889 -0.104086235 -0.11913863 0.08783426 -0.09473024 0.05452328
-0.15587851 0.016233781 -0.00605527 0.03916206 0.042121977 0.25247642 0.10287093 -0.10776966
-0.14027227 0.097337075 0.08782984 0.0048743896 0.05047581 -0.07136051 0.058015797 -0.18688475
0.047636703 -0.033726357 -0.09502272 -0.13763371 0.07157165 -0.08656364 0.072496 -0.040458076
-0.12489576 0.08103183 0.009626175 -0.0639857 -0.019146565 -0.1341968 0.14286669 -0.029275548
0.13692945 -0.1328765 -0.118400745 0.017105192 0.020744693 -0.05699809 0.025666296 0.012912694

bias f4 [64]
00000000: 380d afbe d078 cf3d 58a4 49bf 5279 a6be
00000010: b429 8abe 19ea 00bf c47c 67be 1460 42be
00000020: 6688 91be 6925 4bbf 2779 26be f55c a3be
00000030: 0be4 94be 3ea7 8b3e 2fdf 0e3e db45 8ebe
00000040: a18e 02bf 55fc 85be e1d5 48bf e3eb 9bbe
00000050: e33c ecbe b20c 27be a82b 943d c823 98be
00000060: 0614 aebe 85a0 a93e f8dc 68be d157 56be
00000070: 2a02 2cbf dd0b 07bf 6fd4 03bf 7890 1d3e
00000080: 1a00 83bd 35f1 51be 0ae2 80be 4880 a1be
00000090: 9e26 47be 256e cdbe 7c71 213e b608 13bf
000000a0: 9afe 8fbe 4dab 15bf 3147 98be b339 4ebe
000000b0: cdc5 cf3e aa63 013e 9b91 0fbf e050 9fbe
000000c0: e8aa 84bd 1356 c53e 6535 c9be e58f 19be
000000d0: 8d10 463e b41c bbbe 350f c2be 96f1 20bf
000000e0: 49ab b33e 64bd dabd cb1b 82be 6e45 01bf
000000f0: ca13 733e 3e4a 00be b06b 9cbe 1d6c 913e
-0.34189773 0.10130465 -0.78766394 -0.32514435 -0.26984942 -0.50357205 -0.22606188 -0.18981963
-0.28424376 -0.7935396 -0.16257153 -0.31906858 -0.29080233 0.27276033 0.13952325 -0.2778767
-0.50998884 -0.26169077 -0.78451353 -0.30453405 -0.46140203 -0.16313437 0.07234889 -0.297148
-0.33999652 0.3313028 -0.22740543 -0.20931937 -0.671908 -0.52752477 -0.5149602 0.15387142
-0.06396504 -0.2050217 -0.25172454 -0.31543183 -0.19448325 -0.40123096 0.15765947 -0.57435167
-0.28123933 -0.5846451 -0.29741815 -0.20139198 0.40580598 0.12635675 -0.5608155 -0.3111639
-0.0647791 0.38542232 -0.3929855 -0.14996298 0.19342251 -0.36545336 -0.37902227 -0.6286863
0.35091618 -0.10680655 -0.2541183 -0.50496566 0.23738018 -0.12528321 -0.3055091 0.28402796
