ecg_backend/model.pth (torch, 342792 bytes, 19 tensors)

weight f4 [32, 1, 3]
000000 12 46 a4 bd 90 91 2b bf 0e d2 65 bf 4b d0 22 bd
       -0.08021177 -0.67018986 -0.89773643 -0.039749425
000010 8f c6 29 be 37 21 57 3e cd 8a 52 3d e7 05 16 be
       -0.1657965 0.21008764 0.051401902 -0.14650689
000020 09 a7 ea 3e 71 2a 58 bf df 1b 20 bf 63 ae 28 bd
       0.45830563 -0.8443976 -0.6254253 -0.041181933
000030 f7 08 12 be e4 b6 0d 3e cf 2c d0 3e 26 2a 4d 3e
       -0.14261232 0.13839298 0.40659186 0.2003561
000040 1c 4b ae 3d 13 06 cd be da 63 d2 be 8e 14 f8 be
       0.0851042 -0.40043697 -0.41091806 -0.48453182
000050 9f b8 1d 3f 4b de 0b c0 eb 26 98 3e 22 fe 44 3f
       0.61609834 -2.1854427 0.29717192 0.76950276
000060 4a c5 2d 3e a4 7a 20 bf 44 f4 49 bf 80 db 36 be
       0.16969791 -0.62687135 -0.78888345 -0.1785717
000070 aa cb 47 3e 7a f8 a6 3e 73 e6 41 bf 9b 23 12 bf
       0.19511285 0.32611448 -0.7574226 -0.5708558
000080 f0 d6 43 3f b9 dc 5b 3d 03 00 27 3e ad 9c e1 bc
       0.76499844 0.053677294 0.16308598 -0.02754053
000090 cd b0 32 be a4 a2 33 bf 90 d0 32 bf 83 a2 1b 3f
       -0.17450257 -0.70170045 -0.6984949 0.6079485
0000a0 bc df 68 bf b5 bd 2a bf 76 ce 00 3f 71 31 6c be
       -0.9096639 -0.6669572 0.50315034 -0.23065735
0000b0 b1 43 92 be e5 5e e8 be 72 1d b6 be 64 71 31 3f
       -0.2856727 -0.453849 -0.3556934 0.69313645
0000c0 55 43 24 3f e8 10 48 be 7e c6 a7 be eb fe 07 3f
       0.6416524 -0.19537699 -0.32768625 0.5312335
0000d0 5e 0d 6d 3e 85 3e d7 3e d0 2f 1e 3f 78 81 33 bf
       0.2314963 0.42039886 0.61791706 -0.7011943
0000e0 02 07 f8 be be cc 15 bf c7 c4 da be fe e8 57 be
       -0.48442847 -0.58515537 -0.42728254 -0.21084973
0000f0 ff 21 0f bf 01 01 ea 3c 87 d8 29 bf a6 ff 85 be
       -0.5591125 0.028564932 -0.6634602 -0.26171607
000100 e4 32 59 be 71 fb 71 be 90 a9 36 be 2e 35 1b bf
       -0.2121082 -0.23631074 -0.1783812 -0.6062802
000110 b9 d4 66 3d 1b 13 31 3e 8a b7 b6 be a1 9a b9 3d
       0.056355212 0.17292444 -0.35686904 0.09062696
000120 41 21 14 3e 8b e9 8e bd 4e e6 2b 3f d6 53 a9 be
       0.1446581 -0.069781385 0.6714829 -0.33071774
000130 23 93 a8 3e ac 28 9a be db fe 1b bf 3f 29 8d bf
       0.32924756 -0.30109155 -0.60935754 -1.1028212
000140 c3 c9 1d 3e 1e 35 f9 3e dc bf 73 bf 9f 33 85 3e
       0.15408997 0.48673338 -0.9521463 0.26015946
000150 d8 f1 9c 3e 0f 1b 5a 3e a1 0f c9 3c 5c ee 0b bd
       0.30653262 0.21299385 0.024543585 -0.034162864
000160 2c 82 ec bd 24 54 9c be 3f d1 f4 3e a2 9d 97 be
       -0.11548266 -0.30532944 0.47815892 -0.29612452
000170 78 18 e8 be fc cb 9e be 50 6b 51 3f 32 98 3a bf
       -0.45331168 -0.31015003 0.8180437 -0.7288848

bias f4 [32]
000000 00 c9 6a bc 2f 15 48 be f8 d7 e9 be 7f fe 84 b8
       -0.014330149 -0.19539331 -0.45672584 -6.341654e-05
000010 fc ce 0f bf 9f ab 92 be 1f 7f 96 3d fa 81 8d be
       -0.5617521 -0.28646562 0.07348465 -0.27638227
000020 6e 19 42 3e 39 3a 1b bf fe c4 a0 bd ce 38 ef be
       0.18955013 -0.60635716 -0.07850073 -0.46723026
000030 9d 38 21 bb d6 fa 3b be 2d f0 fb be 5f aa 5d be
       -0.0024600395 -0.18357405 -0.49206677 -0.21647023
000040 9a 62 08 be ac 11 78 be 32 6e 91 3d d1 d3 8c 3e
       -0.13318864 -0.24225491 0.07101096 0.27505353
000050 b8 8b 45 3e 71 88 1b 3f 14 29 33 bd a1 0b f1 be
       0.1929158 0.6075507 -0.043740347 -0.47079185
000060 62 40 11 bf 9c e5 83 3e fe 6a de bd ff e7 78 be
       -0.56738865 0.25761116 -0.10860251 -0.2430725
000070 18 6c 0e bf 22 5c 44 bb a8 17 01 bf f6 65 6e be
       -0.5563369 -0.0029962142 -0.5042672 -0.23281083

weight f4 [64, 32, 3]
000000 02 fc 9b bd cf f4 b8 bd eb 54 c3 bd f1 e0 d7 bc
       -0.07616426 -0.090310685 -0.09537681 -0.026352378
000010 17 e8 93 3a f1 ac cc bd 92 94 0b 3d 98 ac a2 ba
       0.0011284378 -0.099939235 0.034077235 -0.0012411056
000020 27 f0 c7 3d 60 12 ee bd 55 b5 85 bd eb ec 03 bd
       0.09762602 -0.116245985 -0.06528727 -0.032208364
000030 d2 d8 2c 3d 26 9c 9d bd 2e 6e 83 bd f5 08 49 3c
       0.042198963 -0.076957986 -0.064174995 0.012270202
000040 36 b2 29 bd 15 96 84 3d 95 ea 1a 3d 4b a6 6d bd
       -0.04142972 0.064739384 0.03782137 -0.058019917
000050 22 02 8e 3c 67 dd 97 3d 9b 46 3f 3d cf 52 0f 3e
       0.017335001 0.07415276 0.046698194 0.13996433
000060 db 3a 80 bd 30 4d ee bd ac f5 a7 bb c6 64 81 bd
       -0.06261226 -0.11635816 -0.005125722 -0.06318049
000070 c3 4d ba b8 19 7c e6 bd 57 2d 9e 3d 8e 49 39 bb
       -8.8836554e-05 -0.112541385 0.07723492 -0.0028272602
000080 5d 9c 8c bd 36 1d 93 bb 7a b3 94 3d dd 2f 9d bc
       -0.068657614 -0.004489566 0.07260795 -0.019187862
000090 3f 60 83 bd 6b 47 85 bc 9a 8e 0b 3d 54 87 86 3d
       -0.06414842 -0.016269406 0.034071542 0.065687805
0000a0 c1 52 23 be 05 93 4b 3d f3 87 b6 3d 91 a6 72 3d
       -0.15949537 0.049700756 0.08912649 0.05924088
0000b0 20 2f b1 bd 43 b2 7b bd 0f 81 bb bd f2 f3 84 3d
       -0.086515665 -0.0614493 -0.09155475 0.064918414
0000c0 87 be a6 bd 99 66 2e bd 47 48 6c 3d 2d 33 55 3d
       -0.08141809 -0.042578313 0.057686117 0.05205076
0000d0 8c 3d b2 bc 34 fb d3 bd fb 9a c9 bd 87 4d 6c 3c
       -0.021757863 -0.103506476 -0.09844013 0.014422781
0000e0 b5 d3 03 be 86 d5 2a 3d 5f 9f dd 3c a9 0a ee bd
       -0.12873729 0.041707538 0.027053533 -0.11623127
0000f0 3f c8 cf bc cc f6 08 be d2 f9 8b 3d 97 7b 19 bd
       -0.02536404 -0.13375396 0.06834759 -0.03747138
000100 99 89 f6 bd 62 82 e9 bd 14 31 92 3d 14 53 79 bd
       -0.120379634 -0.11401822 0.07138267 -0.060870245
000110 7a 01 18 3d 46 35 87 bd 7e e3 25 3d b8 1e b2 3d
       0.037110783 -0.06601958 0.040500157 0.086972654
000120 60 b5 e3 bd 11 21 76 3d 5d 60 d2 3c c9 1a 29 3d
       -0.11118579 0.06009013 0.025680715 0.04128531
000130 c8 6a a0 3d b9 76 ed bc 5a 03 a3 bc 9a 0e 95 3d
       0.07832867 -0.028987275 -0.01989906 0.07278176
000140 a3 b6 8d 3d 29 ec 8d bc 9f ff ca bc 9d 76 7b 3d
       0.06919601 -0.017324524 -0.024780093 0.061392415
000150 4b 9c 4a 3d 3a 4b 15 bd a2 4c 14 bc 60 f0 94 3d
       0.04946546 -0.036448695 -0.009051474 0.072724104
000160 cb ae 4f 3d ce a2 51 bd ff 76 79 3c 8f 97 4f bd
       0.050703805 -0.051180653 0.015226125 -0.050681647
000170 65 c3 a7 bd d8 f4 85 bd c9 89 e5 3d 28 69 58 bc
       -0.081915654 -0.06540841 0.11207921 -0.013208665
000180 6d 3d 48 3d b7 14 d8 bd a3 b6 18 bd ca 15 ea bd
       0.048886705 -0.10550826 -0.03728355 -0.11429937
000190 bd 19 89 3d d5 fd c7 bd fe b0 8c bb 9d 42 bb 3d
       0.06694362 -0.097652115 -0.00429356 0.09143565
0001a0 a2 aa b5 bd 4c d9 a4 bc 94 99 34 bd 7d 23 25 be
       -0.08870436 -0.020123146 -0.044091776 -0.16126819
0001b0 82 52 1a 3d da 71 cd 3d bc 30 00 bc 90 ff 24 bc
       0.03767634 0.10031481 -0.007824119 -0.0100706965
0001c0 36 32 c1 bc 0c 60 a2 3c 2e 8d 07 bd 06 e6 80 bd
       -0.023583513 0.01982119 -0.033093624 -0.062938735
0001d0 a6 c1 f2 bc 38 54 ac bd 70 eb 2c 3d df d5 b2 bd
       -0.029633354 -0.08414501 0.04221672 -0.08732199
0001e0 ca e9 ab bd 6e 94 86 bd 16 52 87 bd bd 7a ba bd
       -0.08394201 -0.065712795 -0.066074535 -0.09105442
0001f0 ff 5f 0b 3d d2 96 0e 3d c9 f3 60 3c 91 90 b2 3d
       0.034027096 0.034811802 0.013729998 0.0871898
000200 21 e9 02 3d 51 78 aa 3d bb 15 30 3d 74 8d 02 3c
       0.03196061 0.0832373 0.042989474 0.007968295
000210 46 68 f4 bd bf 17 d2 bd 18 c3 2a bd 3d 53 80 3c
       -0.11933951 -0.102584355 -0.041689962 0.015664691
000220 a3 29 e7 bd fd 56 82 3d ab dc c7 bd 38 d8 b2 3d
       -0.112872384 0.06364248 -0.09758886 0.08732647
000230 2a 1a 72 3c 6d d1 60 3b 23 e6 0f 3e 35 86 a6 3b
       0.014776746 0.0034304515 0.14052634 0.0050819167
000240 c7 06 3e bd ce 99 96 bd 92 a9 2f bd 13 9c 08 be
       -0.046393182 -0.07353555 -0.042886324 -0.13340788
000250 c1 90 96 3c 72 61 fd bd c6 74 d5 3c ec 7a 56 3d
       0.01837957 -0.12372102 0.026056658 0.05236332
000260 35 77 0a bd 16 d4 1c bc 6c 74 92 bc 1d ae 05 be
       -0.03380509 -0.00957205 -0.01787778 -0.130547
000270 4b 74 e9 bd 1f c1 ca 3a cb bf 20 3d 58 4c bf bc
       -0.11399134 0.0015468932 0.039245408 -0.023351833
000280 f3 1b 9c bd 54 03 3f be 8c 91 16 be 8f 12 73 bc
       -0.076225184 -0.18653613 -0.14703959 -0.014835968
000290 c8 a9 dc 3d 22 9e b4 3d 1c 7d 02 bd fa 28 ee 3c
       0.10774571 0.08819224 -0.031857595 0.029072274
0002a0 ee af e5 3c 47 c3 b1 3c 62 3f 65 3b 87 e7 74 bb
       0.028037991 0.02169956 0.0034980406 -0.0037369446
0002b0 7e 10 91 bd 30 52 b5 bd 85 f6 28 3d 79 1c a3 bd
       -0.07083224 -0.08853567 0.041250724 -0.07964415
0002c0 90 0f b8 bd 14 0f 92 bd c2 95 6a 3d 2a 4e 90 3d
       -0.08987343 -0.07131782 0.057271726 0.070461586
0002d0 44 91 4d 3c 8d a3 b7 bd 5e 26 3e 3d 51 7e 06 3e
       0.012546841 -0.08966742 0.04642331 0.13134123
0002e0 d7 88 8c bd f6 1c b6 3c 02 88 a3 bd 74 57 69 bc
       -0.06862038 0.022230607 -0.07984926 -0.014242042
0002f0 09 95 57 3d 3e 38 cf bb 94 20 c8 3d da db b0 bc
       0.052632365 -0.0063238433 0.09771839 -0.021589208
000300 63 5b 0f be e1 24 e2 bc 07 f6 0e be 22 48 76 bd
       -0.13999705 -0.027605476 -0.1396104 -0.060127385
000310 74 22 c5 b8 ef b8 aa bd 4e f9 92 3d bd c0 8e bd
       -9.4001094e-05 -0.083360545 0.07176457 -0.06970356
000320 9c 7d 9e bb 76 75 b6 be b1 95 c2 3d ea b6 14 3d
       -0.004836751 -0.3563649 0.095012076 0.036307253
000330 6c 56 68 3d 1b 05 31 bd 1c a5 6c bd 2b cd 05 3d
       0.056723043 -0.04321776 -0.057774648 0.032666367
000340 24 0e 7e bd 0c 87 54 bc 10 57 82 be 05 8b bb 3a
       -0.062025204 -0.012971651 -0.25457048 0.0014308399
000350 da cd d4 bd 87 c5 a1 3e d4 ee 86 be ed 15 24 be
       -0.103908256 0.31596014 -0.26354086 -0.16023989
000360 ba 57 09 be 93 aa 7e 3e 75 f9 02 bd a7 a5 ac 3d
       -0.13412371 0.24869756 -0.031976182 0.08430033
000370 4c 12 03 3d 43 f3 65 3d e8 59 83 3b d3 2b 57 3d
       0.03199987 0.056140196 0.0040085204 0.05253203
000380 e8 ae d1 bc 09 07 87 3d e5 d1 b8 bd c3 bb cb 3c
       -0.025596097 0.06593139 -0.09024409 0.024869805
000390 d4 bf bf bd a4 70 6a 3d 0c 40 50 bd 47 c5 85 be
       -0.0936276 0.05723633 -0.05084233 -0.26127073
0003a0 c7 ea f0 3d d9 61 88 be d5 76 26 bd 4a f0 c5 bd
       0.1176353 -0.26637152 -0.04064067 -0.09664972
0003b0 d4 3b f8 bb e0 c8 97 3d 20 67 a0 be da c7 c8 3e
       -0.0075754914 0.07411361 -0.31328678 0.39214975
0003c0 cb 68 af bd d8 c3 35 3d 1a 83 6a bd 1c 7b 00 bc
       -0.085649095 0.044376224 -0.057253934 -0.007841852
0003d0 33 a7 87 bc c3 08 43 3d b8 8f 9b be 69 44 45 3e
       -0.016559219 0.047615778 -0.30383086 0.19264378
0003e0 75 80 0a bf 55 cf eb be 9a 4f af bd e3 fa 11 bf
       -0.5410226 -0.4605662 -0.08560105 -0.5702345
0003f0 ae 9b b5 bd 18 41 b6 3d fb a4 6a be 6c 15 86 be
       -0.08867584 0.088991344 -0.22914498 -0.2618822

bias f4 [64]
000000 a3 67 14 be 4c 9c 2f bd e5 a3 ce bd c3 5e 38 be
       -0.1449266 -0.042873666 -0.10089854 -0.18004899
000010 87 3b 0e be 6c f7 0d 3d bb 54 0a bd 03 33 c7 3c
       -0.13889895 0.034659788 -0.03377221 0.024316316
000020 6c b2 79 bd 9b 15 1e bd 61 2b d7 bd 30 80 1b bd
       -0.060961172 -0.038594823 -0.10506321 -0.037964046
000030 19 3c 8a bd e7 80 cd bd 76 76 d2 bd 5b b0 2b 3d
       -0.06749744 -0.10034352 -0.10276501 0.041916233
000040 9a df fc bc 5c c2 56 bc 96 f5 ac bd 85 bf b9 bd
       -0.03086834 -0.013107862 -0.08445279 -0.090697326
000050 16 9f 3d be 5c c3 39 bd f9 db 25 be 35 1b c3 bd
       -0.18517718 -0.045352325 -0.16197194 -0.09526674
000060 ec 13 b0 bd f8 ce 43 bd 0b e1 d3 3e a9 37 c5 bc
       -0.0859755 -0.047804803 0.41382632 -0.024074392
000070 7f 01 b1 ba b9 21 99 bd 6b af 04 be b8 1b f8 bc
       -0.0013504474 -0.07477135 -0.12957542 -0.030286655
000080 fb 3f 82 bc c1 fa 04 be b4 ef 92 be 62 87 db bd
       -0.015899649 -0.1298628 -0.28698504 -0.107191816
000090 0c 33 6c bd 4c db 00 be 2f de 6a bd 5b 98 02 bd
       -0.05766587 -0.12583655 -0.057340797 -0.03188358
0000a0 6d 60 ab bd 9a 8d d6 bd 7c f0 39 be 60 dd 22 3e
       -0.08368001 -0.10476227 -0.18158144 0.1590476
0000b0 0f 28 4b be a1 57 25 be 81 65 6a be a0 72 ca bd
       -0.198395 -0.16146709 -0.22890283 -0.09885144
0000c0 b2 a4 6e bd ce 10 74 bd d4 34 d7 bd 5e 11 08 3d
       -0.058262534 -0.05958634 -0.10508123 0.033219688
0000d0 55 53 25 be d7 1d 93 bd e5 6d 70 bd 5a 12 ba bc
       -0.1614507 -0.07183426 -0.058698554 -0.022713829
0000e0 f7 a9 00 bd 91 cb 4f bd 1e 1e 93 be 53 af c1 bd
       -0.03141209 -0.050731245 -0.28733915 -0.094572686
0000f0 72 e8 bd 3c 58 31 39 be 90 cb 2b 3d 0c b1 cb bd
       0.023182128 -0.1808523 0.04194218 -0.099458784

weight_ih_l0 f4 [256, 64]
000000 02 3d 13 3d 56 ed 40 3d af 64 f2 bc eb ad 50 3e
       0.035946853 0.04710134 -0.029589025 0.20378844
000010 68 69 6c be 9f 79 d4 3c 32 33 ca bd cb 84 9a bc
       -0.23087084 0.0259369 -0.09873046 -0.018862149
000020 e8 e9 87 bd 39 99 6c be fc 97 ad bd 51 57 52 bd
       -0.06636411 -0.23105325 -0.08476254 -0.051352803
000030 53 1b d5 bd 9e 6b 66 be 79 7c 00 be 98 39 04 3e
       -0.10405602 -0.2250199 -0.12547483 0.12912595
000040 4c a2 80 bd 77 19 c9 bd 62 6b 19 3e 0b 7c e2 bc
       -0.06280956 -0.0981931 0.1498237 -0.027647039
000050 c9 d7 c4 be b1 b5 aa 3d 07 be 8a bf 9a d5 9f 3f
       -0.3844588 0.08335436 -1.0839242 1.2487061
000060 db ea 2a 3d 9d 35 86 bc 74 9e 2c bf d4 e5 30 bd
       0.041727882 -0.016382987 -0.6742928 -0.04318793
000070 5f 32 96 3c 1a 09 cb bd 3e 0c 8a 3c 5f 2a c2 bd
       0.018334566 -0.09913845 0.01685154 -0.09480738
000080 9f cf 89 bd 04 77 fb 3c 85 97 66 3e e5 a6 f8 bb
       -0.06729054 0.0306964 0.22518738 -0.0075882548
000090 dc f9 63 bd e4 01 84 bd 90 60 21 bd c0 ad 34 bb
       -0.055658206 -0.06445673 -0.03939873 -0.0027569383
0000a0 c5 94 5c 3d dd 50 ae 3d 49 db b5 3d a6 38 f0 be
       0.053852815 0.08511517 0.08879716 -0.4691822
0000b0 ae 7a bd bd 84 64 23 3d 0e 3d 46 be 19 20 07 bb
       -0.09251915 0.03989078 -0.19359228 -0.0020618497
0000c0 d3 9a 8b bd 80 57 b2 3d c6 ee 05 3e ed 5f 27 bf
       -0.0681664 0.087080956 0.13079366 -0.65380746
0000d0 4f c3 18 be 8b 1e e1 be ca 43 b3 3b ea 26 70 3d
       -0.14918254 -0.43968615 0.0054707276 0.05863086
0000e0 75 f7 f8 bd 5b 7c 2d bc 83 b8 24 be 39 dd 79 3d
       -0.12156574 -0.010588731 -0.1608601 0.06100199
0000f0 13 b5 a0 bd 1f ad 20 be ee d8 fc 3d 73 fd 79 3d
       -0.07847037 -0.1569104 0.123460636 0.061032724
000100 77 8e 36 3e 02 a5 1a 3e 44 8c ff 3d a1 af 76 bc
       0.17827784 0.15102008 0.124779254 -0.015056522
000110 39 85 ad bd 57 a7 bb bc d4 67 9f bd cf 51 c7 3d
       -0.08472676 -0.022906942 -0.077834755 0.097324006
000120 eb 01 c5 3d 09 d7 85 be 3f eb da bd 79 5a 3e 3d
       0.096195064 -0.2614062 -0.10689401 0.046473
000130 a3 a6 cd bc 71 19 d0 be 81 76 2c be f6 b7 c8 bd
       -0.025103873 -0.4064441 -0.1684208 -0.09800713
000140 13 15 17 3e c1 2f e9 3d 05 da 28 3d 61 ff 1e 3c
       0.14754133 0.113860615 0.041223545 0.009704442
000150 45 c8 24 3f 74 c9 90 3d 2f d5 82 be 05 1b 59 3d
       0.6436809 0.07069674 -0.2555327 0.053004283
000160 c8 a2 14 3d 56 68 b0 3c 31 ee 02 bd 5c d5 ad 3c
       0.036288053 0.021534126 -0.03196544 0.021219902
000170 64 bf 1e bd e1 78 a1 3d 0a 10 b5 bc a9 2e 8a 3d
       -0.038756743 0.07884384 -0.022102375 0.06747181
000180 a8 e6 ce bd b8 89 f5 bd 8d 0a 8a bd 6a 04 fc bd
       -0.10102588 -0.119891584 -0.06740294 -0.123055294
000190 de 2c a6 3d ee 4f 53 bd 67 3f 97 3d 85 68 2a 3d
       0.081140265 -0.0515899 0.0738514 0.041603584
0001a0 06 8a 0e be fa 65 7f 3c 4b 76 9d bd 29 04 18 3e
       -0.1391984 0.015588278 -0.07688578 0.14845337
0001b0 53 59 32 be 51 37 00 3e 6a 45 63 3d a5 2f 18 3e
       -0.17416887 0.12521102 0.05548612 0.14861925
0001c0 f5 4f 4a be 0b e9 57 be 2b b8 79 3b cf f7 55 be
       -0.19757064 -0.21084993 0.0038104157 -0.20895313
0001d0 0a eb bf be 43 e8 88 bf 61 d5 67 3e b8 57 01 be
       -0.37484008 -1.0695881 0.22639991 -0.12631118
0001e0 d6 27 df bd 75 5f d7 bd b5 7d a1 3e 33 c9 b1 bc
       -0.1089627 -0.10516254 0.3154122 -0.021702385
0001f0 19 37 c2 bd c1 99 ae 3d 6f 78 cd bd b6 97 b4 bd
       -0.09483165 0.0852542 -0.100327365 -0.08817999
000200 87 26 9c bd 76 12 7a bd 08 ab d1 bd ab ee ef bc
       -0.07624536 -0.061052762 -0.102377 -0.02928861
000210 3f 4e 69 3d c8 a7 52 3d 8a 7f e4 bd e4 7f c5 3c
       0.056959387 0.05142954 -0.11157139 0.024108835
000220 5e 94 b1 3c 10 1e 3e be 85 e9 c4 bd ae 9d c1 3d
       0.021677192 -0.18566155 -0.09614853 0.09453903
000230 4e ea 1b 3b 35 10 68 be 74 bc d6 bc bd f6 9f 3d
       0.002379078 -0.22662432 -0.026212908 0.078107335
000240 99 aa 24 bd 28 22 e0 bd 5d 5a 0e 3e e4 9e b0 bb
       -0.040201757 -0.10944015 0.13901658 -0.005390035
000250 94 0d cb be 30 01 0a be 7c 19 99 be 4f 9b 79 bf
       -0.39658797 -0.13477015 -0.29902256 -0.9750261
000260 e7 88 39 3d 0c 7e 27 bd ed ea 25 bf 87 2a f9 3c
       0.045296576 -0.040891692 -0.64811593 0.030415786
000270 a1 e4 86 3b 52 87 7e 3d 07 1a aa ba 9d 39 e3 3c
       0.00411661 0.06214077 -0.0012977727 0.027737433
000280 34 fe 7a 3c 80 db f3 bd cb c7 3d bc 6e 82 7f 3d
       0.015319396 -0.11907101 -0.011583279 0.062380247
000290 af 3c b4 3d 15 78 0f 3e 22 ed b0 bd 0c 43 51 3d
       0.08800637 0.14010651 -0.086389795 0.05108933
0002a0 39 e3 77 bd 5d 20 c9 3d e9 0b db 3c 67 78 e8 be
       -0.06051943 0.09820626 0.026739078 -0.4540436
0002b0 51 d0 be 3d 47 5b 5e 3d 21 dd ea bc 17 c8 0d 3e
       0.09317077 0.054286268 -0.028669896 0.1384586
0002c0 05 6d 14 be e4 a8 ad 3d 78 7c e9 3d cc 9f a4 bf
       -0.14494713 0.08479479 0.11400694 -1.2861266
0002d0 2b 69 67 bf 53 9e 47 be f0 77 3c bb b8 54 08 be
       -0.9039485 -0.1949399 -0.0028758012 -0.13313568
0002e0 02 30 a5 bc b8 bc 17 3e 5a 0e 7a be 16 2d 05 3e
       -0.020164493 0.14818084 -0.24419537 0.1300548
0002f0 06 af e1 bc 7d db 97 bd 4d 1d a2 bd 9d 30 3e bb
       -0.027549278 -0.07414911 -0.07915745 -0.0029020675
000300 19 be f6 bd ab db ff bc 25 fc c8 be eb ae 5d be
       -0.12047977 -0.031232676 -0.3925487 -0.21648757
000310 e0 7e b2 3d c3 f2 82 bd 92 fa a1 bd c1 7b 18 3d
       0.08715606 -0.063939594 -0.079091206 0.037227396
000320 7a 70 e8 bc 7d 14 6e 3d c1 0c 33 bb 5b 64 01 be
       -0.028373946 0.058125008 -0.0027320834 -0.12635939
000330 bb 01 fa 3d 1f df 38 be 77 84 52 bc 77 70 6b 3d
       0.12207361 -0.18053864 -0.012848965 0.0574803
000340 fc 2a e7 3c ac de a8 bd 12 5a a3 bc 90 ed 09 3d
       0.028218739 -0.08245596 -0.01994041 0.033673823
000350 2c 89 58 bf cf e2 e5 bd 63 3b 94 bf f7 fa 02 40
       -0.8458431 -0.11224901 -1.1580623 2.0465677
000360 8c f7 c8 3d 58 6e 2b 3c 51 db 43 bf 32 d3 95 bd
       0.09812841 0.01046332 -0.76506525 -0.07315673
000370 48 e0 89 bc 10 0c 1f bc 5e 0c 7d 3d 57 88 d2 bd
       -0.016830578 -0.009707466 0.061779372 -0.10279911
000380 6e 0f 7e bd 8a b3 45 3e c2 72 b9 be 56 5b ea 3d
       -0.062026434 0.1930677 -0.36220366 0.11443202
000390 04 76 7a be 19 76 7d bc 1d 74 89 bd 6d cd a8 3c
       -0.24459082 -0.015470051 -0.067116 0.020605767
0003a0 99 62 d8 bd 5a ad 16 be e8 4e 16 bd dc 5f 8a 3f
       -0.10565681 -0.14714566 -0.036696345 1.0810504
0003b0 a4 ae d4 3c 14 6c 1a be 9e 13 8b 3d 83 ec 7c be
       0.025962181 -0.15080291 0.06790851 -0.24699597
0003c0 1f 49 0d 3e 5a 19 be 3d ae df f3 3c 53 a6 77 bf
       0.13797425 0.09282179 0.029769745 -0.96738166
0003d0 56 b7 0f bd 73 5d a1 bf 9b 30 ba bc 90 00 2a bc
       -0.035086952 -1.2606643 -0.022728255 -0.010376111
0003e0 c1 90 9a 3d 1f 67 ea bd 23 94 ce 3d 6c 87 87 bc
       0.07547141 -0.1144545 0.100868486 -0.016544066
0003f0 c1 ae 56 3d 87 8d 3f ba 50 00 db bc 19 ee 91 3d
       0.052412752 -0.0007307161 -0.026733547 0.07125492

weight_hh_l0 f4 [256, 64]
000000 6b bf cf 3c 5c 60 28 3f c1 4e b5 bd 7e 18 ab bf
       0.02535983 0.6577203 -0.08852912 -1.336685
000010 f9 5d 30 3f fe 40 af be d9 8f 83 3e 17 f4 bf bd
       0.6889339 -0.34229273 0.25695685 -0.09372728
000020 78 fb ef 3d 62 29 9a be 8f 2b 70 bf 51 53 a1 3e
       0.11717886 -0.30109698 -0.93816465 0.31508878
000030 b0 09 0a bf 57 d4 d9 3d 64 77 ee 3e 23 d8 05 3f
       -0.5392103 0.10636204 0.46575463 0.52282923
000040 18 31 58 be cb 01 cf 3e 67 94 28 be 9c da e1 be
       -0.21112478 0.40431055 -0.16462861 -0.44112098
000050 8a 38 27 3f 9e 83 94 3d ed 41 89 3f 6c d4 10 3f
       0.65320647 0.072516665 1.0723244 0.5657413
000060 e9 6b 2d bf d1 29 89 3f 8b 6e cd bd e7 0b 26 bf
       -0.6774278 1.0715886 -0.1003085 -0.6486191
000070 5f f9 48 3f 3f 61 db 3d d5 86 5b bd 38 b7 87 3d
       0.7850551 0.107119076 -0.053595383 0.06626743
000080 3d d2 89 3f 8c 72 42 3f ad b2 2a 3f 47 5d a0 bd
       1.0767285 0.75956035 0.6667889 -0.07830291
000090 a5 ea 93 3f fa 80 8e be 6a 46 9c be e9 3f b9 be
       1.1555983 -0.27832776 -0.30522472 -0.36181572
0000a0 cb 2e 4b bf f0 bf 24 bf 0f e7 ed 3d 85 58 01 3f
       -0.79368275 -0.64355373 0.116163366 0.50525695
0000b0 3f 58 08 3f 43 2b 04 bf 45 4e 9c bf de 7e 9e bf
       0.5325965 -0.5162851 -1.2211386 -1.2382467
0000c0 92 06 9a be ac 9c 68 bf 12 3d 95 bc 17 64 5d 3f
       -0.30083138 -0.9086406 -0.018217597 0.8648085
0000d0 72 79 aa bd 47 22 03 be 55 5c 14 3f 08 35 e8 3e
       -0.08323945 -0.12806045 0.5795339 0.4535296
0000e0 ba 52 00 bf 34 8a b5 3d 2f 65 58 bb 38 6d d8 bc
       -0.5012623 0.08864251 -0.0033019294 -0.026419267
0000f0 db 98 5f 3e c6 06 b2 3f a2 cc 02 3f 08 2d 2e bf
       0.21835653 1.3908317 0.51093495 -0.6803746
000100 ef 16 f2 3d cc c4 a3 3b 13 9a 38 be aa 19 1d 3f
       0.118207805 0.0049978253 -0.18027525 0.61367285
000110 af 54 0f 3e 6b 47 48 3d 64 ae 84 3d 5a 2d 50 bf
       0.13997148 0.048896234 0.06478575 -0.813192
000120 58 52 03 bf 54 d9 17 be c3 7f 0d bd 62 82 9d 3e
       -0.5129752 -0.14828998 -0.03454567 0.30763537
000130 97 54 ab 3e 3d 95 56 bd 70 9f 08 3f 80 31 42 3e
       0.33462974 -0.05238842 0.5336828 0.18964195
000140 7c 71 f7 3c 66 ca ae be 6e 7b 94 bd c1 2d c9 bf
       0.03020548 -0.34138793 -0.07250105 -1.5717088
000150 5a ec af be 18 c3 3a 3e 6d 66 05 40 51 3c 17 bf
       -0.3436001 0.18238485 2.0843766 -0.5907641
000160 c8 05 ce 3c ea c5 a6 3f d2 b2 0f 3f 57 d1 70 be
       0.025149241 1.3029149 0.56132233 -0.23517357
000170 a2 43 38 3f 80 a3 81 bd 41 08 28 be 58 27 78 bf
       0.719782 -0.06330013 -0.16409399 -0.96935034
000180 db fa 09 3f dd 3b f5 be 24 e0 37 be d6 25 ec 3e
       0.538984 -0.47897235 -0.17956597 0.46122617
000190 0a b7 d2 3f ba b4 a4 bf f1 ca 01 3f da 0e 8e 3e
       1.6462109 -1.2867653 0.5070029 0.27745706
0001a0 db fc 05 3e 41 19 17 3f d6 54 fd 3c d6 3f 59 3e
       0.13084738 0.5902291 0.030924242 0.21215758
0001b0 77 48 9c be 4b 45 23 bf a5 0d 58 3f de bb 08 bf
       -0.30524036 -0.6377761 0.8439582 -0.5341166
0001c0 04 b6 02 3e 71 99 83 be 20 f2 62 ba c1 cf e0 be
       0.12764746 -0.25703004 -0.0008657295 -0.43908504
0001d0 46 c5 53 bf a9 ba e5 3f 8a 0d b8 3e 72 3a 5a be
       -0.8272289 1.7947589 0.3594783 -0.21311358
0001e0 f9 2b a1 3e a2 81 c4 be a3 be 26 3f 44 72 1b 3f
       0.3147886 -0.38380152 0.6513464 0.6072123
0001f0 3f ff ab 3e c9 4a f3 bd ba 35 2f be 05 7c c6 3f
       0.33593175 -0.118794985 -0.17110339 1.5506598
000200 c4 ed 17 bc e1 9c 9b 3d 1a 8b 52 be 72 7b 2b 3d
       -0.009272996 0.07598282 -0.20560876 0.041865773
000210 7f de 86 3e 84 84 0b 3f b2 55 f5 3d 68 dc b2 bd
       0.26341626 0.5449908 0.11979236 -0.087334454
000220 ec f0 ac be 37 42 3d be 6a e5 20 bf f8 be 31 bf
       -0.3377756 -0.1848229 -0.6285006 -0.6943202
000230 05 9d 47 bf b7 01 ab 3e 9b 26 54 3d 71 8e a2 3e
       -0.7797397 0.33399746 0.05179463 0.317493
000240 f9 ef 1e 3e d7 85 9e 3e ab 31 be bd 62 6c d4 bd
       0.1552123 0.30961487 -0.09286817 -0.10372235
000250 b5 a2 94 be 3c f6 f4 3d 56 42 8a 3e 35 59 f1 3e
       -0.29030386 0.11961028 0.27003735 0.47138372
000260 d6 db c2 be 69 80 95 3e 4d a4 da bd e4 47 4d be
       -0.38058347 0.29199532 -0.10675869 -0.20046955
000270 58 80 40 3f c2 00 8d 3e 6f a1 cd be 99 fc ab 3c
       0.7519584 0.2753964 -0.40162227 0.020994471
000280 68 9b 77 3d 47 4d f8 3e 20 84 17 3f b4 f8 ff 3d
       0.06045094 0.48496458 0.5918598 0.12498608
000290 a1 57 22 3f bb a9 0e bc c9 9f 22 bf 61 cc 73 be
       0.6341496 -0.008707459 -0.6352506 -0.23808433
0002a0 68 b2 b2 be 5d 8c d8 bc 68 2a 91 3f eb dd 59 3f
       -0.34901738 -0.026434118 1.1341066 0.85104245
0002b0 5f f8 fe 3c 38 fd 38 bf 1c 7f 81 bf 24 c9 07 bf
       0.031124292 -0.7226138 -1.0116916 -0.5304129
0002c0 ab 88 9c 3d d5 f4 d6 bd 84 7a 0d 3e e3 e3 4f 3e
       0.07643255 -0.10495917 0.13816267 0.20301776
0002d0 af 6d 21 bf 72 ae b8 3e d4 14 85 be 61 60 39 3d
       -0.6305799 0.3607059 -0.25992453 0.04525793
0002e0 37 93 64 bf cc 3d 1c 3f a7 b4 bc be b1 4c e6 be
       -0.8928713 0.61031795 -0.36856577 -0.44980386
0002f0 45 5e a4 bd 6e d9 41 3f c4 49 0a be 0e 5d 7c bf
       -0.08025793 0.75722396 -0.13504702 -0.9857949
000300 de 9a 9b 3f e3 a2 02 3f 67 aa ae be 83 1e ee be
       1.2156637 0.51029795 -0.34114382 -0.46507654
000310 c3 57 e6 3e 4f 23 4d 3f 69 ac 8b bd ff 04 3a 3f
       0.44988832 0.80132 -0.06819994 0.72663873
000320 72 d9 0f be 79 d1 a7 bf 1d 6a 70 bf 2d d7 41 3f
       -0.14047793 -1.3110801 -0.93911916 0.7571896
000330 44 5a 9e bf 53 9c 33 3f 23 f8 aa bd 17 64 e0 3f
       -1.2371297 0.70160407 -0.083481096 1.7530545
000340 9c 71 f1 3f e5 0f 1b be f4 18 6e bf e3 fe 2f 3e
       1.8862796 -0.15142782 -0.93006825 0.17187075
000350 30 13 9b 3d e4 3b 93 bd 02 06 7f 3f ae 32 fe bd
       0.07572019 -0.071891576 0.9961854 -0.1241201
000360 c9 52 5f be 5c 8e 00 bf c5 70 b1 bf 35 c6 b6 bf
       -0.21808924 -0.50217223 -1.386254 -1.4279238
000370 aa c1 b4 bf 54 29 aa be d0 f9 73 bf 43 7c 07 3e
       -1.4121602 -0.33234656 -0.9530306 0.13230996
000380 4e 7e c4 3e d2 06 12 bd be 05 00 3f 01 f6 67 bf
       0.38377613 -0.035651036 0.5000876 -0.9060975
000390 26 8f 06 be ab e8 56 3f b4 0f 10 bf 1f 65 71 3e
       -0.13140544 0.83948773 -0.5627396 0.23573731
0003a0 7a d0 bc bf 87 00 c7 be 14 ac ee be 55 89 92 3f
       -1.4751122 -0.3886759 -0.4661566 1.144816
0003b0 75 8b 73 3e 7e f4 33 bf ac a7 b9 bf ba db c0 bf
       0.23783667 -0.7029494 -1.4504294 -1.5067055
0003c0 b9 05 91 3e 6c 0d 8d bf 49 c8 99 bf e4 e6 3d bf
       0.2832468 -1.1019721 -1.2014247 -0.74180436
0003d0 fd e3 57 3f 5e 2b b2 bf 5f 7a ca 3f ec d8 a5 bf
       0.8433226 -1.3919485 1.5818595 -1.2956824
0003e0 65 ef 96 3f e8 38 85 3f d9 43 06 bf a3 10 04 bf
       1.1791807 1.0407991 -0.5244728 -0.51587886
0003f0 b9 4b e0 be 37 44 32 3f 76 c3 d0 3e 7a c4 45 be
       -0.43807772 0.6963534 0.40774125 -0.19313231

bias_ih_l0 f4 [256]
000000 51 4f 9a bf 6e ef d2 be 5d b5 4d bf ac ae 89 bf
       -1.2055455 -0.41198295 -0.80354863 -1.0756431
000010 f6 e5 55 bf 09 3f 25 bf e6 d1 9b be f6 f9 65 3e
       -0.8355402 -0.6454931 -0.30433577 0.22458634
000020 0c 53 97 bf ab f1 a2 be ef 44 90 3c 68 8c b5 bf
       -1.1822219 -0.31825003 0.017610995 -1.4183474
000030 27 be 74 bf 20 06 90 bf b2 7b 81 bf 2b b3 8e bf
       -0.9560265 -1.1251869 -1.0115874 -1.1148428
000040 19 5a 1e bf c0 01 23 bf bc 45 7b bf 1b a9 19 bf
       -0.6185623 -0.63674545 -0.9815328 -0.6002366
000050 45 b1 aa bf 86 f8 17 bf a8 f6 86 bf f2 82 f2 be
       -1.3335348 -0.5936359 -1.0544024 -0.47365528
000060 92 42 41 bf a5 1b a8 bf 39 50 b1 bf e0 47 8f bf
       -0.75492203 -1.3133436 -1.3852607 -1.119381
000070 17 0e 12 bf 2a fa 3c bf 55 80 04 c0 1b 10 8e bf
       -0.5705275 -0.7381922 -2.0703328 -1.1098665
000080 a9 25 40 bf 4f 3e be bf 1b c1 19 bf 13 09 ea bf
       -0.75057465 -1.4862765 -0.6006028 -1.8284019
000090 fb b5 33 bf c0 8f 80 bf 15 9a 6c bf 52 d6 f2 be
       -0.70199555 -1.0043869 -0.9242261 -0.47429138
0000a0 3a 98 27 bf c8 f8 59 bf 3a 35 3b bf b6 58 5a bf
       -0.65466654 -0.85145235 -0.7312809 -0.8529161
0000b0 02 ff ad bf a6 8b 30 bf a9 de 22 bf d2 f7 ad bf
       -1.3593447 -0.68963087 -0.63621 -1.3591254
0000c0 b7 46 32 bf 36 b1 a5 bf b8 92 d9 be eb 1d 0d bf
       -0.6963915 -1.2944705 -0.4249475 -0.55123776
0000d0 95 99 79 bf f7 44 80 bf 03 43 0b c0 42 84 de be
       -0.9749997 -1.0021046 -2.175965 -0.4346028
0000e0 02 40 68 bf 4f ff e5 be 79 34 af be 66 ef 42 bf
       -0.9072267 -0.44921347 -0.3421972 -0.76146543
0000f0 9a 33 32 bf f6 03 48 bf 83 5b a2 be 2b ac a3 bf
       -0.6960999 -0.78131044 -0.31710443 -1.2786916
000100 87 69 f9 3e 9b bd 0f 3f af b9 86 3f 57 82 a8 3e
       0.48713323 0.5614869 1.0525416 0.3291194
000110 ba ba 94 3f e0 6e a7 3e 77 43 ae 3d 76 2f 2d bf
       1.1619484 0.32701778 0.08508962 -0.67650545
000120 52 b4 47 be 0d 12 09 3f 44 4c 9b 3e a9 a9 61 be
       -0.1950238 0.5354317 0.30331624 -0.22037376
000130 bf b2 00 3f 2e 59 83 3e ad 06 2c bf 60 61 a1 3e
       0.50272745 0.25653976 -0.67197686 0.31519604
000140 e6 d7 3b bf 05 24 1b 3f 11 f0 2f 3e 33 83 d1 bd
       -0.7337631 0.60601836 0.17181422 -0.102301024
000150 6f ee 01 be f2 48 12 3f 10 e9 30 3f 7a 34 83 bf
       -0.12688611 0.57142556 0.69105625 -1.025039
000160 a0 03 6c 3f 09 7d aa bd fc 3d 22 3d 9c b7 53 bf
       0.9219303 -0.0832463 0.039609894 -0.8270204
000170 b8 7b 1d 3c 3f 3d 61 3d 38 48 ea 3e f0 71 7e be
       0.009612016 0.05499005 0.45758224 -0.24848151
000180 50 85 11 3e 2a fe 63 bf 59 77 9a 3f 34 70 00 bf
       0.14211011 -0.890597 1.2067672 -0.5017121
000190 0d e8 75 bf 81 f1 90 be c9 d7 fe bd c5 bf 4c 3f
       -0.96057206 -0.28309253 -0.124435015 0.7998012
0001a0 2c 17 70 3f cf 57 2d bf f8 26 aa be 73 1c 97 3f
       0.9378536 -0.6771211 -0.33232856 1.1805557
0001b0 d9 8f 1a 3d c9 7a 8a 3f bb 31 c2 3e 60 9e f9 be
       0.03773484 1.0818721 0.37928566 -0.48753643
0001c0 3b 20 2b 3f fc f5 cf 3d 73 4a b4 3e 31 05 05 3f
       0.66846055 0.1015434 0.3521305 0.51961046
0001d0 b0 17 7d bf 02 24 19 bf 38 db 0d bf ee 4f 20 3e
       -0.9886427 -0.5982057 -0.55412626 0.15655491
0001e0 70 14 a8 bf 9f df d4 3e 30 46 5f 3e 59 12 d4 be
       -1.3131237 0.4157686 0.21804118 -0.41420248
0001f0 ac d1 c9 bd 7d 43 ee 3e ff 6b 3e 3f 2b 5b 48 bf
       -0.09854445 0.46535864 0.7438354 -0.7826411
000200 89 37 97 3d a8 3f ba 3d 4c 5a 88 3d a7 5f d6 3d
       0.07383639 0.09094173 0.06657848 0.10467463
000210 8a b9 98 bb 68 b2 3e 3e 44 d4 17 3e ca 19 45 3e
       -0.00466079 0.18622744 0.14827067 0.19248119
000220 3b a7 b8 bd 46 c9 e2 3c ac ba 65 bb b6 d7 85 bd
       -0.09016272 0.027683865 -0.0035053892 -0.06535284
000230 1b d5 93 3c 9c e7 c4 bd b6 27 8e be 91 2d b2 bc
       0.018045953 -0.096144885 -0.27764672 -0.021750243
000240 2e 16 0b 3e 54 9f 3f be 77 49 63 bd 91 87 35 be
       0.1358268 -0.18713123 -0.055489983 -0.17727496
000250 01 1f bb bd a0 64 ba 3d 76 a6 0e be af 51 cc bd
       -0.09136773 0.09101224 -0.13930687 -0.099765174
000260 0e 08 ba bd ad b0 20 3d 6c b1 48 3e fb 3e 71 bd
       -0.090835676 0.03923099 0.19598931 -0.058897953
000270 9e f9 22 bd 35 50 2a 3d 76 74 7f 3d 91 d4 c2 bd
       -0.039788835 0.041580398 0.062366925 -0.095132
000280 c9 c8 e6 ba c6 63 2a 3d 13 23 86 3d 28 7c 5f 3d
       -0.0017607446 0.041599058 0.065496586 0.054561764
000290 d8 a1 8b bb 1f cc 91 bd e7 26 b5 3e 74 4a 71 3d
       -0.0042612366 -0.07119011 0.35381243 0.058908895
0002a0 32 9b 00 bd a9 3d 3b 3d a7 10 ac bd ce d5 14 be
       -0.031398006 0.0457131 -0.08401614 -0.14534685
0002b0 f7 3f 30 3d fc a7 2d 3d 3c 57 0a 3e 57 65 b3 bd
       0.04302975 0.04239653 0.1350984 -0.087595634
0002c0 50 cd 2b bc 95 fc 82 3c 3e 11 b5 3d 97 99 29 be
       -0.010485962 0.015989581 0.08841179 -0.16562496
0002d0 86 de 2f be 14 94 17 3e f4 20 81 3c ca c5 00 3e
       -0.1717473 0.14802581 0.015762784 0.1257545
0002e0 36 c7 1f 3e ad e1 66 be 96 53 8b 3e 44 54 fa 3d
       0.15603337 -0.22547026 0.27212209 0.12223104
0002f0 3b 85 86 bd 26 3e 2a be da c6 16 be 0d b8 cb 3e
       -0.065683804 -0.1662527 -0.14724293 0.39788857
000300 f6 c4 73 bf 09 e7 eb be ee 58 49 be 44 cb 60 bf
       -0.95222414 -0.46074703 -0.1966283 -0.8781016
000310 b3 1c 33 bf 65 e9 32 bf b8 21 84 be e6 3a a7 3e
       -0.69965667 -0.6988738 -0.25806975 0.32662123
000320 02 2f 90 bf 54 7d af be b8 1c 47 3e 5e a6 ab bf
       -1.1264346 -0.34275305 0.19444549 -1.3410146
000330 2c 5a 2c bf 18 45 90 bf a6 6d 5d bf 04 05 8a bf
       -0.6732509 -1.1271086 -0.86495435 -1.0782781
000340 a0 ce 1c bf 54 3c 44 be 9c ca 8f bf 1c 62 1e bf
       -0.61252785 -0.19163638 -1.1233706 -0.61868453
000350 32 94 9f bf 4f e8 33 bf 00 de 49 bf 72 2b 12 bf
       -1.2467101 -0.7027635 -0.7885437 -0.5709754
000360 84 ea 1e bf 33 df 8e bf 63 c5 b6 bf ed 4b 82 bf
       -0.6207659 -1.1161865 -1.4278988 -1.0179421
000370 ab ea 10 bf 75 65 25 bf 0a 7a 03 c0 18 c7 93 bf
       -0.56608075 -0.64607936 -2.0543237 -1.1545134
000380 50 f6 3c bf 64 b9 b0 bf 12 fe 19 bd bf 2e e1 bf
       -0.73813343 -1.3806577 -0.037595816 -1.7592391
000390 df 26 4b bf 50 11 7b bf 03 1b 30 bf f1 3a 0b be
       -0.7935619 -0.9807329 -0.68791217 -0.13596703
0003a0 3a 58 2a bf c4 e7 89 bf 65 77 1a bf d6 e4 b1 be
       -0.66540873 -1.0773854 -0.6033843 -0.347449
0003b0 77 08 a0 bf 73 5d 2f bf 88 fd 00 bf 8d b5 94 bf
       -1.2502583 -0.6850197 -0.5038686 -1.1617905
0003c0 2c 3c da be de 0b 89 bf f4 56 cc be bb 52 03 bf
       -0.42624032 -1.0706747 -0.3991009 -0.5129811
0003d0 52 f1 6e bf c8 c6 7f bf 5e 3e 11 c0 04 7a dd be
       -0.93336976 -0.9991269 -2.2694316 -0.43257153
0003e0 e3 44 89 bf 54 dc fc be db 3e 95 be bd 6a 2b bf
       -1.0724148 -0.49386847 -0.29149517 -0.66959745
0003f0 7a 80 30 bf e2 f8 30 bf 38 1c fb 3c b1 23 9f bf
       -0.6894604 -0.69129765 0.030653104 -1.2432767

bias_hh_l0 f4 [256]
000000 dc 19 88 bf 14 02 0f bf e1 f5 4e bf 06 9b 7d bf
       -1.0632892 -0.55862546 -0.8084393 -0.9906467
000010 73 86 44 bf f5 22 5a bf 31 8f df be ed bf d7 3e
       -0.76767653 -0.8520959 -0.43663934 0.42138615
000020 23 8f 81 bf 3c 7f 0b bf c1 04 8d bc 7a 5c 97 bf
       -1.0121807 -0.5449102 -0.01721418 -1.1825097
000030 cb 05 43 bf a2 5d 93 bf 69 a1 71 bf 98 70 8e bf
       -0.76180714 -1.151295 -0.9438692 -1.1128111
000040 b9 b8 f7 be 79 89 e3 be a3 83 7a bf 2c 53 13 bf
       -0.4838312 -0.4444082 -0.9785711 -0.57548785
000050 c2 96 a0 bf a7 2a 23 bf 01 19 62 bf a4 b1 fc be
       -1.2546008 -0.6373696 -0.883194 -0.4935428
000060 c3 af 3b bf 84 15 9b bf f2 8d ba bf 51 37 86 bf
       -0.73315066 -1.2115941 -1.4574568 -1.0485631
000070 d1 21 3b bf ab 6a 36 bf b9 77 05 c0 22 82 87 bf
       -0.73098475 -0.7125651 -2.0854323 -1.0586588
000080 1a c3 73 bf 6c 6a b0 bf 3d e0 0d bf 4d c8 da bf
       -0.95219576 -1.3782477 -0.55420285 -1.7092377
000090 7a 22 68 bf 91 3c 94 bf 08 37 4e bf 5f 3c d1 be
       -0.9067761 -1.1580983 -0.8055272 -0.40866372
0000a0 13 49 22 bf 22 a7 66 bf 45 2d 40 bf 30 68 3b bf
       -0.6339275 -0.90098774 -0.75069076 -0.7320585
0000b0 db fe a7 bf 97 80 35 bf 29 64 30 bf 96 7c a8 bf
       -1.3124651 -0.7089934 -0.6890283 -1.3163021
0000c0 da 43 1f bf 60 f1 8f bf 61 18 06 bf f1 dc 11 bf
       -0.6221291 -1.1245537 -0.5238095 -0.56977755
0000d0 dc 42 7f bf 1e 4d 6b bf 53 6b 09 c0 d9 25 19 bf
       -0.99711394 -0.91914546 -2.1471756 -0.59823376
0000e0 49 47 8c bf 0f 7a ed be 4b d9 a5 be 3f f6 33 bf
       -1.0959255 -0.46382186 -0.32392344 -0.70297617
0000f0 f2 8e 2c bf 70 0e 44 bf 9a 3e bb be 1f db b0 bf
       -0.6740562 -0.7658453 -0.365712 -1.381687
000100 58 d7 15 3f bb 29 43 3f 5e b4 85 3f c6 f2 fd 3e
       0.58531713 0.7623555 1.0445669 0.49599284
000110 48 b8 a4 3f 6e ce cd 3e 9b 40 9b bd b1 bf 42 bf
       1.2868738 0.40196556 -0.07580682 -0.7607375
000120 f9 75 d5 be 83 6a bd 3e d1 8a 2c 3e db 88 fb bd
       -0.41691568 0.36995324 0.1684983 -0.122819625
000130 9b 3e 37 3f 9e 32 a6 3d 0d bc 2c bf 67 3c e6 3e
       0.71579903 0.08115123 -0.6747444 0.44967958
000140 23 65 4e bf e2 8d 2f 3f ee 13 71 3e 85 be 5d bc
       -0.8062307 0.6857587 0.23542759 -0.013534193
000150 3d 11 57 be c4 5a fb 3e f9 4e 13 3f a0 b6 7f bf
       -0.2100267 0.49092686 0.5754238 -0.9988804
000160 5a 6f 38 3f 22 28 f6 bd 67 26 31 3d a5 48 2e bf
       0.7204491 -0.120193735 0.043249514 -0.68079597
000170 39 90 ef bd 66 4b 8c 3c 43 ee e0 3e 43 c7 7b be
       -0.1169743 0.017125797 0.4393178 -0.24587731
000180 f6 4d 16 3e 6a cf 5f bf e0 ff 82 3f f5 3d ec be
       0.14678177 -0.87425864 1.0234337 -0.4614102
000190 09 0e 68 bf 1a 32 07 be 30 59 60 3b d5 eb 3a 3f
       -0.90646416 -0.13202706 0.0034232847 0.730161
0001a0 cb e6 72 3f 50 f8 0f bf 97 33 cd be 8e e3 8a 3f
       0.9488341 -0.5623827 -0.40078422 1.0850694
0001b0 69 80 70 3d a9 29 78 3f d7 da 66 3e a0 91 c6 be
       0.05871621 0.9693857 0.22544418 -0.38782978
0001c0 c2 15 21 3f 42 95 23 bd c8 4f c7 3e f4 12 03 3f
       0.62923825 -0.039937265 0.38928056 0.51200795
0001d0 28 b1 79 bf 73 4d d1 be c2 78 27 bf d8 92 b9 3d
       -0.97535944 -0.40879402 -0.65418637 0.09061211
0001e0 0e b5 8c bf b4 72 c0 3e 31 40 2d 3e 00 82 af be
       -1.0992754 0.37587512 0.16919018 -0.3427887
0001f0 ee a8 d6 bd cf 89 1a 3f 9a 40 71 3f 92 6d 52 bf
       -0.104814395 0.6036653 0.942392 -0.8219844
000200 7a b7 df 3d a6 0d 93 bd 30 39 14 be 51 a6 f8 bd
       0.10923667 -0.071803376 -0.1447494 -0.12141097
000210 a2 0b b5 bc 19 5d 85 3c 8a 1e 67 3e 30 3a 4a 3e
       -0.022100274 0.016279744 0.22570243 0.1974876
000220 91 65 73 be 2a de e4 3c fd 89 90 bd 8a c8 a4 bb
       -0.23769213 0.027937967 -0.07057569 -0.005028789
000230 89 d3 30 3c 77 33 2c bd fd 4a 85 be f9 94 10 3e
       0.010792621 -0.04204127 -0.26033774 0.14119329
000240 d8 45 9a 3d 9c 3a f1 bd b8 cf 86 bd 5a 73 95 be
       0.07532853 -0.11778757 -0.06582588 -0.2918957
000250 a3 26 6c 3a d3 2d 1f 3e fa 13 74 bd e4 4e ad bd
       0.0009008443 0.15544824 -0.059589364 -0.08462313
000260 a8 b6 e2 bb ee d0 4a 3d 29 e7 bd 3d e2 c9 4c bc
       -0.006918747 0.049515657 0.09272606 -0.0124993045
000270 84 1a d1 3d 3e 9a 2f 3d c2 ea 8b 3d e3 56 af bd
       0.102101356 0.042871706 0.06831886 -0.08561494
000280 6f 09 06 bc e9 f0 0d be b4 60 81 bd 9c 30 ad 3d
       -0.00818096 -0.13861431 -0.06317273 0.08456537
000290 a6 54 30 3d 41 6b 2d 3d 03 ac 37 3e 67 38 51 bd
       0.043049477 0.042338613 0.17936711 -0.05107918
0002a0 6e 36 42 3d f1 a6 5f 3d 67 aa 9c bd 5e a9 95 bc
       0.04741519 0.054602567 -0.07649689 -0.018269237
0002b0 bd f7 cf bc ac 9e 30 3e fc 84 65 3e 08 e6 25 bd
       -0.025386686 0.17248029 0.22414011 -0.040502578
0002c0 14 44 ea 3d fa 12 05 3e ca 0b a9 bb 1f 10 eb bd
       0.11438766 0.1299552 -0.005158876 -0.11477684
0002d0 3a ab 50 be cb 93 3e 3e fa 20 70 bc 3d 21 0b 3e
       -0.20377818 0.18611066 -0.0146563 0.13586898
0002e0 50 fe 1a 3d 8e 51 27 be 72 49 7d 3e 7e 03 21 3e
       0.037840188 -0.16339704 0.24735048 0.15723988
0002f0 86 cf d5 3d f8 76 cc bd d4 68 27 bd f2 6d 96 3e
       0.104399726 -0.09983629 -0.040871456 0.29380757
000300 8c 76 4f bf d4 9b cf be 5f 9a 90 bd 38 46 5f bf
       -0.81040263 -0.40548575 -0.07060694 -0.8721652
000310 ba 36 3e bf 02 cd 44 bf 1c 34 da bd 40 ed c6 3e
       -0.74302256 -0.7687532 -0.1065447 0.38852882
000320 96 ae 89 bf a5 11 89 be 8b 0d 44 3e 61 e8 a0 bf
       -1.0756404 -0.26771274 0.19145791 -1.2570916
000330 bd ac 47 bf a9 36 85 bf a7 c9 4c bf 43 be 98 bf
       -0.7799795 -1.0407306 -0.799952 -1.1933063
000340 2d 6f d6 be 33 e0 4b be 14 b1 8e bf 91 e2 09 bf
       -0.41881695 -0.19909744 -1.114779 -0.5386134
000350 b1 59 97 bf 17 3f 3a bf 78 b0 51 bf e0 47 1c bf
       -1.1824247 -0.7275252 -0.81909895 -0.6104717
000360 93 68 2e bf 66 4c 90 bf bb 3f ac bf 0d 48 6e bf
       -0.6812832 -1.1273315 -1.3456949 -0.9307869
000370 85 5a 31 bf 65 38 08 bf 4e a8 fe bf 37 e7 90 bf
       -0.69278747 -0.5321105 -1.9895113 -1.1320561
000380 42 86 4d bf 77 c4 b4 bf 26 6e e7 bd c5 8e f1 bf
       -0.80282986 -1.4122456 -0.11300306 -1.8871695
000390 0d f2 3d bf ee 78 8f bf 88 cb 38 bf d0 3d 5f be
       -0.74197465 -1.120878 -0.72185564 -0.21800923
0003a0 80 42 3d bf c0 6c 88 bf ef be dc be c3 9d a8 be
       -0.73929596 -1.0658188 -0.4311442 -0.32932863
0003b0 b5 ee af bf cb 3c 20 bf 58 d0 0d bf cf b9 93 bf
       -1.3744723 -0.6259276 -0.5539603 -1.1541079
0003c0 1e 20 d5 be 9d 41 97 bf 27 d4 98 be 55 73 ee be
       -0.41626066 -1.1816899 -0.2984936 -0.46572366
0003d0 65 16 8b bf db 38 91 bf b1 26 04 c0 55 04 25 bf
       -1.0866209 -1.1345476 -2.0648615 -0.64459735
0003e0 24 1f 89 bf 0b 99 ec be 43 d4 47 be 36 f2 61 bf
       -1.0712628 -0.46210513 -0.19514565 -0.8826021
0003f0 6a 9a 20 bf 06 ff 24 bf 5f 04 1a 3c 33 c1 9f bf
       -0.6273562 -0.64451635 0.009400456 -1.2480835

weight f4 [32, 64]
000000 f8 67 e0 3d 8d 85 e4 3c ab f2 63 3e ac 2d ff 3e
       0.109573305 0.027895713 0.22260539 0.49839532
000010 64 50 01 bf 8b b2 06 3f 39 3d b9 3c fd 5d d3 be
       -0.5051329 0.52616185 0.022612201 -0.41282645
000020 83 f8 bb 3e 38 dd 16 bf 01 6b 89 3d e5 88 48 bd
       0.36713037 -0.58931303 0.067098625 -0.048958678
000030 f0 d3 44 bd 1a f7 17 3f 56 2a 26 3f 48 86 de 3e
       -0.04805368 0.5936142 0.6490835 0.43461823
000040 9a 71 06 bf e8 a3 5a bc b2 e8 63 be 70 73 c9 be
       -0.5251709 -0.013344742 -0.22256735 -0.39345884
000050 cd 37 f0 bd 36 78 cd 3d 21 08 20 bf a5 7f 46 bd
       -0.11729393 0.10032694 -0.62512404 -0.048461575
000060 fa 41 1d 3f d0 ce ac 3e f1 ad c7 3e ee 96 00 3f
       0.614288 0.33751535 0.38999894 0.502303
000070 17 12 72 3e 40 d8 d6 3e 7b 34 52 3e 05 a3 d0 3e
       0.23639713 0.4196186 0.20527832 0.40749374
000080 4b 66 30 3e 41 5f 48 bf 3b 12 37 be d4 4a 1f 3f
       0.17226522 -0.78270346 -0.17878048 0.62223554
000090 a7 da b7 bc 34 b7 e3 be 72 53 78 3f 2e d2 8e 3d
       -0.022443129 -0.4447571 0.9700233 0.06973682
0000a0 92 72 f1 bd 83 f4 a6 3f a4 9f 31 3f 84 ec f9 3d
       -0.11789431 1.3043369 0.6938422 0.12203315
0000b0 a6 de 12 3f c6 1c c2 be f7 f7 d7 3e 8a c6 46 be
       0.57370985 -0.37912577 0.4218137 -0.19411674
0000c0 ee 0a 27 3d f3 b2 e3 3e 2c 2a 4a be 07 b7 40 be
       0.040781908 0.44472465 -0.1974265 -0.1881982
0000d0 b7 7b fb 3e 49 fa 0e 3e 5d b4 8c 3e 42 f5 c3 3e
       0.49117824 0.13962664 0.27481356 0.38273054
0000e0 97 c0 f3 be a8 59 16 bc 9f 9b 98 be d5 58 3e bf
       -0.47607872 -0.009176649 -0.2980623 -0.74354297
0000f0 a4 c3 25 3d 30 8b e1 be b1 89 4f bd 32 6a 5d be
       0.04046978 -0.44051504 -0.050668422 -0.21622542
000100 50 c6 00 3e a3 9c 02 bf c2 11 43 3e d1 39 8a bf
       0.1257565 -0.5102026 0.19049743 -1.0798894
000110 e1 26 4c bd 53 51 31 3e 8b 17 18 be 5c c5 45 be
       -0.049841765 0.17316179 -0.14852731 -0.19313568
000120 0f 5d 5b be 8b dd 09 3e a4 16 b1 bd 6c f2 eb 3e
       -0.21422218 0.13463418 -0.086468965 0.4608339
000130 62 11 5b 3f 89 e6 d6 3c 12 58 ae 3e 2b 5e a4 3d
       0.855734 0.026232975 0.34051567 0.080257736
000140 5a 35 67 3f 1f e0 c4 bd ae 21 87 3f bf 16 8d be
       0.90315783 -0.0961306 1.0557153 -0.27556416
000150 56 18 06 3f f2 51 d5 39 1c 78 96 3f ec 74 2d 3f
       0.52380884 0.0004068758 1.1755404 0.67756534
000160 71 6c f2 be cd 85 61 3f a3 4f 27 bf 38 e7 4a 3d
       -0.4734836 0.8809479 -0.6535589 0.049536914
000170 98 fe 5b be b4 ef 3f bf 2a d6 69 bd 9e 97 b3 bd
       -0.21483839 -0.7497513 -0.05708901 -0.08769153
000180 b1 04 10 3f 44 1e 53 3f b3 0f 9c 3d 93 48 47 be
       0.5625716 0.82468057 0.07620182 -0.19461279
000190 09 22 e0 3e 37 54 f4 be 4c 99 27 bf 55 a9 9b bd
       0.43775967 -0.477205 -0.6546829 -0.07600657
0001a0 b3 bc c8 39 47 b2 d2 bc 23 0f ed 3e ab fd 90 be
       0.00038287565 -0.025719775 0.4630061 -0.28318533
0001b0 e9 44 59 be 23 3a 86 3e 68 d6 86 bd 9c d0 0d 3f
       -0.21217693 0.2621623 -0.065838635 0.5539644
0001c0 5b 2f e4 bd 7f 12 18 3f d2 58 81 be 79 64 6a 3e
       -0.11141845 0.5940322 -0.25263077 0.2288989
0001d0 5f e5 86 bf fb df 58 3f 21 74 cc be 3d 9e 4e 3e
       -1.0538749 0.8471677 -0.3993235 0.2017755
0001e0 b0 92 2f 3d 98 67 e1 3d 89 44 a7 3e 98 81 74 3e
       0.0428645 0.11006087 0.32669476 0.23877561
0001f0 33 53 e3 be 2a ac 8b be e4 41 80 3d 38 88 6d 3f
       -0.44399413 -0.27279788 0.06262568 0.9278598
000200 82 97 55 be c2 eb ea bd 46 1f 3f 3e b3 c7 bc be
       -0.20858577 -0.114707485 0.18664274 -0.36871108
000210 5e ce 81 be 08 67 f0 3d ad 12 bb 3e e8 30 02 3f
       -0.25352758 0.11738402 0.36537686 0.50855875
000220 1b 62 42 bf 57 05 39 3f b2 b3 70 be 5e 58 9d 3f
       -0.7593095 0.7227377 -0.23506048 1.2292593
000230 52 73 43 3e c8 d7 71 3c 07 f5 19 bf 1b 03 47 be
       0.1908696 0.014760919 -0.6013951 -0.19434778
000240 dc 72 3c 3f 2a ae 1d 3d 8a de 04 3f b2 a1 ae 3d
       0.7361276 0.038496174 0.5190207 0.08526935
000250 e6 30 b9 3f 2f ed e5 be f1 3a 8d 3d 30 c8 91 3e
       1.4468048 -0.4490752 0.06896008 0.28473043
000260 55 97 fd bd c9 16 1f 3f 65 25 7a bf 02 c9 3a 3e
       -0.1238238 0.6214414 -0.9771331 0.18240741
000270 50 7d 2b be 77 86 a2 be ae d7 00 3d 20 99 48 bf
       -0.16747022 -0.31743214 0.03145569 -0.7835865
000280 40 54 99 3f 4a 8f 89 3f 4e e8 0c 3e b6 a8 f6 be
       1.1978836 1.0746853 0.13760492 -0.4817559
000290 20 49 a6 be 6a de ac 3f e1 43 1d c0 2b 34 08 3e
       -0.32477665 1.3505375 -2.457268 0.1330115
0002a0 b9 3c 44 be 34 9f fa bf 68 43 2f c0 75 4f d5 be
       -0.19163789 -1.9579835 -2.7384892 -0.41662183
0002b0 cb f1 9e be 17 6c eb 3c 90 3e 1d 3f 8a 4b 71 3f
       -0.31043848 0.028738065 0.6142359 0.9425589
0002c0 d5 07 68 be 18 79 26 bf f0 2d 2c be a4 52 28 3f
       -0.22659238 -0.65028524 -0.16814399 0.657511
0002d0 34 1d 77 3f 66 96 4d 3b b9 cb 2e 3e 2b c1 b3 be
       0.96528935 0.0031370162 0.17069902 -0.35108313
0002e0 cc bc 4d 3f 5c 39 aa be ac 55 4c 3e 38 9e 0f 40
       0.80366206 -0.33246887 0.19954556 2.244032
0002f0 64 81 5b 3f df 85 20 3e 19 81 e2 bd 88 95 7e bf
       0.8574431 0.15676068 -0.1105978 -0.99446917
000300 7a 80 67 be 7e b2 9c be 5e d3 ac be dc de 25 3e
       -0.22607604 -0.3060493 -0.3375501 0.16198295
000310 eb c5 a6 3e d0 fa f7 be 8c 60 d5 be 89 13 98 3d
       0.32572874 -0.48433542 -0.41675222 0.07425601
000320 c8 7f 4b bf fd e5 0a 3e 29 3e b6 bd cc ad 70 3f
       -0.79491854 0.13564296 -0.08898575 0.94015193
000330 9a d5 b5 3e 8e ac b0 be d0 36 1e 3d 44 f1 bf bd
       0.35514528 -0.3450665 0.038626492 -0.0937219
000340 38 6b 99 3f 27 ec 32 bf 4e a6 3e bf dd 63 4b bf
       1.1985846 -0.6989159 -0.7447251 -0.79449254
000350 4c 9c d7 be 5a cc 02 be 0f 13 e3 be 0e 50 81 bc
       -0.42111433 -0.12773266 -0.44350478 -0.015785243
000360 91 1d 41 3d 6c 60 aa be 74 6a 7d 3e ad 46 7a be
       0.047147337 -0.3327669 0.2474764 -0.24441023
000370 4c b7 18 3d df 15 a6 3e 29 2b 20 be 18 bb 07 3f
       0.03728418 0.3243856 -0.15641464 0.5301986
000380 1b 1b 1b bf 0e 89 08 3f 74 b8 3c bd a2 b8 a7 be
       -0.60588235 0.5333413 -0.046074346 -0.3275805
000390 79 0a 0f 3f 19 58 ae 3e 75 bf 96 bd ed 0c 28 be
       0.55875355 0.34051588 -0.07360736 -0.16411181
0003a0 f1 8c 91 3e f6 c0 d0 be d2 fd d2 be f3 f6 95 3d
       0.28427842 -0.40772218 -0.41209275 0.073224925
0003b0 6c 64 91 be c8 02 10 bf 9f 18 1f bf bd 70 ab bd
       -0.28396928 -0.56254244 -0.62146944 -0.083711125
0003c0 17 0e 0f 3e cf 8b ac be ca 9f 13 3e b6 c9 33 3e
       0.13970219 -0.33700415 0.14416423 0.17557415
0003d0 45 35 a7 3e a9 24 24 bf af 62 94 3e df 14 6c bf
       0.3265783 -0.6411844 0.2898154 -0.92219347
0003e0 4a 23 7f 3f 5f c2 2d be 14 9e 4c 3d bd 08 5d 3f
       0.9966322 -0.16968678 0.049955443 0.8634146
0003f0 96 11 1d bf e2 81 48 3e b5 00 a4 be ff 88 79 3f
       -0.6135496 0.19580796 -0.3203179 0.97474664

bias f4 [32]
000000 69 29 ef 3b fc d7 26 bd d3 0a ff bc cd 73 ac 3c
       0.0072986376 -0.040733323 -0.031133091 0.021051312
000010 73 c2 52 bb 33 a6 8f bd a4 7d ea bc dd 9c 5a bd
       -0.0032159358 -0.07014122 -0.028624363 -0.053372253
000020 83 83 69 3d cf 00 2b 3c 7f bf 80 bd 87 11 e1 3a
       0.057010185 0.0104372045 -0.06286525 0.0017171361
000030 ce a1 f0 3b 9d 05 d3 3c 38 75 b3 bd da f1 37 3d
       0.0073435074 0.025759513 -0.08762592 0.044908382
000040 4c 95 0b 3d 75 1f 13 3d 44 24 a0 bc 4b 75 ec 38
       0.034077927 0.03591867 -0.019548543 0.000112752045
000050 d4 5a 6e bc a5 2a 8d bd bd 62 d2 bb fc 26 4d 3c
       -0.014548022 -0.068928994 -0.006420462 0.012521502
000060 1a 6a 0b 3d 4f fc d2 3c 68 2f 59 bc 1c 2b 27 bd
       0.034036733 0.025755076 -0.013255931 -0.040812597
000070 b3 f3 35 bc f7 65 40 bd 93 97 8b bb fd 03 c6 bd
       -0.011105466 -0.04697224 -0.0042600124 -0.096687295
