ecg_backend/modelFinal1.pth (torch, 343714 bytes, 19 tensors)

weight f4 [32, 1, 3]
000000 c2 d9 4d be 2c 90 07 bf 13 f5 f3 be 45 ae af be
       -0.201026 -0.52954364 -0.47647914 -0.34312645
000010 3e 59 f9 be 5c 96 5b 3d 1d 44 8f 3e 91 fa 77 3e
       -0.487009 0.05361019 0.27981654 0.24216677
000020 a0 4c 8d 3d e5 e4 3f bf d8 b7 2e bf da ae 41 3f
       0.06899381 -0.7495864 -0.68249273 0.7565743
000030 c8 19 da be c7 ff b8 be a1 c2 01 3e 57 00 a6 3d
       -0.42597795 -0.36132643 0.12671901 0.081055336
000040 96 8d 70 bf 1a de 44 bf d3 b7 9a 3e bb 0f c3 be
       -0.93966043 -0.769014 0.30218372 -0.3809794
000050 26 a7 48 bf e2 a6 16 c0 ec df 95 3e b6 3a 3b bf
       -0.7838005 -2.3539357 0.292724 -0.7313646
000060 90 80 3f be 92 d9 38 3f 76 b0 9d bf 43 06 2b 3e
       -0.18701386 0.72206986 -1.2319477 0.16701607
000070 7d c1 c0 3d 8a 7f b6 be 7e 9b 45 bf b7 c3 87 be
       0.09411905 -0.3564418 -0.7719039 -0.26516506
000080 29 93 02 3f 9a 16 9c bf 98 e7 a2 3e 89 5d 2a be
       0.510058 -1.2194397 0.31817317 -0.16637243
000090 3b d7 a3 3d 95 fe 89 3e 4c 56 8e bd 56 7e 92 3e
       0.08000036 0.26952043 -0.069500536 0.28612012
0000a0 79 be 07 bf b5 f6 fa 3d f2 6b 26 bf 09 fa a7 be
       -0.53025013 0.12254087 -0.6500846 -0.3280795
0000b0 f5 38 c0 3d 2e 5e e0 3d 7a 55 07 3e 4e 0c d1 bd
       0.09385864 0.10955463 0.132162 -0.10207425
0000c0 7d 03 5b 3d 88 a1 86 3e 3e 12 37 be 82 28 66 bf
       0.053470124 0.26295114 -0.17878053 -0.8990556
0000d0 64 f4 b8 3e 9e 29 43 bf 5a c2 dd bf ee ef ec 3e
       0.36123955 -0.7623538 -1.7324936 0.46276802
0000e0 5e 6a 7b 3e 21 cd e4 3d 28 93 54 bf c3 db 0b bf
       0.24552295 0.11171938 -0.8303704 -0.54632205
0000f0 51 eb 79 bd 44 7b ee 3e 54 fd 9f bd a9 a9 26 3e
       -0.06101543 0.4657842 -0.078119904 0.16275658
000100 a4 8d f3 bc 45 7e 5a be 9c 37 8b 3e 4b f0 a0 3e
       -0.029730625 -0.2133723 0.27190864 0.3143333
000110 9c f5 3d 3e 4b 02 d2 be bd f2 87 be 85 34 f9 be
       0.18550724 -0.41017374 -0.26552382 -0.48672882
000120 38 7a 23 c0 e2 38 15 3f 67 24 1c 3f 69 dc 1e 3f
       -2.5543346 0.5828992 0.60993046 0.6205507
000130 3d 01 18 bf b0 93 8d be 2d 79 a6 be 91 cd 8a bd
       -0.5937689 -0.2765174 -0.32514325 -0.0677749
000140 a5 bf 49 bf f6 c3 be be 70 a6 07 bf 64 14 01 bc
       -0.7880805 -0.3725888 -0.5298834 -0.007878397
000150 51 72 b5 be c1 b7 ea 3c fc 2e 6f 3e 38 5c f7 be
       -0.3543878 0.028652074 0.23357767 -0.48312545
000160 78 a5 1b bd dc e2 60 3e a4 c8 0e bf 27 56 18 bf
       -0.0379996 0.2196154 -0.55774903 -0.5950646
000170 93 fe 57 3e 57 1c 78 be b2 71 88 be ff e6 1f be
       0.21093206 -0.24229561 -0.26649243 -0.15615462

bias f4 [32]
000000 4c 06 3c bb 8c 6b c4 be b0 95 17 bf a7 b9 54 3c
       -0.0028690277 -0.38363302 -0.5921278 0.012983716
000010 fd b1 0f be 25 32 d9 bd 20 0e 63 3d 17 d3 0c 3e
       -0.14032741 -0.106052674 0.055433393 0.137524
000020 5b e1 9d bd f4 45 8c be dc c8 ed be 13 07 53 be
       -0.07708999 -0.2739712 -0.46442306 -0.20608167
000030 e0 09 cb bd 9d 75 08 bf d3 5c 8f bd b3 d5 78 be
       -0.09913993 -0.53304464 -0.07000127 -0.2430027
000040 5b 5d ab be 83 74 df bd d9 5c dc bc 91 d5 e9 3d
       -0.33469662 -0.10910895 -0.026899742 0.11417688
000050 24 b6 e6 be 4a 9a cc be eb 77 c6 bd 1d 77 6d 3e
       -0.45060837 -0.39961463 -0.09690841 0.2318997
000060 10 dc 83 be 3b 22 09 3d 74 53 37 bc 93 ed 72 bc
       -0.25753832 0.03347991 -0.01118933 -0.01482715
000070 0f ca 8b be 86 d9 6c be bc a1 73 3e 85 75 1c 3f
       -0.27302596 -0.23129854 0.23792166 0.6111682

weight f4 [64, 32, 3]
000000 97 f8 6b bd 38 e9 99 bd 5a b2 37 3d 6f dc cb bd
       -0.05761012 -0.07515186 0.044847824 -0.09954154
000010 95 5a 86 3d e2 4d ce bc 14 1a 22 3d a8 c5 97 bd
       0.06560246 -0.025183622 0.03957565 -0.07410747
000020 b9 02 de 3c a6 40 ed bc f7 bc 9c bd 02 ef 1b 3d
       0.027100908 -0.02896149 -0.0765323 0.038069732
000030 2c e4 4d 3d e8 a0 ce bd 80 75 cf 3d 48 b6 f8 3c
       0.05026643 -0.10089284 0.10129833 0.030360356
000040 43 7b 05 be 1a fd 6f bc 0f a0 0e 3d b3 6e 7f bd
       -0.13035302 -0.014647746 0.034820613 -0.06236143
000050 e1 48 e8 bd 03 4f 9f bd 03 f3 a9 3c 08 45 80 3c
       -0.113420255 -0.07778742 0.02074576 0.015657917
000060 d5 e4 c4 bd 63 db 43 3d 0d 15 45 bc ee 67 ee bc
       -0.09613959 0.047816645 -0.012028945 -0.029102292
000070 33 a8 95 bd 68 e1 94 3d 7f d9 ca bd 6c 96 9a bc
       -0.07307472 0.07269555 -0.09904765 -0.018870555
000080 9a 6d a2 bd 57 9c 60 bd aa e3 17 bd 0a 8b 20 3a
       -0.07931061 -0.054836597 -0.03708235 0.0006124234
000090 a2 74 78 bc 15 ab 7b 3c 6b 81 0c bc 57 00 c6 bc
       -0.015164526 0.015360613 -0.0085757775 -0.024170084
0000a0 8a d1 66 3d a1 b2 66 bd 07 9e b1 bd 30 87 ed bb
       0.056352176 -0.056322698 -0.086727194 -0.0072487816
0000b0 99 ba b5 3d 16 76 a5 bd e2 3c e1 3a c9 cc 93 bd
       0.08873481 -0.08079164 0.0017184282 -0.07216794
0000c0 80 05 35 bb 11 ef b7 bd 29 cc d9 bc cb 34 82 bd
       -0.0027621686 -0.08981145 -0.026586609 -0.06357726
0000d0 d1 6f d4 bd 1b bf 2f 3c 50 72 bf bb 38 b0 a7 bd
       -0.1037289 0.010726715 -0.0058424845 -0.08187908
0000e0 91 30 18 3b 40 18 ae bc 15 56 6d 3d 84 50 f5 bd
       0.0023222307 -0.021251798 0.057943422 -0.11978248
0000f0 bd e5 1f bd 3c 82 c7 bd 2c 3d d5 bd 40 74 5a 3c
       -0.039037455 -0.09741637 -0.10412058 0.01333338
000100 64 8c 31 3d 38 77 ce bc 77 2f 28 3b ce 88 73 3c
       0.043346778 -0.025203332 0.0025663057 0.01486416
000110 01 0a 5c bd d4 3d 25 bd fd 15 0c bd cd 6f 23 bd
       -0.053720478 -0.040342167 -0.034200657 -0.039901543
000120 1e 54 99 3d 78 83 73 3d 7e 66 ca 3c 05 c8 9a bd
       0.07486747 0.05945155 0.024707075 -0.07557682
000130 f7 56 72 bd 1e f9 b2 3c 4b 6a 27 bd 10 a1 93 bd
       -0.059164967 0.021847304 -0.040872853 -0.072084546
000140 f3 97 e0 bb 6d 42 27 bc e8 be ed bd bf e1 ad bd
       -0.0068540513 -0.010208708 -0.11608678 -0.08490323
000150 85 9c 83 3d 88 b6 02 3d 88 a1 3c bd 1e 1e b5 bd
       0.06426338 0.031912357 -0.046052486 -0.08843635
000160 69 42 89 bd b1 9f ad bd ac 04 a7 bd 6d 8c 4e 3d
       -0.0670212 -0.08477724 -0.08155188 0.05042689
000170 0c e9 89 3c e7 c0 48 bc 08 e2 61 3d 5e 21 93 bd
       0.016834758 -0.012253023 0.0551472 -0.07184099
000180 80 ec 13 3d e6 17 92 bd 39 3a 8e bd 69 b5 6f 3d
       0.036114216 -0.071334645 -0.06944699 0.058522616
000190 1e 4f 30 bb 66 36 90 3d 6d 54 fd bc a5 5d d5 3c
       -0.0026902626 0.07041626 -0.030924046 0.02604563
0001a0 09 87 0b be e8 0f e7 bd 98 72 2b 3d 23 50 d5 bd
       -0.1362573 -0.11282331 0.041857332 -0.104156755
0001b0 85 22 21 3d 1e 49 0c bd 28 12 48 bd 47 2e b7 bd
       0.03933956 -0.034249417 -0.04884544 -0.089443736
0001c0 e9 d2 e7 bd 80 b5 09 be ab fa e3 bd 15 a9 1e be
       -0.11319525 -0.13448143 -0.111317955 -0.15494187
0001d0 3b 01 f2 3b 15 6c fb 3c 11 b4 5c bd 13 2a bf bc
       0.0073854006 0.030691186 -0.053882662 -0.023335492
0001e0 ef 76 06 3d 00 75 c9 3d b4 df 97 bc fb ae 61 bd
       0.032828268 0.09836769 -0.018539287 -0.055098515
0001f0 c0 aa c3 3d 34 45 bc bd be ff 0a bd 90 9f ba bd
       0.09554052 -0.09192887 -0.0339353 -0.091124654
000200 f8 37 a3 bc b2 d9 f7 bd fd 28 3b 3d 8f b7 8c 3b
       -0.019924149 -0.12102069 0.045693386 0.004294343
000210 a9 9d c0 bd 4d c5 89 3d 06 17 44 bd 33 b0 83 bd
       -0.09405071 0.06727085 -0.04787352 -0.06430092
000220 77 02 f1 3b a5 1d b4 3d 62 fb 9e bc 0b de c8 bd
       0.00735503 0.08794717 -0.019406978 -0.09807976
000230 1b d3 54 bc e5 22 5e bb fe 58 89 3c 78 aa 05 be
       -0.012989785 -0.003389531 0.016766068 -0.1305331
000240 72 dc 20 bd 9d 61 ba bd 8f b7 ce 3c 62 c9 a4 bd
       -0.039272733 -0.091006495 0.025234012 -0.08046223
000250 3c 0f 96 3d 03 a0 8b bc 5b e3 61 bd 82 77 de 3d
       0.073271245 -0.017044073 -0.055148464 0.10862638
000260 fb 2b a5 3d c7 b2 2f bd ab 9d bd bd ef 9b 90 bd
       0.08065029 -0.042895105 -0.092585884 -0.07060992
000270 17 34 81 bd 38 3d af bd 6b 52 28 bd 01 c7 96 3d
       -0.063087635 -0.085565984 -0.041094225 0.07362176
000280 75 e1 43 3d 2c 9b b2 bc 52 ed 52 3d 9e b2 6d bd
       0.047822434 -0.021802507 0.051495858 -0.05803167
000290 6b 4c 3a 3d c5 0e 16 3d e9 0a 27 3d 7e 67 99 bd
       0.045483034 0.03663518 0.04078189 -0.07490443
0002a0 00 8d 58 3d d1 93 ec bc 90 2d 95 3d e3 5f 97 bc
       0.052868843 -0.028879078 0.07284081 -0.01847834
0002b0 97 97 4a be 75 4f e6 3b 32 2d 31 bd 44 78 7a bc
       -0.1978439 0.007028515 -0.043255992 -0.015287463
0002c0 72 3b c6 bc 6f a2 18 be 76 bf ab bd 8e 08 a8 bd
       -0.024198268 -0.14905713 -0.08386128 -0.08204757
0002d0 3d b1 89 bc d5 fb 17 bd c6 ba ad 3c 16 a5 1f bd
       -0.016808147 -0.0371054 0.021207225 -0.038975798
0002e0 39 12 ab bd 34 70 52 3d dc 67 06 bd ec 70 27 bd
       -0.08353085 0.051376536 -0.03281389 -0.040879175
0002f0 57 a0 e0 3c 3d 19 f5 bd 4d 8e ac bd e5 50 f2 bd
       0.027420206 -0.119677044 -0.08425579 -0.11831836
000300 2f ae f5 3c 46 36 d8 3c 57 80 f1 bc 46 ad 05 3d
       0.029990284 0.026393067 -0.029480143 0.03263595
000310 43 3f bc 39 9b ef af 3d 6e 87 9d bd f6 49 2c 3d
       0.00035905288 0.08590623 -0.07691847 0.042062722
000320 ea 5d c9 3d 53 e1 94 3c 67 7d ea bd 98 cd 08 bd
       0.09832366 0.01817385 -0.114497 -0.033399194
000330 cb 63 a6 3d d2 7b 98 3c 3d c2 64 3d f9 47 9b 3d
       0.08124503 0.01861373 0.055849303 0.07582087
000340 51 94 4d bd b6 79 88 3d 08 b8 99 bd 52 41 bd 3d
       -0.050190274 0.066638395 -0.07505804 0.092409745
000350 82 3e a0 bd 9d eb 56 bd e6 a4 f7 bd c4 77 9f bd
       -0.078244224 -0.052470792 -0.12091999 -0.07786515
000360 ff e5 b6 3c 77 af ce bd 6b 07 c8 bd 22 5c e2 3c
       0.022326468 -0.10092061 -0.0976704 0.027631823
000370 7d 84 73 3b a7 7d 49 bd 78 ca 0e 3d ff a2 0b bd
       0.0037157827 -0.049192097 0.034861058 -0.034090992
000380 9e a9 d3 3d fa b1 9f bd bc 00 2f 3d 23 74 be bd
       0.10335086 -0.07797618 0.04272531 -0.09299495
000390 a5 64 76 3c cd ed 3a bd b5 ea 92 3b 1d 3d c0 bd
       0.015038644 -0.04563694 0.0044835457 -0.093866564
0003a0 6a 35 5c bd 18 3f 10 3d 9e 1e b4 bd 60 e1 62 bd
       -0.053761877 0.03521642 -0.08794902 -0.055390716
0003b0 44 3a 03 be 42 88 cb bd 10 57 86 3c 92 c1 24 bd
       -0.12815195 -0.099380985 0.016398937 -0.040223666
0003c0 92 af b7 bd ac f1 78 3d 0e 21 9e bd 95 d8 e5 3c
       -0.08969034 0.06077735 -0.077211484 0.028057376
0003d0 e9 0d f7 3c 82 d3 3d be 04 c0 1f bd bf f4 8f bd
       0.030158 -0.18537715 -0.03900148 -0.070291035
0003e0 34 bd f2 bd 74 d9 d0 3c fc 5a 05 3c 09 44 54 bd
       -0.11852494 0.025494315 0.008139368 -0.051822696
0003f0 de f8 a6 3d b6 f5 e6 3d 71 67 b1 bd 24 7e b0 3d
       0.081529364 0.112773344 -0.08662308 0.086178094

bias f4 [64]
000000 3f 2c 12 be fd 79 99 bd ee 2c d0 bd d4 d6 5a bd
       -0.14274691 -0.074939705 -0.1016482 -0.053427532
000010 bd 16 ca 3e 4f 05 cb bd dd c7 d6 bd 1a 47 c4 bd
       0.39470473 -0.09913122 -0.1048734 -0.09583874
000020 f4 34 41 bd 64 65 e5 bc e1 3c fa bd 79 e1 dd bd
       -0.04716964 -0.028002448 -0.12218643 -0.10834021
000030 f6 cb 63 bd d1 93 0c bd 43 99 03 be 50 79 7d bc
       -0.055614434 -0.034320656 -0.12851433 -0.015470818
000040 7b 33 35 3d 27 62 29 bc 00 ff fb bd db 18 5e be
       0.04423855 -0.010338343 -0.12304497 -0.21689169
000050 4e 97 1b be 88 cb 3a 3e 65 af ab bd 0c 4d de bc
       -0.15194437 0.18241704 -0.08383063 -0.027136348
000060 a9 3f a2 bd f2 55 2e be 64 05 0a be 1c 76 f8 bc
       -0.079222985 -0.17024973 -0.13478619 -0.030329756
000070 7e 4a a1 bd 28 86 0d be 5b 0d eb bd 0d 5d 46 bd
       -0.078755364 -0.13820708 -0.11477157 -0.048428584
000080 e4 fa 40 be ec 83 9e bd 25 7d 17 be ff e4 6b be
       -0.18845707 -0.07740006 -0.14793833 -0.23036574
000090 7f 0b b1 bc 95 79 bd bd fe 79 32 bd ba 97 e1 3c
       -0.021611927 -0.092517056 -0.043573372 0.02753817
0000a0 67 81 f0 bd e6 61 ca bd 45 f3 a0 bd f3 77 07 3e
       -0.117434315 -0.09881954 -0.078589 0.13229351
0000b0 ca f4 5c be bf 06 8d 3e 87 3b 89 bd b4 52 51 be
       -0.21577755 0.2754421 -0.06700807 -0.20441705
0000c0 8a a8 a2 bd 46 70 8d bd 8d 32 be bd a1 04 2d bd
       -0.079423025 -0.0690618 -0.092869855 -0.042240743
0000d0 f4 e4 f7 3b df 94 0e bb 1a c0 35 be 8e 59 60 bd
       0.007565135 -0.0021756215 -0.17749062 -0.054772906
0000e0 bc cb 49 be e7 6a b7 bd 86 a5 ec bd 9e 1a 00 be
       -0.19706625 -0.08955937 -0.115550086 -0.12510154
0000f0 ff 0e c5 bd 3a fa 06 be af 4a 08 be 18 6c 35 be
       -0.09622001 -0.13181391 -0.1330974 -0.17717016

weight_ih_l0 f4 [256, 64]
000000 9a 94 10 3e dc 4e de bd 72 3f c3 bd ac e4 99 bd
       0.14119187 -0.10854885 -0.095335856 -0.07514319
000010 13 d9 02 bd 2e 0b 8d bd 35 3b f4 bb 40 ac 6e bd
       -0.0319453 -0.06886898 -0.007453347 -0.05826974
000020 ff 2d 2b bd 59 90 34 3d d2 9f bb bd 87 5f 05 3e
       -0.041791912 0.044082973 -0.09161343 0.13024722
000030 a2 82 88 bd 10 51 17 3e 84 af 9c 3c 06 dc 2f bd
       -0.06665541 0.14777017 0.019126661 -0.04293444
000040 11 62 b1 bd 36 5e 14 bd 70 ef db bc e2 94 41 bf
       -0.08661283 -0.03622266 -0.026847571 -0.756178
000050 9f 11 fc 3d 3a c4 de bc ca 1c a3 3d 08 c4 ec 3d
       0.123080485 -0.027193177 0.079644755 0.115608275
000060 eb 66 01 3d f0 72 a3 bd 02 67 5b 3d 3c 01 ca bd
       0.03159229 -0.07980907 0.053565033 -0.09863517
000070 ca a4 d7 bd 5f d4 e8 b7 6d b3 37 bc 09 37 46 be
       -0.10529478 -2.7755448e-05 -0.011212212 -0.19356932
000080 ad 43 f0 3d 9f fc c6 3d 58 e9 0c be c9 fc bb be
       0.11731658 0.097161524 -0.13760889 -0.36716297
000090 17 4f 4a 3d 1f 74 31 ba bc 87 cd bc 93 14 03 bd
       0.049391832 -0.00067693176 -0.025089137 -0.032002043
0000a0 01 cf 97 bd 0c bc 0b 3e 09 68 2c be 63 28 60 be
       -0.0741253 0.13645953 -0.16836561 -0.21890406
0000b0 25 e7 07 3e 48 f8 46 bf b0 46 a2 bb e2 8f cf 3d
       0.13271768 -0.777226 -0.0049522743 0.10134865
0000c0 a7 d2 0e 3e ea 2c a7 3d a9 70 cc bd 34 a3 e2 bd
       0.13947545 0.081628636 -0.09982426 -0.11066285
0000d0 03 b3 6d bd cc d9 b1 be 8f 0a 9f be 91 c1 9a bc
       -0.058032047 -0.34736478 -0.31062743 -0.018891128
0000e0 04 68 f1 3d 34 c9 cb bd d5 7a 91 3d 5e 03 b4 bd
       0.117874175 -0.09950486 0.071035065 -0.08789705
0000f0 77 f9 9f bc 0b 83 35 bd 98 bc e4 bd 6d d2 59 3d
       -0.019528134 -0.044314425 -0.11168784 0.053179193
000100 c0 d3 e2 3d 47 56 88 bd 7b d1 8b 3d 66 a9 9f bc
       0.11075544 -0.06657081 0.068270646 -0.019489955
000110 36 c1 ad bf 0c a1 a8 bd e0 74 bc 3d 14 30 9c bd
       -1.3574588 -0.08233842 0.0920198 -0.07626358
000120 38 6d e6 bd d9 55 32 3d 1c f3 7a 3d 8a 80 e0 3c
       -0.112513006 0.043538902 0.061267003 0.027405042
000130 89 3f ef bd d0 04 51 bd 15 96 9d 3c 19 90 b2 bb
       -0.1168204 -0.05102998 0.019236604 -0.0054493067
000140 23 10 c6 bd f6 18 37 bd 28 48 87 bd c3 17 f2 be
       -0.096710466 -0.04470154 -0.066055596 -0.47283754
000150 ff fe 5a 3b 14 07 05 be 08 2c c1 bc 44 ef 37 3d
       0.003341615 -0.12990981 -0.023580566 0.044905916
000160 8f 13 58 bd 0a 06 04 be aa dd 36 be b6 03 45 bd
       -0.052753028 -0.12892929 -0.17857996 -0.048099242
000170 34 fd 3a bd 3e a2 a4 bd 4a 98 81 bf b0 7d b7 3d
       -0.04565163 -0.08038758 -1.01246 0.0895952
000180 05 5f 2e bd 9d a6 a1 3b a8 fb d0 bd 40 fa 24 be
       -0.042571086 0.004933192 -0.102042496 -0.16111088
000190 aa 40 79 bc 58 ab 50 3c 23 2e 05 3e 84 5a 15 3d
       -0.015213171 0.012736164 0.13005881 0.036463276
0001a0 35 6e 07 be 8d 20 8d 3d a6 cc d3 ba 63 fc 56 bf
       -0.13225634 0.06890974 -0.0016159012 -0.8397886
0001b0 42 e4 15 be 12 8d 11 3f 17 8d 31 bd e1 da 25 3f
       -0.14637855 0.5685588 -0.043347444 0.6478711
0001c0 16 02 99 3c cc d1 92 bc 0a 7f 91 3d dd 5f e5 3d
       0.018677752 -0.017922305 0.07104309 0.11199925
0001d0 33 40 00 3c c4 b6 b7 3e 1c 0b cc 3e 73 cd 0d 3d
       0.007827806 0.35881627 0.39852226 0.03461976
0001e0 d8 4a d6 be d5 58 04 be 17 2c 8e be da 34 2f bd
       -0.41853976 -0.12924512 -0.27768013 -0.042775013
0001f0 55 fe 33 be fe 75 a0 bd f3 e9 2f bd 39 fc 3e bf
       -0.17577489 -0.07835005 -0.04294772 -0.7460361
000200 0c 8a 04 3e 18 db 23 bc 71 96 cf 3d 19 39 e5 3c
       0.12943286 -0.0100009665 0.10136116 0.027981328
000210 64 19 bf 3d f8 56 08 3d a9 f7 fd bd 8f dc d2 3d
       0.09331015 0.033286065 -0.12400753 0.102959745
000220 41 73 13 be 31 50 7e bc be f7 bd bd c0 ac fe 3d
       -0.14399435 -0.015522049 -0.09275769 0.12435293
000230 77 5f 9e 3d 68 9d 59 bd 44 41 3c 3d b7 6f 96 3d
       0.07733052 -0.05312863 0.04596068 0.07345527
000240 39 e2 97 bd 1c e1 ed bd fb d3 86 bd 38 2d fd bd
       -0.074161954 -0.11615202 -0.06583401 -0.123621404
000250 a0 05 2b be 68 85 eb bd b0 8e 38 3c f0 79 7f bc
       -0.16701365 -0.115000546 0.011264488 -0.015593037
000260 27 88 a4 bd fc e4 ff 3c 20 0c 05 3d 58 70 f6 3d
       -0.080337815 0.031237118 0.032482266 0.120331466
000270 74 7d e6 bd 82 00 7f 3d 24 cd 15 be f6 c9 01 be
       -0.11254397 0.062256344 -0.14629036 -0.12674698
000280 2c af 9a be 1c 6d e5 bd 62 18 d9 bd 1c c7 e7 be
       -0.3021177 -0.112024516 -0.10600354 -0.45269096
000290 3a 7c 75 3d 11 9e aa 3c 1a b8 c8 bc 3d 0d 11 bd
       0.059932925 0.020827325 -0.024501849 -0.035413016
0002a0 9a d0 c1 bd 4c 4c 88 bd 1f 7c a2 bd bc 4a 29 3f
       -0.09463616 -0.066551775 -0.079338305 0.6612966
0002b0 60 84 6b be 76 91 d6 bf d8 59 97 3d 39 9b c1 3e
       -0.22999716 -1.6763141 0.07390183 0.37813738
0002c0 18 a6 4b 3b 24 4a 56 ba 45 dc 3a 3d 9f c3 d6 3d
       0.0031074341 -0.00081745 0.04562022 0.104865305
0002d0 9f 19 7f ba ab 09 cf bf b4 fd cc bf 11 88 c2 3d
       -0.0009731296 -1.6174825 -1.6014924 0.09498609
0002e0 8f 65 3a bc 1f 85 5e 3d d8 24 f2 3d bc 3a 95 be
       -0.0113767525 0.054326173 0.11823434 -0.29146373
0002f0 9f 18 d0 bd 05 fe 96 3d 59 6b 6b be f4 48 4e 3d
       -0.10160946 0.07372669 -0.22990169 0.050362542
000300 01 04 80 bd 0c ec c4 bc d2 1d 6d 3d dc 10 80 3d
       -0.06250764 -0.024038337 0.057889767 0.06253216
000310 c0 cd ac be 26 89 a8 3d 98 6b 47 3d 0b 70 0f 3d
       -0.33750725 0.08229284 0.048686594 0.035018962
000320 9f 9a f2 bd 57 72 0e 3e c9 7e 09 bb 5b bd 84 3d
       -0.11845898 0.13910805 -0.002098011 0.06481429
000330 56 88 68 bd 45 37 84 3c 89 0a b8 bc 91 08 37 3d
       -0.056770645 0.016139636 -0.022465961 0.044685904
000340 15 6a 0a be cf 81 5a bc e8 f1 5f be 8b 11 68 bf
       -0.1351703 -0.013336613 -0.21869624 -0.9065177
000350 8a 8c 31 3d f9 89 65 bf 50 48 89 bd 14 5d 2e 3d
       0.04334692 -0.89663655 -0.06703246 0.042569235
000360 ca 44 fe bd 67 80 92 3c 01 6c 16 be 96 29 e0 3d
       -0.12415464 0.017883493 -0.14689638 0.10945432
000370 90 92 c6 bd b9 2a 49 3d 0b 91 de be 14 05 ed bd
       -0.09695923 0.04911301 -0.43470034 -0.11573234
000380 6f aa 8f 3d c9 63 0c 3e a5 99 45 bd 83 3c 3c bf
       0.070149295 0.1370994 -0.04824223 -0.73529834
000390 43 22 bc bc 2c 14 30 be 99 c0 96 bd 7b 7e a7 3d
       -0.022965556 -0.17195195 -0.07360954 0.08178421
0003a0 67 7b 11 be 47 5f 87 3e 9a 34 8e bd c6 3b 09 c0
       -0.1420723 0.26439878 -0.06943627 -2.1442733
0003b0 11 47 4f 3e cc 68 32 3d ad 48 97 3c 95 2c 5a 3f
       0.20241953 0.043556973 0.018467272 0.85224277
0003c0 71 ac 4b 3d a6 78 51 bd b8 e6 33 bb 33 a8 ee 3b
       0.049725 -0.05114045 -0.0027450752 0.0072832345
0003d0 e2 bf c3 bd b4 e9 1e 3f 64 af 38 be 05 d6 55 3e
       -0.09558083 0.6207535 -0.18035656 0.20882423
0003e0 bc b5 07 be d7 55 2c ba df 1b 18 be 21 00 9f bc
       -0.1325292 -0.00065740704 -0.14854382 -0.019409241
0003f0 91 ee 38 be 54 a4 8b 3d d0 ca dd 3c b9 86 be bd
       -0.18059756 0.068184525 0.027074248 -0.0930304

weight_hh_l0 f4 [256, 64]
000000 90 cf 4a 3e 6d dd 9c 3e 65 67 77 3f e0 f9 c2 bb
       0.19805741 0.30637684 0.9664214 -0.0059501976
000010 85 a8 bc be 7a 68 0a 3e 59 50 1e be 20 b6 ae bd
       -0.3684732 0.13516417 -0.15460338 -0.08530831
000020 24 71 86 3f 86 3d 86 be 5b af e4 be cc f4 ae 3e
       1.0503278 -0.26218814 -0.44665036 0.3417114
000030 a1 2a aa 3e 10 39 69 bb fc 20 a2 3d 48 40 0b 3e
       0.33235648 -0.003558699 0.079164475 0.1359874
000040 d6 5a 81 3e 2e 08 02 3f 49 bb 91 3e 2d 40 e5 bd
       0.25264615 0.5079373 0.284632 -0.11193881
000050 17 56 36 be 55 ec eb be 99 50 81 be 02 11 63 be
       -0.17806278 -0.46078745 -0.25256804 -0.22174457
000060 03 f0 d4 3d 35 a1 a3 be b9 60 78 bf e1 e8 e8 3d
       0.10397341 -0.3195893 -0.9702259 0.11372543
000070 d6 02 dc 3e 15 74 b5 be d9 9e 05 bf 67 dc b7 3d
       0.42970914 -0.35440126 -0.5219551 0.08977585
000080 f8 9b 4a be 10 fd 30 3f ab c1 e8 be 21 bc ad 3e
       -0.1978606 0.6913614 -0.45460257 0.33932593
000090 bf 8d 5c bd c1 6e 5e 3c 7d 90 bf 3e a0 9a 52 be
       -0.053846117 0.0135762105 0.37414923 -0.20566797
0000a0 71 86 3e be ed d7 84 3f 96 7c 83 be fc d0 06 bf
       -0.18605973 1.0378395 -0.2568099 -0.52662635
0000b0 9e ab 69 3c f4 bd 90 bd 50 0d 26 be 40 95 8b be
       0.014262108 -0.07067481 -0.16216016 -0.27262306
0000c0 95 74 90 be e3 6a 2c 3e dd ef 37 3f 8a 43 f6 3d
       -0.28213945 0.16837649 0.7185038 0.12024601
0000d0 e9 90 7d bd 32 97 13 3e 5f 9e d6 be d7 d7 a3 3e
       -0.061905775 0.14413145 -0.41917703 0.3200061
0000e0 fe ed 04 3f 68 89 9a 3c 44 8e 52 3e b7 50 4b be
       0.5192565 0.018864349 0.20562083 -0.19855009
0000f0 ef 00 74 bd 48 8e 10 bf 34 b0 3b be 01 a4 c9 3e
       -0.059571203 -0.56467104 -0.18328935 0.39382938
000100 93 ef cf 3f 35 f6 02 3f 36 0e 2e bf b7 94 bc 3f
       1.6244987 0.5115693 -0.67990434 1.4732884
000110 78 8f a8 bf 77 a3 65 bf 21 cb 79 3e 14 95 95 3d
       -1.3168783 -0.8970255 0.24393894 0.07303825
000120 13 95 65 3f 77 bb 20 bf 6f 62 2a c0 28 37 f1 bc
       0.89680594 -0.6278605 -2.662258 -0.029445246
000130 33 99 e7 3f b0 2f 90 bf d6 72 d9 be f6 29 7f 3e
       1.8093628 -1.1264553 -0.42470425 0.2491835
000140 51 7f 0e 3f 85 b5 ca 3f a5 e6 18 3c 23 b6 19 bf
       0.5566302 1.5836645 0.009332334 -0.60043544
000150 72 90 c3 bf 5b 2f 46 3f 89 24 62 3f be 6d a9 3f
       -1.5278456 0.7741601 0.88337 1.3236616
000160 9c 3d 04 3f c4 f9 5c 3f 25 3f dc be a7 51 0b be
       0.5165651 0.8631861 -0.43016925 -0.13605367
000170 c7 cd 46 3f 26 c3 8d be b7 d2 52 bf 21 db 80 bf
       0.7765774 -0.2768795 -0.82352775 -1.0066873
000180 dd 8a 44 3f 17 43 8a bf c1 9c 67 be 80 8b f9 3d
       0.7677439 -1.0801724 -0.2261839 0.12184811
000190 6a 7b 12 bf f5 c6 54 bf b2 17 1d bf 6a 52 b5 bf
       -0.57219565 -0.83116084 -0.6136428 -1.4165776
0001a0 94 12 04 bf 68 1f ea be a0 98 dd 3e 8f 8d ce be
       -0.5159085 -0.45727086 0.43280506 -0.40342376
0001b0 a1 a5 89 bf 2c 90 21 40 a2 36 e8 3f b2 7c bc 3f
       -1.0753671 2.5244246 1.8141673 1.4725554
0001c0 8b e4 3d bf de ce 4d 3f 08 96 3d 3f 5a ba 4a bf
       -0.74176854 0.8039378 0.74057055 -0.791906
0001d0 73 57 35 be 56 34 21 be 53 ba e5 be a5 f9 c4 bf
       -0.1770914 -0.15742621 -0.44868717 -1.5388685
0001e0 10 48 1d 3f b2 a5 e7 bf 43 3c c2 be df 00 9a bf
       0.61438084 -1.8097441 -0.379366 -1.2031516
0001f0 e8 51 05 be a1 04 77 bf 55 43 4f bf ba d4 97 3e
       -0.13019526 -0.9649144 -0.80962116 0.29654485
000200 70 67 cc 3e 10 b6 88 3f 1f 31 0f 3f f6 1d 81 bf
       0.39922667 1.0680561 0.5593433 -1.0087268
000210 f8 12 54 be cc 18 dc be d5 f9 19 3f 56 13 84 bf
       -0.20710361 -0.4298767 0.6014684 -1.0318401
000220 7e 03 0d 3f a5 3b df bd 21 43 e0 3d 00 ee 62 bf
       0.55083454 -0.10900048 0.10950304 -0.8864441
000230 71 63 22 3f 0d a8 bb be 41 2d 31 bd 02 4a af 3e
       0.63432986 -0.3665165 -0.043256048 0.3423615
000240 a8 a7 ba 3f 3f ff 11 3f 9f e6 80 3f f5 da a9 3e
       1.4582415 0.570301 1.007038 0.33174863
000250 fd 4d 20 bf 36 dc a7 be aa 6d a9 bf 8d da b8 3e
       -0.62619 -0.32785195 -1.3236592 0.3610424
000260 a5 6c 3e bd 3b e1 0d bf 70 76 6b 3f 1f 5f 0e c0
       -0.04649033 -0.554218 0.91977596 -2.2245557
000270 da 7c 15 3f 1b 59 ac bd 19 3b f5 bf 50 00 01 be
       0.58393633 -0.08415433 -1.915866 -0.12597775
000280 b7 30 e4 bf a8 81 87 bc fe fd d7 bf 7e 9d ff bb
       -1.7827367 -0.016541317 -1.6874387 -0.007800757
000290 d4 12 76 3e d5 e8 1d 3f 10 08 3a 3e ac d9 90 3f
       0.2403062 0.616834 0.18167138 1.1316428
0002a0 6b 54 c6 be 07 02 b1 3f 85 7a 00 bf 88 ec 28 3f
       -0.3873628 1.3828744 -0.5018695 0.6598592
0002b0 c9 d1 ec 3c 65 d0 fa be 5f e3 16 bf 5f 6c 88 3d
       0.028908627 -0.48987117 -0.5894069 0.06661295
0002c0 02 07 4e 3f 50 d7 02 3f 8c d2 45 be a4 4b 24 3b
       0.80479443 0.5110979 -0.19318599 0.00250695
0002d0 84 08 ad 3d 96 33 85 3d fd ff c2 3f e4 a0 f0 3e
       0.0844889 0.0650398 1.5234371 0.4699775
0002e0 a8 ed 41 bf 11 c1 14 be 55 28 a1 bd 3d 35 16 3f
       -0.7575326 -0.14526774 -0.07869021 0.58674985
0002f0 b0 22 45 3f 99 6a 21 3f 82 1e 05 bf 52 eb 19 bf
       0.77006054 0.6305328 -0.51999676 -0.60124695
000300 0c 10 7e 3e 11 ce b7 be 91 50 92 3e e5 b2 a2 bf
       0.24810809 -0.35899404 0.28577092 -1.2710844
000310 a0 f2 54 3e ac 77 93 bc e4 89 31 be aa 7e 87 3e
       0.20795679 -0.0180014 -0.17337757 0.26463825
000320 56 57 01 bf f3 d5 0a 3d 49 49 18 bf 68 10 dd be
       -0.5052389 0.033895444 -0.59486824 -0.4317658
000330 37 82 b0 3e 2b 2a 0d bf f6 c4 59 3f 8e 4b c3 be
       0.34474346 -0.5514247 0.85066164 -0.3814358
000340 b7 09 d0 be 88 48 e8 bd 0a d5 a0 3e 85 3a 10 bf
       -0.40632412 -0.11341959 0.31412536 -0.56339294
000350 80 8b 68 bf 8a cd 5e bf 0f 9b 3b 3e a4 3a b9 be
       -0.9083786 -0.8703238 0.18320869 -0.36177552
000360 48 5b e2 be 4d f2 26 3f 1a 6d 15 c0 90 1b 91 3f
       -0.44210267 0.6521347 -2.334784 1.1336536
000370 e7 72 e7 3f 97 da 42 3f 5c 53 31 3f 3d e7 db bd
       1.808194 0.7611479 0.6926782 -0.107374646
000380 22 fe b4 3e 77 7f ae 3d 7c b3 11 3e 49 fa ef be
       0.35350138 0.08520406 0.14228624 -0.4687064
000390 f4 7a f4 3e 66 9b 92 3d f7 9b 89 bd 2f 6d 5c 3f
       0.47750056 0.07158546 -0.06719201 0.861041
0003a0 18 f2 89 bd e8 57 86 3e 30 eb 8f be 74 db 63 be
       -0.06735629 0.26238942 -0.2810912 -0.22251683
0003b0 c4 9a bf be 05 52 a9 bf ec b8 1c bf 05 42 07 bf
       -0.37422764 -1.3228155 -0.6121967 -0.5283511
0003c0 eb b8 10 bf 83 3c a9 bf c1 e8 a4 bf 13 49 c4 3e
       -0.5653216 -1.3221592 -1.2883531 0.38337
0003d0 1d b7 2f 3e e1 81 b6 be 9b b3 19 3e 25 a4 d6 bd
       0.17159696 -0.35645965 0.1500992 -0.10480527
0003e0 a6 04 a8 3f d8 79 d0 3e fe a1 ff be cd 8b c0 3f
       1.3126419 0.4071796 -0.49928278 1.5042664
0003f0 43 90 9c bf 23 0d 48 bf 89 63 eb be 98 99 4d 3f
       -1.2231525 -0.78145045 -0.45974377 0.8031249

bias_ih_l0 f4 [256]
000000 7d 46 a7 be ec 56 8c bf 2b d3 67 bf ba f5 27 bf
       -0.32670966 -1.0964026 -0.9055659 -0.65609324
000010 99 b4 dc bf 14 33 dc bf 93 70 81 bc f0 e7 46 bf
       -1.7242614 -1.7203088 -0.01580075 -0.7769766
000020 5b 1e da be 45 ae b1 bf 55 6f 00 bf ed 62 8e bf
       -0.42601284 -1.3881308 -0.5016988 -1.112394
000030 09 73 8a bf 04 89 6c bf 07 3b 91 bf f8 8e bc bf
       -1.0816356 -0.9239657 -1.1346139 -1.4731131
000040 24 c6 2b be d6 0a 16 bf 9a 9c ba bf b6 60 f9 be
       -0.16774803 -0.58610284 -1.4579041 -0.48706597
000050 fe 44 8d bf 2c 70 86 bf 3a 9a e2 be a8 d2 ab bf
       -1.103668 -1.0502982 -0.4425829 -1.3423662
000060 42 47 2e bf 82 94 78 bf fc 8d 7d bf 2c 26 4e be
       -0.6807748 -0.97101605 -0.99044776 -0.20131749
000070 19 7b 0b be 76 dd 25 bf 80 f3 9f bf 13 ba 09 bf
       -0.13621177 -0.6479105 -1.2496185 -0.5379955
000080 bb a9 64 bf a7 70 0d bf c7 ee ae bf 06 f4 4a bf
       -0.8932149 -0.5525002 -1.3666619 -0.792786
000090 ae c4 af bf 4c 62 3d bf 0f b0 a5 bf 37 c1 1e be
       -1.3731897 -0.73978114 -1.2944354 -0.15503393
0000a0 3e 5f 46 bf e3 d0 7e bf 67 82 2a bf 1b cb 39 bf
       -0.7748908 -0.99537486 -0.6660523 -0.7257554
0000b0 de eb 9c bf 00 4c 51 bf 2f 56 01 bf f3 52 36 bf
       -1.2259481 -0.8175659 -0.5052213 -0.7122032
0000c0 7e 72 b8 be 93 4e a3 bf 3d ab a3 bf c9 71 a3 bf
       -0.3602485 -1.2758354 -1.2786633 -1.27691
0000d0 12 a7 92 bf dd 81 26 bf f1 fe 0e bf bb ee 53 bf
       -1.1457236 -0.65041906 -0.5585776 -0.8278615
0000e0 7c 33 24 bf 14 59 76 bf ce 1a 93 bf 98 a6 8b bd
       -0.6414106 -0.9622967 -1.1492555 -0.068188846
0000f0 85 94 46 bf 1d 2c 78 bf 44 5d 6a bf 00 82 78 bf
       -0.7757037 -0.9694231 -0.9154856 -0.97073364
000100 3c 86 5d 3f d8 0c 71 bf 57 72 2d 3e 8a 95 ce bd
       0.8653295 -0.94160223 0.16938148 -0.10087116
000110 6f 05 9a bd bf 30 86 be 09 de 6b 3c a2 57 01 3f
       -0.075205676 -0.26209065 0.014396199 0.5052434
000120 d2 41 b3 bf 09 d9 62 3d 75 16 89 3f dd 67 bb be
       -1.4004462 0.055382762 1.0709978 -0.3660268
000130 ae de 63 bf 9b 1a f7 bb 54 1f 9a be 6c 01 db bd
       -0.8901166 -0.0075410134 -0.30102026 -0.106936306
000140 6d 0c b9 3e 32 15 44 3e 4e 77 fb 3e bc f8 54 3f
       0.36142293 0.1914871 0.4911446 0.8319204
000150 68 47 18 3f a4 68 19 be e6 36 94 3e 9d 62 15 bf
       0.5948396 -0.14981323 0.28948134 -0.58353597
000160 81 54 10 3f c6 e5 0b bf fa 2d ce 3e af 18 14 3f
       0.5637894 -0.5464748 0.40269452 0.57850164
000170 c9 04 5a bf 3e 52 9e 3e 9d 76 1b be e4 97 fe be
       -0.8516355 0.3092212 -0.15181966 -0.49725258
000180 0f 52 a3 3e ad 0a fe be 9f 2a d7 bf f1 3f c9 3e
       0.31898543 -0.4961752 -1.6809882 0.39306596
000190 c8 7e 84 bf de d7 8f 3f 9c d2 b0 bd 63 29 0a 3f
       -1.035119 1.1237752 -0.086339206 0.539694
0001a0 1f 47 26 be 78 89 d5 be 59 36 99 3f 76 4f 1b 3f
       -0.16238068 -0.41706443 1.196971 0.6066812
0001b0 56 a5 bf be 91 51 3f bf 1d 37 1a 3f 90 0a d6 3d
       -0.3743083 -0.74733835 0.60240346 0.104512334
0001c0 7f 37 15 3f 4b 01 8b bf d7 80 6a bf 0e c7 0d c0
       0.58287805 -1.085977 -0.91602844 -2.2152743
0001d0 5c ee 29 3e 78 90 12 be eb 31 30 3e 03 24 2b 3f
       0.16594833 -0.14312923 0.17206542 0.66851825
0001e0 97 20 81 bd 99 84 57 3f 91 e8 2b bf 17 6f 03 be
       -0.06305044 0.841867 -0.67151743 -0.12835346
0001f0 2f 0a 22 be b7 ce ae be e3 b7 4c be 52 d2 f3 3d
       -0.15824197 -0.34142086 -0.19992022 0.1190535
000200 5d 09 08 be 6a f1 06 bd a9 98 5e be 02 6e 5c 3d
       -0.13284822 -0.032945074 -0.21737923 0.05381585
000210 4d f6 3b bd 98 73 12 bd 7a 2d 79 3e d9 5e 09 3e
       -0.045889188 -0.03575477 0.24333754 0.13415088
000220 ea af 69 3b ad bd ce bd c3 c7 ad 3c 02 51 6f 3e
       0.0035657831 -0.100947715 0.021213418 0.23370746
000230 78 fe c0 bd f9 2d a9 3d cb 16 7f bd 8f ad 80 3d
       -0.09423536 0.08260722 -0.062277596 0.06283104
000240 8d ee 2d be 58 b3 1b 3e c8 3a 13 be 45 c8 14 bd
       -0.16985531 0.15205133 -0.14377892 -0.036323804
000250 db c4 df 3c 44 a5 d0 3d 2a 68 e8 3d 64 b1 32 3e
       0.027315548 0.10187772 0.11347993 0.17450482
000260 f3 65 a6 bc 36 70 2e 3e e8 be 22 be cc c7 89 3e
       -0.020312285 0.17034993 -0.15893137 0.26910245
000270 36 4b c0 bd a3 de 19 3e f2 a4 aa 3d 72 9d 24 be
       -0.09389345 0.15026335 0.08332242 -0.16075686
000280 d3 20 02 3e 96 dd 60 bd d6 b6 85 3d 9e aa 77 bd
       0.12707834 -0.05489882 0.06529014 -0.060465448
000290 db ee 32 bf 0e 18 c3 3c cf ed 95 3d 3c 1b e1 3d
       -0.69895715 0.023815181 0.07320749 0.10991523
0002a0 81 c4 85 3e 61 a1 d7 3d e6 06 cf 3c 4b a9 81 bc
       0.26126483 0.105288275 0.025271844 -0.015827795
0002b0 5e f3 c7 bd 6e fe 9b 3d 52 43 0f 3d 1e 5c 60 be
       -0.097632155 0.07616888 0.03497631 -0.2191014
0002c0 c9 0a 06 3c 53 96 1f 3d e2 74 ac 3d 20 4d e4 3c
       0.008181282 0.03896172 0.08420731 0.027868807
0002d0 54 4a 24 be 86 f6 84 3e ec d4 3d 3e d2 13 46 be
       -0.16043979 0.25969332 0.18538254 -0.19343498
0002e0 29 61 9b bd 05 90 f9 3d 47 fc 80 3b ab 93 5e be
       -0.07586891 0.12185673 0.003936324 -0.21736018
0002f0 ed d6 e2 bd 81 b3 d8 bd 14 8f 97 ba b3 1a b9 bb
       -0.1107615 -0.10581113 -0.0011563026 -0.0056489347
000300 ac dd 8e bd 00 50 69 bf 80 f4 6c bf 99 56 07 bf
       -0.06975874 -0.91137695 -0.9256058 -0.5286651
000310 78 f5 ea bf 02 44 f2 bf d6 7d fb 3d 13 2d 18 bf
       -1.8356161 -1.8927004 0.12279861 -0.5944378
000320 c2 5e 23 bf 53 fb 86 bf 17 54 0d 3e ba 5e 88 bf
       -0.63816464 -1.0545448 0.13801609 -1.0653908
000330 c6 5c 84 bf 85 de 5e bf 49 34 81 bf 1b a2 b6 bf
       -1.0340812 -0.8705829 -1.0094081 -1.4268221
000340 35 6d 55 bd d2 af 0a bf 51 1e b1 bf 22 70 4a be
       -0.0521061 -0.5417453 -1.3837377 -0.19769338
000350 fb cf 41 bf 47 fc 73 bf e6 54 97 be 8f 80 9b bf
       -0.7570798 -0.9530682 -0.2955696 -1.2148608
000360 58 c3 3f bf e5 d7 3a bf 0d d1 5b bf 1f c7 89 bd
       -0.74907446 -0.7298568 -0.8586586 -0.067274325
000370 a3 cd 24 be 91 4e fa be 8d e2 bb bf 9f b1 2f bf
       -0.16094069 -0.48888066 -1.4678513 -0.68630403
000380 c2 0e 5e bf df 42 02 bf 0f af a5 bf a5 81 68 bf
       -0.8674127 -0.5088329 -1.2944049 -0.9082282
000390 3b 9d 9a bf 13 2a 67 be 03 30 ab bf 89 7c 24 3e
       -1.2079233 -0.22574644 -1.3374027 0.16063131
0003a0 ca e7 55 bf 92 15 5e bf b0 b7 a9 bd b9 f9 17 bf
       -0.8355681 -0.86751664 -0.08286989 -0.5936542
0003b0 c0 f5 89 bf aa fe 3b bf c9 c0 28 bf 81 48 2d bf
       -1.0778122 -0.7343546 -0.65919167 -0.6768876
0003c0 e1 8d d2 be 76 4c 97 bf 11 fc 9a bf 47 d7 9b bf
       -0.4112387 -1.1820209 -1.2108175 -1.2175072
0003d0 66 86 9b bf e4 ac 39 bf 5c 9b d1 be 3f 70 3c bf
       -1.215039 -0.72529435 -0.40938842 -0.73608774
0003e0 63 44 54 bf 10 83 08 bf e3 df 96 bf b4 c9 fb bd
       -0.8291685 -0.53324986 -1.1787075 -0.12294331
0003f0 5b e5 18 bf 5d 01 48 bf 7e cc 51 bf 8e a1 80 bf
       -0.5972497 -0.7812708 -0.81952655 -1.0049303

bias_hh_l0 f4 [256]
000000 1a 8d de be d1 21 77 bf 18 41 68 bf 2e b4 d7 be
       -0.43467027 -0.96535975 -0.90724325 -0.42129654
000010 d4 e4 e6 bf 8f 21 f1 bf 3e 0c fd bd e6 48 51 bf
       -1.8038583 -1.8838366 -0.12355851 -0.8175186
000020 e3 c6 e0 be a1 45 b3 bf f7 5d 01 bf f7 eb 84 bf
       -0.4390174 -1.4005624 -0.50534004 -1.0384511
000030 19 b4 7f bf 4b 96 4c bf ab 3f 8d bf 34 36 b5 bf
       -0.9988418 -0.7991683 -1.1035055 -1.4157166
000040 5b 4a 88 be 30 2f dc be 7c 06 bb bf cc 17 fc be
       -0.2661923 -0.4300475 -1.4611354 -0.49236906
000050 8e d6 7c bf dc 16 6d bf a6 dc 95 be 9a 12 ad bf
       -0.98764884 -0.92613006 -0.29269904 -1.3521302
000060 ac d2 2d bf 63 a6 59 bf 3f e5 89 bf 9d 7c 87 be
       -0.67899585 -0.8501951 -1.0773085 -0.2646226
000070 4f 98 b7 bd dc c0 0d bf 1f 5e a6 bf 40 21 2f bf
       -0.089645974 -0.55372405 -1.2997473 -0.6841011
000080 0c 15 64 bf 10 33 1b bf fd 92 bc bf a3 a9 41 bf
       -0.89094615 -0.6062479 -1.4732357 -0.7564947
000090 b2 55 98 bf 13 70 52 bf e7 d7 a4 bf e9 59 89 be
       -1.1901152 -0.8220226 -1.2878388 -0.26826409
0000a0 32 33 64 bf 1e e7 84 bf 69 47 3e bf b9 cd 40 bf
       -0.8914062 -1.0383031 -0.74327713 -0.7531391
0000b0 60 e1 8a bf 7f 9b 70 bf 97 e6 05 bf c4 45 5a bf
       -1.0850029 -0.9398727 -0.5230498 -0.85262704
0000c0 1c 6a b7 be 05 32 a5 bf 55 74 97 bf 19 db 9c bf
       -0.35823143 -1.290589 -1.1832377 -1.2254363
0000d0 3a 8a 9d bf 95 0f 39 bf 59 14 0c bf 0d b4 78 bf
       -1.2307808 -0.722894 -0.5471855 -0.97149736
0000e0 79 2b 54 bf 66 97 82 bf 59 7d a6 bf 79 6b f8 bc
       -0.82878834 -1.0202453 -1.3007003 -0.030324684
0000f0 27 97 09 bf 3b d6 50 bf 58 0e 57 bf 52 1b 5a bf
       -0.53746265 -0.8157689 -0.8400626 -0.8519794
000100 c6 eb 57 3f f3 40 7a bf 0d 87 b4 3e ff 3e a2 be
       0.84344137 -0.97755355 0.35259286 -0.31688687
000110 13 73 b4 3d 00 72 f3 be d2 0e 6a 3d 8e a0 06 3f
       0.08811011 -0.47547913 0.05714304 0.52588737
000120 21 39 b6 bf 48 52 fb 3d 3a 57 89 3f ef af da be
       -1.4236184 0.12271553 1.0729744 -0.42712352
000130 b6 8f 68 bf 8e 3d 0a bd 82 e8 b5 be 54 07 59 be
       -0.90844285 -0.03375011 -0.35528952 -0.21194202
000140 73 4e 4b 3e 5e 4c 93 3e 35 b5 0f 3f 4e 05 65 3f
       0.19854145 0.287692 0.56135875 0.8946122
000150 24 64 1e 3f 5f d7 7b 3d 1e d9 ee 3d 6c 0a 4d bf
       0.6187155 0.06148469 0.116625056 -0.8009403
000160 25 50 e9 3e 3f f6 f9 be 94 26 aa 3e 02 c2 38 3f
       0.45568958 -0.48820683 0.33232558 0.7217103
000170 7b cb 3c bf 2a 8e 46 3e fc 91 8a bd b7 df 15 bf
       -0.73747987 0.19390169 -0.067661256 -0.58544487
000180 4f a9 d8 3e e1 a0 c7 be 2b 2b cf bf 83 0e a9 3e
       0.42316672 -0.38989928 -1.6185049 0.33018884
000190 94 c6 8e bf 04 b4 96 3f d5 39 71 3d 07 6a b5 3e
       -1.1154351 1.1773686 0.058893044 0.35432455
0001a0 63 b1 26 be d0 2c 0e bf 49 3a 9a 3f ce c5 fa 3e
       -0.16278605 -0.5553713 1.2049037 0.48979038
0001b0 e7 2e 0c bf 9a 5d 28 bf 3b a1 3f 3f 6f 80 69 3e
       -0.5475907 -0.65767825 0.74855393 0.228029
0001c0 b0 a8 19 3f 43 ba 88 bf 1f 5d 69 bf 69 1e 0d c0
       0.6002302 -1.0681843 -0.91157717 -2.204981
0001d0 82 9c 73 3e a6 9a 09 be 34 66 2d 3e cc d2 30 3f
       0.23790172 -0.134379 0.16933519 0.6907165
0001e0 0f f4 17 bc ec e7 75 3f f3 c6 27 bf 22 27 29 3d
       -0.009274497 0.9605701 -0.6553795 0.041297086
0001f0 f5 23 f9 bd b9 73 8f be b1 02 93 be ae 44 df 3d
       -0.121650614 -0.28017977 -0.2871299 0.109017715
000200 9f 21 9a 3d 73 5b fc bd ad 95 a5 bd 48 78 32 3e
       0.07525944 -0.1232213 -0.08085189 0.17428696
000210 b1 6e 37 bd 7d db c1 bd 1b 11 d0 3d 78 24 23 3c
       -0.044783298 -0.09465692 0.101595126 0.009957425
000220 c8 0c 92 bc 47 1f c7 bd c4 12 97 bd 1e d0 85 3e
       -0.01782836 -0.097227626 -0.07376626 0.26135343
000230 d2 23 01 3e 7a 8f ee bd 7b 5c 0a be 9e cf 1b 3e
       0.1261132 -0.1164846 -0.13511841 0.15215918
000240 e1 b1 80 bd d2 5f d4 3c 46 07 0c be 77 50 58 bc
       -0.06283928 0.025924597 -0.1367465 -0.013202778
000250 e1 06 78 bd 14 28 72 3d e5 87 3b bd 74 d8 1b 3e
       -0.060553435 0.059120253 -0.045783896 0.15219289
000260 03 68 fa 3d 02 07 2a 3d d9 56 01 be aa e6 f2 3d
       0.1222687 0.04151059 -0.12630786 0.11860402
000270 cc a3 5e bc 06 86 30 3e 90 ce 8a 3d 4c 14 75 be
       -0.013588857 0.17238626 0.0677768 -0.23933524
000280 3b 13 b7 3d e9 cf 9b 3c bc 67 ac bd 78 f2 bd bd
       0.08939215 0.019020038 -0.08418223 -0.09274763
000290 29 9d 50 bf d6 b8 73 3c 02 f2 3f bd e4 ea 93 3d
       -0.8148981 0.014875611 -0.046861656 0.07222536
0002a0 1c e0 69 3e 7e ec 21 3d 99 c2 99 bd a1 d8 7d 3d
       0.22839397 0.039532177 -0.0750782 0.06197417
0002b0 c4 9e 47 bd 26 d5 8a 3e 92 53 8b bb 48 e9 27 bd
       -0.048735395 0.27115744 -0.0042519057 -0.04099396
0002c0 2b 2d 97 bb 68 6b 5f 3e ae 5d 96 3d 29 eb a9 bd
       -0.0046135387 0.21818316 0.07342087 -0.08296806
0002d0 17 24 df bc ac 45 25 3e ed 27 08 3c c1 b6 75 bc
       -0.027238889 0.16139859 0.0083103 -0.014997185
0002e0 87 62 7f bd ac 88 43 3e 32 96 0a bd d1 a7 2f be
       -0.062349822 0.19095105 -0.033834644 -0.1715386
0002f0 a2 2e b5 bd e3 db 58 be 8f c3 17 bd 1a 1c 07 3b
       -0.08846785 -0.2117763 -0.037051734 0.0020616115
000300 f3 f8 c9 bb b8 25 86 bf d2 30 4b bf 7d 98 e4 be
       -0.0061637103 -1.0480261 -0.7937137 -0.4464759
000310 60 10 d9 bf 0d ec e6 bf b7 a2 8a ba 9f 7e 3d bf
       -1.6958122 -1.8040787 -0.0010577057 -0.74021333
000320 7a 04 07 bf c3 8b 89 bf d9 3a 5f 3e 26 0e 7c bf
       -0.52741206 -1.0745777 0.21799792 -0.9845909
000330 9b 32 95 bf 5d 35 55 bf aa e5 84 bf bf 6a be bf
       -1.1656069 -0.8328455 -1.0382588 -1.4876326
000340 55 2b 14 be 0d 57 19 bf b3 ab ad bf c1 73 6d be
       -0.14469655 -0.59898454 -1.3568023 -0.23188688
000350 ab 36 55 bf 0c a2 6e bf 82 75 c9 be e5 db 9c bf
       -0.8328654 -0.93216014 -0.39347464 -1.2254606
000360 70 fb 36 bf d7 ac 52 bf df 9c 6b bf 1d d4 03 be
       -0.71477413 -0.8229498 -0.9203624 -0.12873884
000370 5b 80 9f be ac 26 e6 be 12 11 ad bf b1 77 39 bf
       -0.31152615 -0.4495138 -1.3520834 -0.7244826
000380 e4 76 5d bf 6f c2 d1 be c9 0a b9 bf 91 52 57 bf
       -0.8650954 -0.40968654 -1.4456416 -0.8411036
000390 69 69 b0 bf d2 78 4c be 29 7f 9d bf 62 bb e0 3d
       -1.3782169 -0.19967964 -1.2304431 0.109732404
0003a0 9c 34 5a bf c3 4c 63 bf 32 03 42 bd d7 ef 15 bf
       -0.85236526 -0.88789004 -0.04736633 -0.5856909
0003b0 b7 b0 92 bf c0 f4 74 bf 25 22 15 bf db 4c 4b bf
       -1.1460179 -0.9568596 -0.58255225 -0.7941415
0003c0 0a 25 d7 be 4d 9a ae bf 08 29 9b bf 3e 39 9d bf
       -0.42020446 -1.3640839 -1.2121897 -1.2283094
0003d0 cb b5 96 bf 34 a5 1b bf 16 85 a3 be a4 2c 3a bf
       -1.1774229 -0.60798955 -0.31937474 -0.72724366
0003e0 09 d0 46 bf 5c 3f 32 bf 49 9e 9a bf 23 73 e6 bd
       -0.77661186 -0.6962793 -1.2079555 -0.11252429
0003f0 11 98 39 bf f1 d5 73 bf b6 1a 37 bf fb d8 69 bf
       -0.7249766 -0.95248324 -0.7152513 -0.9134671

weight f4 [32, 64]
000000 74 67 de 3d 5d 32 b5 be e3 df 8c be 7a 85 54 3d
       0.10859576 -0.35389987 -0.27514562 0.051885106
000010 f7 77 99 3d 45 19 ac bf 7e 20 f4 be a7 fe 45 3f
       0.074935846 -1.3445212 -0.4768104 0.77341694
000020 fe f3 f9 3f 16 6f 53 bf 65 a6 7f bc d6 06 c7 be
       1.9527586 -0.8259138 -0.015603636 -0.38872403
000030 14 73 05 bf 76 fa 95 3f ee 28 13 3f bf 9a 1d be
       -0.5212872 1.171706 0.5748433 -0.15391062
000040 81 4c b8 be 53 24 4e 3e e8 5a df 3e b8 b9 01 be
       -0.35995868 0.20131044 0.43624043 -0.12668502
000050 29 a1 17 bf 70 c5 26 bf 6f a4 9b 3e 00 63 54 bf
       -0.59230286 -0.65145016 0.3039889 -0.8296356
000060 d9 da 80 3e 54 ee e8 bd 4b fd 05 3f a6 58 d9 bd
       0.25166968 -0.113735825 0.5233962 -0.106126115
000070 55 d0 ba bd 6a 36 d5 3f 52 6f 40 bf 00 1a a0 3d
       -0.091217674 1.6657231 -0.7516986 0.07817459
000080 ce bb 64 3e ba 64 d0 3e bd 26 6a 3e 68 83 97 be
       0.22337267 0.40701848 0.2286634 -0.29592443
000090 53 3b 5f 3f 40 9e 56 3e 97 62 15 bf 3b 51 c0 3e
       0.87199897 0.20958805 -0.5835356 0.37561974
0000a0 bb 2b b5 3e 14 58 bc be 6e fd a6 3d 23 73 d5 3d
       0.35384926 -0.36785948 0.081538066 0.10422351
0000b0 e3 be 68 3e 9f 1e 56 3e e2 87 81 3d 94 5f 3f bd
       0.22729068 0.20910119 0.06324746 -0.04672201
0000c0 de 48 b6 be d7 06 fd be 81 81 e1 be 46 45 82 3f
       -0.35602468 -0.4941928 -0.44044116 1.017739
0000d0 d1 58 2c 3e ec 4b 2a be 05 4b 16 3f b3 0a 4b bd
       0.16830756 -0.16630524 0.5870822 -0.04957075
0000e0 b9 f8 d2 be 62 53 a0 3e 90 a9 43 3f d6 ff 62 3e
       -0.41205385 0.31313616 0.76430607 0.22167906
0000f0 95 4a 63 3d d4 f0 c4 3e 4a 2a a8 be 35 42 e2 bd
       0.05549105 0.38464987 -0.32844764 -0.11047784
000100 34 44 fe 3d a9 12 97 be 8b 43 66 be 45 40 0e bf
       0.124153525 -0.29506424 -0.22486703 -0.5556682
000110 41 43 aa be 16 38 b2 3d 97 91 44 3d 6c d0 1e bd
       -0.33254436 0.08702104 0.047990408 -0.038772985
000120 56 aa 0f c0 5a b0 ea bd 5a 99 89 bc 82 32 66 3f
       -2.2447715 -0.11459418 -0.016796757 0.8992082
000130 9a 3a 73 bf ca 11 bf 3e 7d 75 89 bf f0 af 91 3f
       -0.95011294 0.3731826 -1.073898 1.1381817
000140 78 60 af be a5 38 57 be 3e b6 20 bf 9a a6 fa be
       -0.34253287 -0.21017702 -0.6277808 -0.48955232
000150 bd f0 d0 3e 72 77 9a 3e 3c 7e 38 be c3 a8 7f 3f
       0.4080867 0.30169255 -0.18016905 0.99866885
000160 98 58 24 3f 1e 09 4a bf 26 9c 5d 3e 72 8e 7b 3d
       0.64197683 -0.7892016 0.21641597 0.061415143
000170 b6 c5 16 bf 34 e4 40 bf e6 5e 12 3f c4 cf f1 be
       -0.5889543 -0.7534821 0.57176054 -0.47228825
000180 e6 d4 2e 3f c8 79 ac 3e cc 2c cd be 27 af 72 be
       0.6829361 0.33686662 -0.4007324 -0.23699628
000190 32 9e 06 c0 5e a4 48 3e 17 49 c4 3f cf 3e 2f 3e
       -2.1034055 0.19593951 1.5334805 0.17113803
0001a0 ad f3 f5 3e c3 c0 84 3e d0 f0 79 3e 46 85 a9 3e
       0.48037472 0.25928316 0.24408269 0.33109492
0001b0 eb 82 f1 be d3 67 25 bf 90 74 3c bc 0c 20 19 bf
       -0.47170195 -0.6461155 -0.0115024 -0.59814525
0001c0 fc be c8 be 98 b5 e5 3f 13 15 78 3f dd dd 17 c0
       -0.3920821 1.7946043 0.96907157 -2.3729165
0001d0 d9 5c 5b bd e9 3e 2d 3f 2b 15 ae 3d b3 a4 eb 3e
       -0.053555343 0.6767412 0.08500131 0.46024093
0001e0 79 1b f6 3d 49 c2 e0 be ac ed 21 bd 9e 53 93 be
       0.12016959 -0.43898228 -0.039533302 -0.28774732
0001f0 45 da 51 3f b1 7b 04 bc 53 4d f5 be 8e 90 1a 3e
       0.8197368 -0.008086131 -0.47910556 0.15094206
000200 e3 52 07 bf 17 31 29 3f 9b d7 3a 3c 08 70 ba be
       -0.5286085 0.6609053 0.011403943 -0.36413598
000210 7a 2a 8b 3f f3 a7 40 be ee 57 31 3e 04 52 0b 3f
       1.0872338 -0.18814068 0.17318699 0.5442202
000220 a3 ec 12 3f 12 72 3d 3e df b0 33 3e a3 72 93 bf
       0.5739233 0.18500546 0.1754794 -1.1519359
000230 4a 72 2e be 5b 08 4c 3d 6b dd c6 be 3a eb ec be
       -0.17035785 0.049812656 -0.38840804 -0.46273214
000240 18 7a 5c be 16 c8 ae be 59 ce be 3e fa 90 cf be
       -0.2153095 -0.34137028 0.37266806 -0.40540296
000250 1b 7d 42 bd ec d7 0e bf 34 7d 33 bf 34 35 cb be
       -0.04748259 -0.5579822 -0.7011292 -0.39689028
000260 e6 60 df 3d a9 79 9c bf 77 34 3f be 12 f4 ad 3d
       0.10907154 -1.2224628 -0.18672357 0.08493818
000270 e0 9d c6 3e 7e 8e 11 bd 2a 15 9e 3f 2b 76 86 3f
       0.38792324 -0.03553628 1.2350209 1.0504812
000280 7c 70 8b bd 2a d3 68 be ea 3f 64 3e 0d c6 54 3e
       -0.06808564 -0.22736803 0.22290006 0.20778675
000290 8e 9a 94 3f 49 32 b7 be 0f 78 49 bf 82 67 91 3d
       1.1609666 -0.35780552 -0.7869882 0.07099821
0002a0 a9 b8 44 bf db 0a 90 bf 7f 52 1c 3c 46 ce ca 3e
       -0.7684427 -1.1253313 0.009541153 0.396105
0002b0 8f 1c 4e 3e cd 63 a0 be 43 2e e7 be 37 60 b9 3e
       0.20128082 -0.31326142 -0.45152482 0.3620622
0002c0 60 01 3b 3e d6 dd ea be d7 e0 34 3d 2e 30 08 be
       0.18262243 -0.45872372 0.044159736 -0.13299629
0002d0 38 f7 13 3f 9f 30 2e bf ab bb 32 bd b1 a4 f4 39
       0.577991 -0.6804294 -0.043636005 0.0004666201
0002e0 36 d0 be 3e 34 ed a6 3e a6 3d 2f bb 77 c1 3d 3d
       0.37268227 0.32602847 -0.0026739626 0.04632708
0002f0 c3 68 a1 be e8 be 3d 3f 07 36 44 3f 76 cb 01 3f
       -0.3152524 0.74119425 0.7664494 0.5070108
000300 a7 36 48 bf 86 9f b2 bf 78 61 9b 3d 2e f7 1c be
       -0.7820839 -1.3954933 0.0758695 -0.15328667
000310 9d 26 24 3f 3f 93 1a 3e fb ac 2d 3e 1f f5 f7 bc
       0.6412142 0.15095232 0.16960518 -0.03026825
000320 15 a1 2a 3e 8b 3f 3a be ee 10 a5 3e 9d 3f 9b 3e
       0.1666301 -0.18188302 0.3223948 0.3032197
000330 5e 17 78 be 33 f1 4c 3f 60 b6 eb 3e 14 a4 5e 3e
       -0.24227664 0.8005554 0.4603758 0.21742278
000340 00 dc 1a bf fa d4 73 bf 8d 5e 85 be 3f a0 d8 3e
       -0.60491943 -0.9524685 -0.260487 0.42309758
000350 de 1b 91 3f 9f f7 a0 bf f7 64 93 be c1 86 94 be
       1.1336629 -1.2575568 -0.28787968 -0.2900906
000360 c2 a1 50 be 69 fb 4f 3d fa 73 8a 3e 05 95 93 3d
       -0.20374206 0.050776873 0.27041608 0.072061576
000370 9e e9 03 be 67 4f cd bd e5 1b ab 3d 9b cf 06 3e
       -0.12882087 -0.100249104 0.0835493 0.13165133
000380 22 db f4 be 6b 44 7c 3d fb 13 d5 3e eb 53 67 3e
       -0.47823435 0.061588686 0.41616806 0.22590606
000390 68 53 db 3d a4 24 97 3d fe 7b 96 be 2f b7 47 bd
       0.10709268 0.073800355 -0.29391474 -0.048758682
0003a0 a9 f1 00 3f 8d ad 26 be 05 40 44 be 26 76 09 3e
       0.50368744 -0.16277142 -0.19165047 0.13423976
0003b0 6c 8c bd 3f d5 79 26 bf e3 34 ab 3d ce 1f 58 3e
       1.4808478 -0.6502965 0.08359697 0.21105883
0003c0 61 8e 25 3f 7e 13 7a be 2c 33 30 3d 2f bd 39 3e
       0.6467038 -0.24421498 0.04301755 0.18138574
0003d0 2a 34 4b 3f bf e8 6b bc 4a f2 d3 bd d7 0e 24 3e
       0.7937647 -0.014398753 -0.10348947 0.16021286
0003e0 33 d7 d7 bd 97 f4 ef 3e c7 d5 6a 3e af cf 3c bd
       -0.10539093 0.46866295 0.22933112 -0.0460965
0003f0 02 48 b2 3e b8 47 0e 3f 82 01 70 3e 78 ee c7 bb
       0.34820563 0.55578184 0.23438075 -0.0061014257

bias f4 [32]
000000 b8 28 a4 3b 76 d0 28 3d 0d bc f0 bc c4 10 12 bb
       0.005009737 0.04121443 -0.029386545 -0.0022287825
000010 92 0d e0 3b 73 0b 22 bd 14 24 a0 bd 1c 8f 56 3c
       0.006837555 -0.0395617 -0.07819381 0.013095643
000020 a6 c0 82 3c c5 df 43 bd 3f 40 f8 bb 35 bd 9e bd
       0.015961003 -0.047820825 -0.007576018 -0.07750932
000030 e5 03 18 bc ac d6 66 bc d2 da 32 3b b4 40 10 3c
       -0.009278272 -0.014089268 0.0027291072 0.008804489
000040 d6 1f 7c 3a 25 50 94 bd 9f 77 ec 3c e9 b0 a6 3d
       0.0009617781 -0.07241849 0.028865634 0.08139212
000050 c3 83 da bc 83 4c 95 3b 52 7f 53 3c 5b 8f 2e bd
       -0.026674157 0.00455624 0.0129087735 -0.042617183
000060 bd 80 ac 3b 85 ee 83 3c 39 4a a2 bc 4b 01 3b 3c
       0.0052643702 0.016104946 -0.019810783 0.0114138825
000070 87 db 2d bd 6b 25 cf 3c 80 02 a0 bc 4e 76 35 3c
       -0.042445686 0.025286397 -0.019532442 0.011075569
